{
  "nodes": [
    {
      "op": "null", 
      "name": "data", 
      "inputs": []
    }, 
    {
      "op": "null", 
      "name": "conv_conv1_weight", 
      "attr": {
        "kernel": "(7, 7)", 
        "num_filter": "64", 
        "pad": "(3, 3)", 
        "stride": "(2, 2)"
      }, 
      "inputs": []
    }, 
    {
      "op": "null", 
      "name": "conv_conv1_bias", 
      "attr": {
        "kernel": "(7, 7)", 
        "num_filter": "64", 
        "pad": "(3, 3)", 
        "stride": "(2, 2)"
      }, 
      "inputs": []
    }, 
    {
      "op": "Convolution", 
      "name": "conv_conv1", 
      "attr": {
        "kernel": "(7, 7)", 
        "num_filter": "64", 
        "pad": "(3, 3)", 
        "stride": "(2, 2)"
      }, 
      "inputs": [[0, 0, 0], [1, 0, 0], [2, 0, 0]]
    }, 
    {
      "op": "Activation", 
      "name": "relu_conv1", 
      "attr": {"act_type": "relu"}, 
      "inputs": [[3, 0, 0]]
    }, 
    {
      "op": "Pooling", 
      "name": "pooling0", 
      "attr": {
        "kernel": "(3, 3)", 
        "pool_type": "max", 
        "stride": "(2, 2)"
      }, 
      "inputs": [[4, 0, 0]]
    }, 
    {
      "op": "null", 
      "name": "conv_conv2_weight", 
      "attr": {
        "kernel": "(1, 1)", 
        "num_filter": "64", 
        "pad": "(0, 0)", 
        "stride": "(1, 1)"
      }, 
      "inputs": []
    }, 
    {
      "op": "null", 
      "name": "conv_conv2_bias", 
      "attr": {
        "kernel": "(1, 1)", 
        "num_filter": "64", 
        "pad": "(0, 0)", 
        "stride": "(1, 1)"
      }, 
      "inputs": []
    }, 
    {
      "op": "Convolution", 
      "name": "conv_conv2", 
      "attr": {
        "kernel": "(1, 1)", 
        "num_filter": "64", 
        "pad": "(0, 0)", 
        "stride": "(1, 1)"
      }, 
      "inputs": [[5, 0, 0], [6, 0, 0], [7, 0, 0]]
    }, 
    {
      "op": "Activation", 
      "name": "relu_conv2", 
      "attr": {"act_type": "relu"}, 
      "inputs": [[8, 0, 0]]
    }, 
    {
      "op": "null", 
      "name": "conv_conv3_weight", 
      "attr": {
        "kernel": "(3, 3)", 
        "num_filter": "192", 
        "pad": "(1, 1)", 
        "stride": "(1, 1)"
      }, 
      "inputs": []
    }, 
    {
      "op": "null", 
      "name": "conv_conv3_bias", 
      "attr": {
        "kernel": "(3, 3)", 
        "num_filter": "192", 
        "pad": "(1, 1)", 
        "stride": "(1, 1)"
      }, 
      "inputs": []
    }, 
    {
      "op": "Convolution", 
      "name": "conv_conv3", 
      "attr": {
        "kernel": "(3, 3)", 
        "num_filter": "192", 
        "pad": "(1, 1)", 
        "stride": "(1, 1)"
      }, 
      "inputs": [[9, 0, 0], [10, 0, 0], [11, 0, 0]]
    }, 
    {
      "op": "Activation", 
      "name": "relu_conv3", 
      "attr": {"act_type": "relu"}, 
      "inputs": [[12, 0, 0]]
    }, 
    {
      "op": "Pooling", 
      "name": "pooling1", 
      "attr": {
        "kernel": "(3, 3)", 
        "pool_type": "max", 
        "stride": "(2, 2)"
      }, 
      "inputs": [[13, 0, 0]]
    }, 
    {
      "op": "null", 
      "name": "conv_in3a_1x1_weight", 
      "attr": {
        "kernel": "(1, 1)", 
        "num_filter": "64", 
        "pad": "(0, 0)", 
        "stride": "(1, 1)"
      }, 
      "inputs": []
    }, 
    {
      "op": "null", 
      "name": "conv_in3a_1x1_bias", 
      "attr": {
        "kernel": "(1, 1)", 
        "num_filter": "64", 
        "pad": "(0, 0)", 
        "stride": "(1, 1)"
      }, 
      "inputs": []
    }, 
    {
      "op": "Convolution", 
      "name": "conv_in3a_1x1", 
      "attr": {
        "kernel": "(1, 1)", 
        "num_filter": "64", 
        "pad": "(0, 0)", 
        "stride": "(1, 1)"
      }, 
      "inputs": [[14, 0, 0], [15, 0, 0], [16, 0, 0]]
    }, 
    {
      "op": "Activation", 
      "name": "relu_in3a_1x1", 
      "attr": {"act_type": "relu"}, 
      "inputs": [[17, 0, 0]]
    }, 
    {
      "op": "null", 
      "name": "conv_in3a_3x3_reduce_weight", 
      "attr": {
        "kernel": "(1, 1)", 
        "num_filter": "96", 
        "pad": "(0, 0)", 
        "stride": "(1, 1)"
      }, 
      "inputs": []
    }, 
    {
      "op": "null", 
      "name": "conv_in3a_3x3_reduce_bias", 
      "attr": {
        "kernel": "(1, 1)", 
        "num_filter": "96", 
        "pad": "(0, 0)", 
        "stride": "(1, 1)"
      }, 
      "inputs": []
    }, 
    {
      "op": "Convolution", 
      "name": "conv_in3a_3x3_reduce", 
      "attr": {
        "kernel": "(1, 1)", 
        "num_filter": "96", 
        "pad": "(0, 0)", 
        "stride": "(1, 1)"
      }, 
      "inputs": [[14, 0, 0], [19, 0, 0], [20, 0, 0]]
    }, 
    {
      "op": "Activation", 
      "name": "relu_in3a_3x3_reduce", 
      "attr": {"act_type": "relu"}, 
      "inputs": [[21, 0, 0]]
    }, 
    {
      "op": "null", 
      "name": "conv_in3a_3x3_weight", 
      "attr": {
        "kernel": "(3, 3)", 
        "num_filter": "128", 
        "pad": "(1, 1)", 
        "stride": "(1, 1)"
      }, 
      "inputs": []
    }, 
    {
      "op": "null", 
      "name": "conv_in3a_3x3_bias", 
      "attr": {
        "kernel": "(3, 3)", 
        "num_filter": "128", 
        "pad": "(1, 1)", 
        "stride": "(1, 1)"
      }, 
      "inputs": []
    }, 
    {
      "op": "Convolution", 
      "name": "conv_in3a_3x3", 
      "attr": {
        "kernel": "(3, 3)", 
        "num_filter": "128", 
        "pad": "(1, 1)", 
        "stride": "(1, 1)"
      }, 
      "inputs": [[22, 0, 0], [23, 0, 0], [24, 0, 0]]
    }, 
    {
      "op": "Activation", 
      "name": "relu_in3a_3x3", 
      "attr": {"act_type": "relu"}, 
      "inputs": [[25, 0, 0]]
    }, 
    {
      "op": "null", 
      "name": "conv_in3a_5x5_reduce_weight", 
      "attr": {
        "kernel": "(1, 1)", 
        "num_filter": "16", 
        "pad": "(0, 0)", 
        "stride": "(1, 1)"
      }, 
      "inputs": []
    }, 
    {
      "op": "null", 
      "name": "conv_in3a_5x5_reduce_bias", 
      "attr": {
        "kernel": "(1, 1)", 
        "num_filter": "16", 
        "pad": "(0, 0)", 
        "stride": "(1, 1)"
      }, 
      "inputs": []
    }, 
    {
      "op": "Convolution", 
      "name": "conv_in3a_5x5_reduce", 
      "attr": {
        "kernel": "(1, 1)", 
        "num_filter": "16", 
        "pad": "(0, 0)", 
        "stride": "(1, 1)"
      }, 
      "inputs": [[14, 0, 0], [27, 0, 0], [28, 0, 0]]
    }, 
    {
      "op": "Activation", 
      "name": "relu_in3a_5x5_reduce", 
      "attr": {"act_type": "relu"}, 
      "inputs": [[29, 0, 0]]
    }, 
    {
      "op": "null", 
      "name": "conv_in3a_5x5_weight", 
      "attr": {
        "kernel": "(5, 5)", 
        "num_filter": "32", 
        "pad": "(2, 2)", 
        "stride": "(1, 1)"
      }, 
      "inputs": []
    }, 
    {
      "op": "null", 
      "name": "conv_in3a_5x5_bias", 
      "attr": {
        "kernel": "(5, 5)", 
        "num_filter": "32", 
        "pad": "(2, 2)", 
        "stride": "(1, 1)"
      }, 
      "inputs": []
    }, 
    {
      "op": "Convolution", 
      "name": "conv_in3a_5x5", 
      "attr": {
        "kernel": "(5, 5)", 
        "num_filter": "32", 
        "pad": "(2, 2)", 
        "stride": "(1, 1)"
      }, 
      "inputs": [[30, 0, 0], [31, 0, 0], [32, 0, 0]]
    }, 
    {
      "op": "Activation", 
      "name": "relu_in3a_5x5", 
      "attr": {"act_type": "relu"}, 
      "inputs": [[33, 0, 0]]
    }, 
    {
      "op": "Pooling", 
      "name": "max_pool_in3a_pool", 
      "attr": {
        "kernel": "(3, 3)", 
        "pad": "(1, 1)", 
        "pool_type": "max", 
        "stride": "(1, 1)"
      }, 
      "inputs": [[14, 0, 0]]
    }, 
    {
      "op": "null", 
      "name": "conv_in3a_proj_weight", 
      "attr": {
        "kernel": "(1, 1)", 
        "num_filter": "32", 
        "pad": "(0, 0)", 
        "stride": "(1, 1)"
      }, 
      "inputs": []
    }, 
    {
      "op": "null", 
      "name": "conv_in3a_proj_bias", 
      "attr": {
        "kernel": "(1, 1)", 
        "num_filter": "32", 
        "pad": "(0, 0)", 
        "stride": "(1, 1)"
      }, 
      "inputs": []
    }, 
    {
      "op": "Convolution", 
      "name": "conv_in3a_proj", 
      "attr": {
        "kernel": "(1, 1)", 
        "num_filter": "32", 
        "pad": "(0, 0)", 
        "stride": "(1, 1)"
      }, 
      "inputs": [[35, 0, 0], [36, 0, 0], [37, 0, 0]]
    }, 
    {
      "op": "Activation", 
      "name": "relu_in3a_proj", 
      "attr": {"act_type": "relu"}, 
      "inputs": [[38, 0, 0]]
    }, 
    {
      "op": "Concat", 
      "name": "ch_concat_in3a_chconcat", 
      "attr": {"num_args": "4"}, 
      "inputs": [[18, 0, 0], [26, 0, 0], [34, 0, 0], [39, 0, 0]]
    }, 
    {
      "op": "null", 
      "name": "conv_in3b_1x1_weight", 
      "attr": {
        "kernel": "(1, 1)", 
        "num_filter": "128", 
        "pad": "(0, 0)", 
        "stride": "(1, 1)"
      }, 
      "inputs": []
    }, 
    {
      "op": "null", 
      "name": "conv_in3b_1x1_bias", 
      "attr": {
        "kernel": "(1, 1)", 
        "num_filter": "128", 
        "pad": "(0, 0)", 
        "stride": "(1, 1)"
      }, 
      "inputs": []
    }, 
    {
      "op": "Convolution", 
      "name": "conv_in3b_1x1", 
      "attr": {
        "kernel": "(1, 1)", 
        "num_filter": "128", 
        "pad": "(0, 0)", 
        "stride": "(1, 1)"
      }, 
      "inputs": [[40, 0, 0], [41, 0, 0], [42, 0, 0]]
    }, 
    {
      "op": "Activation", 
      "name": "relu_in3b_1x1", 
      "attr": {"act_type": "relu"}, 
      "inputs": [[43, 0, 0]]
    }, 
    {
      "op": "null", 
      "name": "conv_in3b_3x3_reduce_weight", 
      "attr": {
        "kernel": "(1, 1)", 
        "num_filter": "128", 
        "pad": "(0, 0)", 
        "stride": "(1, 1)"
      }, 
      "inputs": []
    }, 
    {
      "op": "null", 
      "name": "conv_in3b_3x3_reduce_bias", 
      "attr": {
        "kernel": "(1, 1)", 
        "num_filter": "128", 
        "pad": "(0, 0)", 
        "stride": "(1, 1)"
      }, 
      "inputs": []
    }, 
    {
      "op": "Convolution", 
      "name": "conv_in3b_3x3_reduce", 
      "attr": {
        "kernel": "(1, 1)", 
        "num_filter": "128", 
        "pad": "(0, 0)", 
        "stride": "(1, 1)"
      }, 
      "inputs": [[40, 0, 0], [45, 0, 0], [46, 0, 0]]
    }, 
    {
      "op": "Activation", 
      "name": "relu_in3b_3x3_reduce", 
      "attr": {"act_type": "relu"}, 
      "inputs": [[47, 0, 0]]
    }, 
    {
      "op": "null", 
      "name": "conv_in3b_3x3_weight", 
      "attr": {
        "kernel": "(3, 3)", 
        "num_filter": "192", 
        "pad": "(1, 1)", 
        "stride": "(1, 1)"
      }, 
      "inputs": []
    }, 
    {
      "op": "null", 
      "name": "conv_in3b_3x3_bias", 
      "attr": {
        "kernel": "(3, 3)", 
        "num_filter": "192", 
        "pad": "(1, 1)", 
        "stride": "(1, 1)"
      }, 
      "inputs": []
    }, 
    {
      "op": "Convolution", 
      "name": "conv_in3b_3x3", 
      "attr": {
        "kernel": "(3, 3)", 
        "num_filter": "192", 
        "pad": "(1, 1)", 
        "stride": "(1, 1)"
      }, 
      "inputs": [[48, 0, 0], [49, 0, 0], [50, 0, 0]]
    }, 
    {
      "op": "Activation", 
      "name": "relu_in3b_3x3", 
      "attr": {"act_type": "relu"}, 
      "inputs": [[51, 0, 0]]
    }, 
    {
      "op": "null", 
      "name": "conv_in3b_5x5_reduce_weight", 
      "attr": {
        "kernel": "(1, 1)", 
        "num_filter": "32", 
        "pad": "(0, 0)", 
        "stride": "(1, 1)"
      }, 
      "inputs": []
    }, 
    {
      "op": "null", 
      "name": "conv_in3b_5x5_reduce_bias", 
      "attr": {
        "kernel": "(1, 1)", 
        "num_filter": "32", 
        "pad": "(0, 0)", 
        "stride": "(1, 1)"
      }, 
      "inputs": []
    }, 
    {
      "op": "Convolution", 
      "name": "conv_in3b_5x5_reduce", 
      "attr": {
        "kernel": "(1, 1)", 
        "num_filter": "32", 
        "pad": "(0, 0)", 
        "stride": "(1, 1)"
      }, 
      "inputs": [[40, 0, 0], [53, 0, 0], [54, 0, 0]]
    }, 
    {
      "op": "Activation", 
      "name": "relu_in3b_5x5_reduce", 
      "attr": {"act_type": "relu"}, 
      "inputs": [[55, 0, 0]]
    }, 
    {
      "op": "null", 
      "name": "conv_in3b_5x5_weight", 
      "attr": {
        "kernel": "(5, 5)", 
        "num_filter": "96", 
        "pad": "(2, 2)", 
        "stride": "(1, 1)"
      }, 
      "inputs": []
    }, 
    {
      "op": "null", 
      "name": "conv_in3b_5x5_bias", 
      "attr": {
        "kernel": "(5, 5)", 
        "num_filter": "96", 
        "pad": "(2, 2)", 
        "stride": "(1, 1)"
      }, 
      "inputs": []
    }, 
    {
      "op": "Convolution", 
      "name": "conv_in3b_5x5", 
      "attr": {
        "kernel": "(5, 5)", 
        "num_filter": "96", 
        "pad": "(2, 2)", 
        "stride": "(1, 1)"
      }, 
      "inputs": [[56, 0, 0], [57, 0, 0], [58, 0, 0]]
    }, 
    {
      "op": "Activation", 
      "name": "relu_in3b_5x5", 
      "attr": {"act_type": "relu"}, 
      "inputs": [[59, 0, 0]]
    }, 
    {
      "op": "Pooling", 
      "name": "max_pool_in3b_pool", 
      "attr": {
        "kernel": "(3, 3)", 
        "pad": "(1, 1)", 
        "pool_type": "max", 
        "stride": "(1, 1)"
      }, 
      "inputs": [[40, 0, 0]]
    }, 
    {
      "op": "null", 
      "name": "conv_in3b_proj_weight", 
      "attr": {
        "kernel": "(1, 1)", 
        "num_filter": "64", 
        "pad": "(0, 0)", 
        "stride": "(1, 1)"
      }, 
      "inputs": []
    }, 
    {
      "op": "null", 
      "name": "conv_in3b_proj_bias", 
      "attr": {
        "kernel": "(1, 1)", 
        "num_filter": "64", 
        "pad": "(0, 0)", 
        "stride": "(1, 1)"
      }, 
      "inputs": []
    }, 
    {
      "op": "Convolution", 
      "name": "conv_in3b_proj", 
      "attr": {
        "kernel": "(1, 1)", 
        "num_filter": "64", 
        "pad": "(0, 0)", 
        "stride": "(1, 1)"
      }, 
      "inputs": [[61, 0, 0], [62, 0, 0], [63, 0, 0]]
    }, 
    {
      "op": "Activation", 
      "name": "relu_in3b_proj", 
      "attr": {"act_type": "relu"}, 
      "inputs": [[64, 0, 0]]
    }, 
    {
      "op": "Concat", 
      "name": "ch_concat_in3b_chconcat", 
      "attr": {"num_args": "4"}, 
      "inputs": [[44, 0, 0], [52, 0, 0], [60, 0, 0], [65, 0, 0]]
    }, 
    {
      "op": "Pooling", 
      "name": "pooling2", 
      "attr": {
        "kernel": "(3, 3)", 
        "pool_type": "max", 
        "stride": "(2, 2)"
      }, 
      "inputs": [[66, 0, 0]]
    }, 
    {
      "op": "null", 
      "name": "conv_in4a_1x1_weight", 
      "attr": {
        "kernel": "(1, 1)", 
        "num_filter": "192", 
        "pad": "(0, 0)", 
        "stride": "(1, 1)"
      }, 
      "inputs": []
    }, 
    {
      "op": "null", 
      "name": "conv_in4a_1x1_bias", 
      "attr": {
        "kernel": "(1, 1)", 
        "num_filter": "192", 
        "pad": "(0, 0)", 
        "stride": "(1, 1)"
      }, 
      "inputs": []
    }, 
    {
      "op": "Convolution", 
      "name": "conv_in4a_1x1", 
      "attr": {
        "kernel": "(1, 1)", 
        "num_filter": "192", 
        "pad": "(0, 0)", 
        "stride": "(1, 1)"
      }, 
      "inputs": [[67, 0, 0], [68, 0, 0], [69, 0, 0]]
    }, 
    {
      "op": "Activation", 
      "name": "relu_in4a_1x1", 
      "attr": {"act_type": "relu"}, 
      "inputs": [[70, 0, 0]]
    }, 
    {
      "op": "null", 
      "name": "conv_in4a_3x3_reduce_weight", 
      "attr": {
        "kernel": "(1, 1)", 
        "num_filter": "96", 
        "pad": "(0, 0)", 
        "stride": "(1, 1)"
      }, 
      "inputs": []
    }, 
    {
      "op": "null", 
      "name": "conv_in4a_3x3_reduce_bias", 
      "attr": {
        "kernel": "(1, 1)", 
        "num_filter": "96", 
        "pad": "(0, 0)", 
        "stride": "(1, 1)"
      }, 
      "inputs": []
    }, 
    {
      "op": "Convolution", 
      "name": "conv_in4a_3x3_reduce", 
      "attr": {
        "kernel": "(1, 1)", 
        "num_filter": "96", 
        "pad": "(0, 0)", 
        "stride": "(1, 1)"
      }, 
      "inputs": [[67, 0, 0], [72, 0, 0], [73, 0, 0]]
    }, 
    {
      "op": "Activation", 
      "name": "relu_in4a_3x3_reduce", 
      "attr": {"act_type": "relu"}, 
      "inputs": [[74, 0, 0]]
    }, 
    {
      "op": "null", 
      "name": "conv_in4a_3x3_weight", 
      "attr": {
        "kernel": "(3, 3)", 
        "num_filter": "208", 
        "pad": "(1, 1)", 
        "stride": "(1, 1)"
      }, 
      "inputs": []
    }, 
    {
      "op": "null", 
      "name": "conv_in4a_3x3_bias", 
      "attr": {
        "kernel": "(3, 3)", 
        "num_filter": "208", 
        "pad": "(1, 1)", 
        "stride": "(1, 1)"
      }, 
      "inputs": []
    }, 
    {
      "op": "Convolution", 
      "name": "conv_in4a_3x3", 
      "attr": {
        "kernel": "(3, 3)", 
        "num_filter": "208", 
        "pad": "(1, 1)", 
        "stride": "(1, 1)"
      }, 
      "inputs": [[75, 0, 0], [76, 0, 0], [77, 0, 0]]
    }, 
    {
      "op": "Activation", 
      "name": "relu_in4a_3x3", 
      "attr": {"act_type": "relu"}, 
      "inputs": [[78, 0, 0]]
    }, 
    {
      "op": "null", 
      "name": "conv_in4a_5x5_reduce_weight", 
      "attr": {
        "kernel": "(1, 1)", 
        "num_filter": "16", 
        "pad": "(0, 0)", 
        "stride": "(1, 1)"
      }, 
      "inputs": []
    }, 
    {
      "op": "null", 
      "name": "conv_in4a_5x5_reduce_bias", 
      "attr": {
        "kernel": "(1, 1)", 
        "num_filter": "16", 
        "pad": "(0, 0)", 
        "stride": "(1, 1)"
      }, 
      "inputs": []
    }, 
    {
      "op": "Convolution", 
      "name": "conv_in4a_5x5_reduce", 
      "attr": {
        "kernel": "(1, 1)", 
        "num_filter": "16", 
        "pad": "(0, 0)", 
        "stride": "(1, 1)"
      }, 
      "inputs": [[67, 0, 0], [80, 0, 0], [81, 0, 0]]
    }, 
    {
      "op": "Activation", 
      "name": "relu_in4a_5x5_reduce", 
      "attr": {"act_type": "relu"}, 
      "inputs": [[82, 0, 0]]
    }, 
    {
      "op": "null", 
      "name": "conv_in4a_5x5_weight", 
      "attr": {
        "kernel": "(5, 5)", 
        "num_filter": "48", 
        "pad": "(2, 2)", 
        "stride": "(1, 1)"
      }, 
      "inputs": []
    }, 
    {
      "op": "null", 
      "name": "conv_in4a_5x5_bias", 
      "attr": {
        "kernel": "(5, 5)", 
        "num_filter": "48", 
        "pad": "(2, 2)", 
        "stride": "(1, 1)"
      }, 
      "inputs": []
    }, 
    {
      "op": "Convolution", 
      "name": "conv_in4a_5x5", 
      "attr": {
        "kernel": "(5, 5)", 
        "num_filter": "48", 
        "pad": "(2, 2)", 
        "stride": "(1, 1)"
      }, 
      "inputs": [[83, 0, 0], [84, 0, 0], [85, 0, 0]]
    }, 
    {
      "op": "Activation", 
      "name": "relu_in4a_5x5", 
      "attr": {"act_type": "relu"}, 
      "inputs": [[86, 0, 0]]
    }, 
    {
      "op": "Pooling", 
      "name": "max_pool_in4a_pool", 
      "attr": {
        "kernel": "(3, 3)", 
        "pad": "(1, 1)", 
        "pool_type": "max", 
        "stride": "(1, 1)"
      }, 
      "inputs": [[67, 0, 0]]
    }, 
    {
      "op": "null", 
      "name": "conv_in4a_proj_weight", 
      "attr": {
        "kernel": "(1, 1)", 
        "num_filter": "64", 
        "pad": "(0, 0)", 
        "stride": "(1, 1)"
      }, 
      "inputs": []
    }, 
    {
      "op": "null", 
      "name": "conv_in4a_proj_bias", 
      "attr": {
        "kernel": "(1, 1)", 
        "num_filter": "64", 
        "pad": "(0, 0)", 
        "stride": "(1, 1)"
      }, 
      "inputs": []
    }, 
    {
      "op": "Convolution", 
      "name": "conv_in4a_proj", 
      "attr": {
        "kernel": "(1, 1)", 
        "num_filter": "64", 
        "pad": "(0, 0)", 
        "stride": "(1, 1)"
      }, 
      "inputs": [[88, 0, 0], [89, 0, 0], [90, 0, 0]]
    }, 
    {
      "op": "Activation", 
      "name": "relu_in4a_proj", 
      "attr": {"act_type": "relu"}, 
      "inputs": [[91, 0, 0]]
    }, 
    {
      "op": "Concat", 
      "name": "ch_concat_in4a_chconcat", 
      "attr": {"num_args": "4"}, 
      "inputs": [[71, 0, 0], [79, 0, 0], [87, 0, 0], [92, 0, 0]]
    }, 
    {
      "op": "null", 
      "name": "conv_in4b_1x1_weight", 
      "attr": {
        "kernel": "(1, 1)", 
        "num_filter": "160", 
        "pad": "(0, 0)", 
        "stride": "(1, 1)"
      }, 
      "inputs": []
    }, 
    {
      "op": "null", 
      "name": "conv_in4b_1x1_bias", 
      "attr": {
        "kernel": "(1, 1)", 
        "num_filter": "160", 
        "pad": "(0, 0)", 
        "stride": "(1, 1)"
      }, 
      "inputs": []
    }, 
    {
      "op": "Convolution", 
      "name": "conv_in4b_1x1", 
      "attr": {
        "kernel": "(1, 1)", 
        "num_filter": "160", 
        "pad": "(0, 0)", 
        "stride": "(1, 1)"
      }, 
      "inputs": [[93, 0, 0], [94, 0, 0], [95, 0, 0]]
    }, 
    {
      "op": "Activation", 
      "name": "relu_in4b_1x1", 
      "attr": {"act_type": "relu"}, 
      "inputs": [[96, 0, 0]]
    }, 
    {
      "op": "null", 
      "name": "conv_in4b_3x3_reduce_weight", 
      "attr": {
        "kernel": "(1, 1)", 
        "num_filter": "112", 
        "pad": "(0, 0)", 
        "stride": "(1, 1)"
      }, 
      "inputs": []
    }, 
    {
      "op": "null", 
      "name": "conv_in4b_3x3_reduce_bias", 
      "attr": {
        "kernel": "(1, 1)", 
        "num_filter": "112", 
        "pad": "(0, 0)", 
        "stride": "(1, 1)"
      }, 
      "inputs": []
    }, 
    {
      "op": "Convolution", 
      "name": "conv_in4b_3x3_reduce", 
      "attr": {
        "kernel": "(1, 1)", 
        "num_filter": "112", 
        "pad": "(0, 0)", 
        "stride": "(1, 1)"
      }, 
      "inputs": [[93, 0, 0], [98, 0, 0], [99, 0, 0]]
    }, 
    {
      "op": "Activation", 
      "name": "relu_in4b_3x3_reduce", 
      "attr": {"act_type": "relu"}, 
      "inputs": [[100, 0, 0]]
    }, 
    {
      "op": "null", 
      "name": "conv_in4b_3x3_weight", 
      "attr": {
        "kernel": "(3, 3)", 
        "num_filter": "224", 
        "pad": "(1, 1)", 
        "stride": "(1, 1)"
      }, 
      "inputs": []
    }, 
    {
      "op": "null", 
      "name": "conv_in4b_3x3_bias", 
      "attr": {
        "kernel": "(3, 3)", 
        "num_filter": "224", 
        "pad": "(1, 1)", 
        "stride": "(1, 1)"
      }, 
      "inputs": []
    }, 
    {
      "op": "Convolution", 
      "name": "conv_in4b_3x3", 
      "attr": {
        "kernel": "(3, 3)", 
        "num_filter": "224", 
        "pad": "(1, 1)", 
        "stride": "(1, 1)"
      }, 
      "inputs": [[101, 0, 0], [102, 0, 0], [103, 0, 0]]
    }, 
    {
      "op": "Activation", 
      "name": "relu_in4b_3x3", 
      "attr": {"act_type": "relu"}, 
      "inputs": [[104, 0, 0]]
    }, 
    {
      "op": "null", 
      "name": "conv_in4b_5x5_reduce_weight", 
      "attr": {
        "kernel": "(1, 1)", 
        "num_filter": "24", 
        "pad": "(0, 0)", 
        "stride": "(1, 1)"
      }, 
      "inputs": []
    }, 
    {
      "op": "null", 
      "name": "conv_in4b_5x5_reduce_bias", 
      "attr": {
        "kernel": "(1, 1)", 
        "num_filter": "24", 
        "pad": "(0, 0)", 
        "stride": "(1, 1)"
      }, 
      "inputs": []
    }, 
    {
      "op": "Convolution", 
      "name": "conv_in4b_5x5_reduce", 
      "attr": {
        "kernel": "(1, 1)", 
        "num_filter": "24", 
        "pad": "(0, 0)", 
        "stride": "(1, 1)"
      }, 
      "inputs": [[93, 0, 0], [106, 0, 0], [107, 0, 0]]
    }, 
    {
      "op": "Activation", 
      "name": "relu_in4b_5x5_reduce", 
      "attr": {"act_type": "relu"}, 
      "inputs": [[108, 0, 0]]
    }, 
    {
      "op": "null", 
      "name": "conv_in4b_5x5_weight", 
      "attr": {
        "kernel": "(5, 5)", 
        "num_filter": "64", 
        "pad": "(2, 2)", 
        "stride": "(1, 1)"
      }, 
      "inputs": []
    }, 
    {
      "op": "null", 
      "name": "conv_in4b_5x5_bias", 
      "attr": {
        "kernel": "(5, 5)", 
        "num_filter": "64", 
        "pad": "(2, 2)", 
        "stride": "(1, 1)"
      }, 
      "inputs": []
    }, 
    {
      "op": "Convolution", 
      "name": "conv_in4b_5x5", 
      "attr": {
        "kernel": "(5, 5)", 
        "num_filter": "64", 
        "pad": "(2, 2)", 
        "stride": "(1, 1)"
      }, 
      "inputs": [[109, 0, 0], [110, 0, 0], [111, 0, 0]]
    }, 
    {
      "op": "Activation", 
      "name": "relu_in4b_5x5", 
      "attr": {"act_type": "relu"}, 
      "inputs": [[112, 0, 0]]
    }, 
    {
      "op": "Pooling", 
      "name": "max_pool_in4b_pool", 
      "attr": {
        "kernel": "(3, 3)", 
        "pad": "(1, 1)", 
        "pool_type": "max", 
        "stride": "(1, 1)"
      }, 
      "inputs": [[93, 0, 0]]
    }, 
    {
      "op": "null", 
      "name": "conv_in4b_proj_weight", 
      "attr": {
        "kernel": "(1, 1)", 
        "num_filter": "64", 
        "pad": "(0, 0)", 
        "stride": "(1, 1)"
      }, 
      "inputs": []
    }, 
    {
      "op": "null", 
      "name": "conv_in4b_proj_bias", 
      "attr": {
        "kernel": "(1, 1)", 
        "num_filter": "64", 
        "pad": "(0, 0)", 
        "stride": "(1, 1)"
      }, 
      "inputs": []
    }, 
    {
      "op": "Convolution", 
      "name": "conv_in4b_proj", 
      "attr": {
        "kernel": "(1, 1)", 
        "num_filter": "64", 
        "pad": "(0, 0)", 
        "stride": "(1, 1)"
      }, 
      "inputs": [[114, 0, 0], [115, 0, 0], [116, 0, 0]]
    }, 
    {
      "op": "Activation", 
      "name": "relu_in4b_proj", 
      "attr": {"act_type": "relu"}, 
      "inputs": [[117, 0, 0]]
    }, 
    {
      "op": "Concat", 
      "name": "ch_concat_in4b_chconcat", 
      "attr": {"num_args": "4"}, 
      "inputs": [[97, 0, 0], [105, 0, 0], [113, 0, 0], [118, 0, 0]]
    }, 
    {
      "op": "null", 
      "name": "conv_in4c_1x1_weight", 
      "attr": {
        "kernel": "(1, 1)", 
        "num_filter": "128", 
        "pad": "(0, 0)", 
        "stride": "(1, 1)"
      }, 
      "inputs": []
    }, 
    {
      "op": "null", 
      "name": "conv_in4c_1x1_bias", 
      "attr": {
        "kernel": "(1, 1)", 
        "num_filter": "128", 
        "pad": "(0, 0)", 
        "stride": "(1, 1)"
      }, 
      "inputs": []
    }, 
    {
      "op": "Convolution", 
      "name": "conv_in4c_1x1", 
      "attr": {
        "kernel": "(1, 1)", 
        "num_filter": "128", 
        "pad": "(0, 0)", 
        "stride": "(1, 1)"
      }, 
      "inputs": [[119, 0, 0], [120, 0, 0], [121, 0, 0]]
    }, 
    {
      "op": "Activation", 
      "name": "relu_in4c_1x1", 
      "attr": {"act_type": "relu"}, 
      "inputs": [[122, 0, 0]]
    }, 
    {
      "op": "null", 
      "name": "conv_in4c_3x3_reduce_weight", 
      "attr": {
        "kernel": "(1, 1)", 
        "num_filter": "128", 
        "pad": "(0, 0)", 
        "stride": "(1, 1)"
      }, 
      "inputs": []
    }, 
    {
      "op": "null", 
      "name": "conv_in4c_3x3_reduce_bias", 
      "attr": {
        "kernel": "(1, 1)", 
        "num_filter": "128", 
        "pad": "(0, 0)", 
        "stride": "(1, 1)"
      }, 
      "inputs": []
    }, 
    {
      "op": "Convolution", 
      "name": "conv_in4c_3x3_reduce", 
      "attr": {
        "kernel": "(1, 1)", 
        "num_filter": "128", 
        "pad": "(0, 0)", 
        "stride": "(1, 1)"
      }, 
      "inputs": [[119, 0, 0], [124, 0, 0], [125, 0, 0]]
    }, 
    {
      "op": "Activation", 
      "name": "relu_in4c_3x3_reduce", 
      "attr": {"act_type": "relu"}, 
      "inputs": [[126, 0, 0]]
    }, 
    {
      "op": "null", 
      "name": "conv_in4c_3x3_weight", 
      "attr": {
        "kernel": "(3, 3)", 
        "num_filter": "256", 
        "pad": "(1, 1)", 
        "stride": "(1, 1)"
      }, 
      "inputs": []
    }, 
    {
      "op": "null", 
      "name": "conv_in4c_3x3_bias", 
      "attr": {
        "kernel": "(3, 3)", 
        "num_filter": "256", 
        "pad": "(1, 1)", 
        "stride": "(1, 1)"
      }, 
      "inputs": []
    }, 
    {
      "op": "Convolution", 
      "name": "conv_in4c_3x3", 
      "attr": {
        "kernel": "(3, 3)", 
        "num_filter": "256", 
        "pad": "(1, 1)", 
        "stride": "(1, 1)"
      }, 
      "inputs": [[127, 0, 0], [128, 0, 0], [129, 0, 0]]
    }, 
    {
      "op": "Activation", 
      "name": "relu_in4c_3x3", 
      "attr": {"act_type": "relu"}, 
      "inputs": [[130, 0, 0]]
    }, 
    {
      "op": "null", 
      "name": "conv_in4c_5x5_reduce_weight", 
      "attr": {
        "kernel": "(1, 1)", 
        "num_filter": "24", 
        "pad": "(0, 0)", 
        "stride": "(1, 1)"
      }, 
      "inputs": []
    }, 
    {
      "op": "null", 
      "name": "conv_in4c_5x5_reduce_bias", 
      "attr": {
        "kernel": "(1, 1)", 
        "num_filter": "24", 
        "pad": "(0, 0)", 
        "stride": "(1, 1)"
      }, 
      "inputs": []
    }, 
    {
      "op": "Convolution", 
      "name": "conv_in4c_5x5_reduce", 
      "attr": {
        "kernel": "(1, 1)", 
        "num_filter": "24", 
        "pad": "(0, 0)", 
        "stride": "(1, 1)"
      }, 
      "inputs": [[119, 0, 0], [132, 0, 0], [133, 0, 0]]
    }, 
    {
      "op": "Activation", 
      "name": "relu_in4c_5x5_reduce", 
      "attr": {"act_type": "relu"}, 
      "inputs": [[134, 0, 0]]
    }, 
    {
      "op": "null", 
      "name": "conv_in4c_5x5_weight", 
      "attr": {
        "kernel": "(5, 5)", 
        "num_filter": "64", 
        "pad": "(2, 2)", 
        "stride": "(1, 1)"
      }, 
      "inputs": []
    }, 
    {
      "op": "null", 
      "name": "conv_in4c_5x5_bias", 
      "attr": {
        "kernel": "(5, 5)", 
        "num_filter": "64", 
        "pad": "(2, 2)", 
        "stride": "(1, 1)"
      }, 
      "inputs": []
    }, 
    {
      "op": "Convolution", 
      "name": "conv_in4c_5x5", 
      "attr": {
        "kernel": "(5, 5)", 
        "num_filter": "64", 
        "pad": "(2, 2)", 
        "stride": "(1, 1)"
      }, 
      "inputs": [[135, 0, 0], [136, 0, 0], [137, 0, 0]]
    }, 
    {
      "op": "Activation", 
      "name": "relu_in4c_5x5", 
      "attr": {"act_type": "relu"}, 
      "inputs": [[138, 0, 0]]
    }, 
    {
      "op": "Pooling", 
      "name": "max_pool_in4c_pool", 
      "attr": {
        "kernel": "(3, 3)", 
        "pad": "(1, 1)", 
        "pool_type": "max", 
        "stride": "(1, 1)"
      }, 
      "inputs": [[119, 0, 0]]
    }, 
    {
      "op": "null", 
      "name": "conv_in4c_proj_weight", 
      "attr": {
        "kernel": "(1, 1)", 
        "num_filter": "64", 
        "pad": "(0, 0)", 
        "stride": "(1, 1)"
      }, 
      "inputs": []
    }, 
    {
      "op": "null", 
      "name": "conv_in4c_proj_bias", 
      "attr": {
        "kernel": "(1, 1)", 
        "num_filter": "64", 
        "pad": "(0, 0)", 
        "stride": "(1, 1)"
      }, 
      "inputs": []
    }, 
    {
      "op": "Convolution", 
      "name": "conv_in4c_proj", 
      "attr": {
        "kernel": "(1, 1)", 
        "num_filter": "64", 
        "pad": "(0, 0)", 
        "stride": "(1, 1)"
      }, 
      "inputs": [[140, 0, 0], [141, 0, 0], [142, 0, 0]]
    }, 
    {
      "op": "Activation", 
      "name": "relu_in4c_proj", 
      "attr": {"act_type": "relu"}, 
      "inputs": [[143, 0, 0]]
    }, 
    {
      "op": "Concat", 
      "name": "ch_concat_in4c_chconcat", 
      "attr": {"num_args": "4"}, 
      "inputs": [[123, 0, 0], [131, 0, 0], [139, 0, 0], [144, 0, 0]]
    }, 
    {
      "op": "null", 
      "name": "conv_in4d_1x1_weight", 
      "attr": {
        "kernel": "(1, 1)", 
        "num_filter": "112", 
        "pad": "(0, 0)", 
        "stride": "(1, 1)"
      }, 
      "inputs": []
    }, 
    {
      "op": "null", 
      "name": "conv_in4d_1x1_bias", 
      "attr": {
        "kernel": "(1, 1)", 
        "num_filter": "112", 
        "pad": "(0, 0)", 
        "stride": "(1, 1)"
      }, 
      "inputs": []
    }, 
    {
      "op": "Convolution", 
      "name": "conv_in4d_1x1", 
      "attr": {
        "kernel": "(1, 1)", 
        "num_filter": "112", 
        "pad": "(0, 0)", 
        "stride": "(1, 1)"
      }, 
      "inputs": [[145, 0, 0], [146, 0, 0], [147, 0, 0]]
    }, 
    {
      "op": "Activation", 
      "name": "relu_in4d_1x1", 
      "attr": {"act_type": "relu"}, 
      "inputs": [[148, 0, 0]]
    }, 
    {
      "op": "null", 
      "name": "conv_in4d_3x3_reduce_weight", 
      "attr": {
        "kernel": "(1, 1)", 
        "num_filter": "144", 
        "pad": "(0, 0)", 
        "stride": "(1, 1)"
      }, 
      "inputs": []
    }, 
    {
      "op": "null", 
      "name": "conv_in4d_3x3_reduce_bias", 
      "attr": {
        "kernel": "(1, 1)", 
        "num_filter": "144", 
        "pad": "(0, 0)", 
        "stride": "(1, 1)"
      }, 
      "inputs": []
    }, 
    {
      "op": "Convolution", 
      "name": "conv_in4d_3x3_reduce", 
      "attr": {
        "kernel": "(1, 1)", 
        "num_filter": "144", 
        "pad": "(0, 0)", 
        "stride": "(1, 1)"
      }, 
      "inputs": [[145, 0, 0], [150, 0, 0], [151, 0, 0]]
    }, 
    {
      "op": "Activation", 
      "name": "relu_in4d_3x3_reduce", 
      "attr": {"act_type": "relu"}, 
      "inputs": [[152, 0, 0]]
    }, 
    {
      "op": "null", 
      "name": "conv_in4d_3x3_weight", 
      "attr": {
        "kernel": "(3, 3)", 
        "num_filter": "288", 
        "pad": "(1, 1)", 
        "stride": "(1, 1)"
      }, 
      "inputs": []
    }, 
    {
      "op": "null", 
      "name": "conv_in4d_3x3_bias", 
      "attr": {
        "kernel": "(3, 3)", 
        "num_filter": "288", 
        "pad": "(1, 1)", 
        "stride": "(1, 1)"
      }, 
      "inputs": []
    }, 
    {
      "op": "Convolution", 
      "name": "conv_in4d_3x3", 
      "attr": {
        "kernel": "(3, 3)", 
        "num_filter": "288", 
        "pad": "(1, 1)", 
        "stride": "(1, 1)"
      }, 
      "inputs": [[153, 0, 0], [154, 0, 0], [155, 0, 0]]
    }, 
    {
      "op": "Activation", 
      "name": "relu_in4d_3x3", 
      "attr": {"act_type": "relu"}, 
      "inputs": [[156, 0, 0]]
    }, 
    {
      "op": "null", 
      "name": "conv_in4d_5x5_reduce_weight", 
      "attr": {
        "kernel": "(1, 1)", 
        "num_filter": "32", 
        "pad": "(0, 0)", 
        "stride": "(1, 1)"
      }, 
      "inputs": []
    }, 
    {
      "op": "null", 
      "name": "conv_in4d_5x5_reduce_bias", 
      "attr": {
        "kernel": "(1, 1)", 
        "num_filter": "32", 
        "pad": "(0, 0)", 
        "stride": "(1, 1)"
      }, 
      "inputs": []
    }, 
    {
      "op": "Convolution", 
      "name": "conv_in4d_5x5_reduce", 
      "attr": {
        "kernel": "(1, 1)", 
        "num_filter": "32", 
        "pad": "(0, 0)", 
        "stride": "(1, 1)"
      }, 
      "inputs": [[145, 0, 0], [158, 0, 0], [159, 0, 0]]
    }, 
    {
      "op": "Activation", 
      "name": "relu_in4d_5x5_reduce", 
      "attr": {"act_type": "relu"}, 
      "inputs": [[160, 0, 0]]
    }, 
    {
      "op": "null", 
      "name": "conv_in4d_5x5_weight", 
      "attr": {
        "kernel": "(5, 5)", 
        "num_filter": "64", 
        "pad": "(2, 2)", 
        "stride": "(1, 1)"
      }, 
      "inputs": []
    }, 
    {
      "op": "null", 
      "name": "conv_in4d_5x5_bias", 
      "attr": {
        "kernel": "(5, 5)", 
        "num_filter": "64", 
        "pad": "(2, 2)", 
        "stride": "(1, 1)"
      }, 
      "inputs": []
    }, 
    {
      "op": "Convolution", 
      "name": "conv_in4d_5x5", 
      "attr": {
        "kernel": "(5, 5)", 
        "num_filter": "64", 
        "pad": "(2, 2)", 
        "stride": "(1, 1)"
      }, 
      "inputs": [[161, 0, 0], [162, 0, 0], [163, 0, 0]]
    }, 
    {
      "op": "Activation", 
      "name": "relu_in4d_5x5", 
      "attr": {"act_type": "relu"}, 
      "inputs": [[164, 0, 0]]
    }, 
    {
      "op": "Pooling", 
      "name": "max_pool_in4d_pool", 
      "attr": {
        "kernel": "(3, 3)", 
        "pad": "(1, 1)", 
        "pool_type": "max", 
        "stride": "(1, 1)"
      }, 
      "inputs": [[145, 0, 0]]
    }, 
    {
      "op": "null", 
      "name": "conv_in4d_proj_weight", 
      "attr": {
        "kernel": "(1, 1)", 
        "num_filter": "64", 
        "pad": "(0, 0)", 
        "stride": "(1, 1)"
      }, 
      "inputs": []
    }, 
    {
      "op": "null", 
      "name": "conv_in4d_proj_bias", 
      "attr": {
        "kernel": "(1, 1)", 
        "num_filter": "64", 
        "pad": "(0, 0)", 
        "stride": "(1, 1)"
      }, 
      "inputs": []
    }, 
    {
      "op": "Convolution", 
      "name": "conv_in4d_proj", 
      "attr": {
        "kernel": "(1, 1)", 
        "num_filter": "64", 
        "pad": "(0, 0)", 
        "stride": "(1, 1)"
      }, 
      "inputs": [[166, 0, 0], [167, 0, 0], [168, 0, 0]]
    }, 
    {
      "op": "Activation", 
      "name": "relu_in4d_proj", 
      "attr": {"act_type": "relu"}, 
      "inputs": [[169, 0, 0]]
    }, 
    {
      "op": "Concat", 
      "name": "ch_concat_in4d_chconcat", 
      "attr": {"num_args": "4"}, 
      "inputs": [[149, 0, 0], [157, 0, 0], [165, 0, 0], [170, 0, 0]]
    }, 
    {
      "op": "null", 
      "name": "conv_in4e_1x1_weight", 
      "attr": {
        "kernel": "(1, 1)", 
        "num_filter": "256", 
        "pad": "(0, 0)", 
        "stride": "(1, 1)"
      }, 
      "inputs": []
    }, 
    {
      "op": "null", 
      "name": "conv_in4e_1x1_bias", 
      "attr": {
        "kernel": "(1, 1)", 
        "num_filter": "256", 
        "pad": "(0, 0)", 
        "stride": "(1, 1)"
      }, 
      "inputs": []
    }, 
    {
      "op": "Convolution", 
      "name": "conv_in4e_1x1", 
      "attr": {
        "kernel": "(1, 1)", 
        "num_filter": "256", 
        "pad": "(0, 0)", 
        "stride": "(1, 1)"
      }, 
      "inputs": [[171, 0, 0], [172, 0, 0], [173, 0, 0]]
    }, 
    {
      "op": "Activation", 
      "name": "relu_in4e_1x1", 
      "attr": {"act_type": "relu"}, 
      "inputs": [[174, 0, 0]]
    }, 
    {
      "op": "null", 
      "name": "conv_in4e_3x3_reduce_weight", 
      "attr": {
        "kernel": "(1, 1)", 
        "num_filter": "160", 
        "pad": "(0, 0)", 
        "stride": "(1, 1)"
      }, 
      "inputs": []
    }, 
    {
      "op": "null", 
      "name": "conv_in4e_3x3_reduce_bias", 
      "attr": {
        "kernel": "(1, 1)", 
        "num_filter": "160", 
        "pad": "(0, 0)", 
        "stride": "(1, 1)"
      }, 
      "inputs": []
    }, 
    {
      "op": "Convolution", 
      "name": "conv_in4e_3x3_reduce", 
      "attr": {
        "kernel": "(1, 1)", 
        "num_filter": "160", 
        "pad": "(0, 0)", 
        "stride": "(1, 1)"
      }, 
      "inputs": [[171, 0, 0], [176, 0, 0], [177, 0, 0]]
    }, 
    {
      "op": "Activation", 
      "name": "relu_in4e_3x3_reduce", 
      "attr": {"act_type": "relu"}, 
      "inputs": [[178, 0, 0]]
    }, 
    {
      "op": "null", 
      "name": "conv_in4e_3x3_weight", 
      "attr": {
        "kernel": "(3, 3)", 
        "num_filter": "320", 
        "pad": "(1, 1)", 
        "stride": "(1, 1)"
      }, 
      "inputs": []
    }, 
    {
      "op": "null", 
      "name": "conv_in4e_3x3_bias", 
      "attr": {
        "kernel": "(3, 3)", 
        "num_filter": "320", 
        "pad": "(1, 1)", 
        "stride": "(1, 1)"
      }, 
      "inputs": []
    }, 
    {
      "op": "Convolution", 
      "name": "conv_in4e_3x3", 
      "attr": {
        "kernel": "(3, 3)", 
        "num_filter": "320", 
        "pad": "(1, 1)", 
        "stride": "(1, 1)"
      }, 
      "inputs": [[179, 0, 0], [180, 0, 0], [181, 0, 0]]
    }, 
    {
      "op": "Activation", 
      "name": "relu_in4e_3x3", 
      "attr": {"act_type": "relu"}, 
      "inputs": [[182, 0, 0]]
    }, 
    {
      "op": "null", 
      "name": "conv_in4e_5x5_reduce_weight", 
      "attr": {
        "kernel": "(1, 1)", 
        "num_filter": "32", 
        "pad": "(0, 0)", 
        "stride": "(1, 1)"
      }, 
      "inputs": []
    }, 
    {
      "op": "null", 
      "name": "conv_in4e_5x5_reduce_bias", 
      "attr": {
        "kernel": "(1, 1)", 
        "num_filter": "32", 
        "pad": "(0, 0)", 
        "stride": "(1, 1)"
      }, 
      "inputs": []
    }, 
    {
      "op": "Convolution", 
      "name": "conv_in4e_5x5_reduce", 
      "attr": {
        "kernel": "(1, 1)", 
        "num_filter": "32", 
        "pad": "(0, 0)", 
        "stride": "(1, 1)"
      }, 
      "inputs": [[171, 0, 0], [184, 0, 0], [185, 0, 0]]
    }, 
    {
      "op": "Activation", 
      "name": "relu_in4e_5x5_reduce", 
      "attr": {"act_type": "relu"}, 
      "inputs": [[186, 0, 0]]
    }, 
    {
      "op": "null", 
      "name": "conv_in4e_5x5_weight", 
      "attr": {
        "kernel": "(5, 5)", 
        "num_filter": "128", 
        "pad": "(2, 2)", 
        "stride": "(1, 1)"
      }, 
      "inputs": []
    }, 
    {
      "op": "null", 
      "name": "conv_in4e_5x5_bias", 
      "attr": {
        "kernel": "(5, 5)", 
        "num_filter": "128", 
        "pad": "(2, 2)", 
        "stride": "(1, 1)"
      }, 
      "inputs": []
    }, 
    {
      "op": "Convolution", 
      "name": "conv_in4e_5x5", 
      "attr": {
        "kernel": "(5, 5)", 
        "num_filter": "128", 
        "pad": "(2, 2)", 
        "stride": "(1, 1)"
      }, 
      "inputs": [[187, 0, 0], [188, 0, 0], [189, 0, 0]]
    }, 
    {
      "op": "Activation", 
      "name": "relu_in4e_5x5", 
      "attr": {"act_type": "relu"}, 
      "inputs": [[190, 0, 0]]
    }, 
    {
      "op": "Pooling", 
      "name": "max_pool_in4e_pool", 
      "attr": {
        "kernel": "(3, 3)", 
        "pad": "(1, 1)", 
        "pool_type": "max", 
        "stride": "(1, 1)"
      }, 
      "inputs": [[171, 0, 0]]
    }, 
    {
      "op": "null", 
      "name": "conv_in4e_proj_weight", 
      "attr": {
        "kernel": "(1, 1)", 
        "num_filter": "128", 
        "pad": "(0, 0)", 
        "stride": "(1, 1)"
      }, 
      "inputs": []
    }, 
    {
      "op": "null", 
      "name": "conv_in4e_proj_bias", 
      "attr": {
        "kernel": "(1, 1)", 
        "num_filter": "128", 
        "pad": "(0, 0)", 
        "stride": "(1, 1)"
      }, 
      "inputs": []
    }, 
    {
      "op": "Convolution", 
      "name": "conv_in4e_proj", 
      "attr": {
        "kernel": "(1, 1)", 
        "num_filter": "128", 
        "pad": "(0, 0)", 
        "stride": "(1, 1)"
      }, 
      "inputs": [[192, 0, 0], [193, 0, 0], [194, 0, 0]]
    }, 
    {
      "op": "Activation", 
      "name": "relu_in4e_proj", 
      "attr": {"act_type": "relu"}, 
      "inputs": [[195, 0, 0]]
    }, 
    {
      "op": "Concat", 
      "name": "ch_concat_in4e_chconcat", 
      "attr": {"num_args": "4"}, 
      "inputs": [[175, 0, 0], [183, 0, 0], [191, 0, 0], [196, 0, 0]]
    }, 
    {
      "op": "Pooling", 
      "name": "pooling3", 
      "attr": {
        "kernel": "(3, 3)", 
        "pool_type": "max", 
        "stride": "(2, 2)"
      }, 
      "inputs": [[197, 0, 0]]
    }, 
    {
      "op": "null", 
      "name": "conv_in5a_1x1_weight", 
      "attr": {
        "kernel": "(1, 1)", 
        "num_filter": "256", 
        "pad": "(0, 0)", 
        "stride": "(1, 1)"
      }, 
      "inputs": []
    }, 
    {
      "op": "null", 
      "name": "conv_in5a_1x1_bias", 
      "attr": {
        "kernel": "(1, 1)", 
        "num_filter": "256", 
        "pad": "(0, 0)", 
        "stride": "(1, 1)"
      }, 
      "inputs": []
    }, 
    {
      "op": "Convolution", 
      "name": "conv_in5a_1x1", 
      "attr": {
        "kernel": "(1, 1)", 
        "num_filter": "256", 
        "pad": "(0, 0)", 
        "stride": "(1, 1)"
      }, 
      "inputs": [[198, 0, 0], [199, 0, 0], [200, 0, 0]]
    }, 
    {
      "op": "Activation", 
      "name": "relu_in5a_1x1", 
      "attr": {"act_type": "relu"}, 
      "inputs": [[201, 0, 0]]
    }, 
    {
      "op": "null", 
      "name": "conv_in5a_3x3_reduce_weight", 
      "attr": {
        "kernel": "(1, 1)", 
        "num_filter": "160", 
        "pad": "(0, 0)", 
        "stride": "(1, 1)"
      }, 
      "inputs": []
    }, 
    {
      "op": "null", 
      "name": "conv_in5a_3x3_reduce_bias", 
      "attr": {
        "kernel": "(1, 1)", 
        "num_filter": "160", 
        "pad": "(0, 0)", 
        "stride": "(1, 1)"
      }, 
      "inputs": []
    }, 
    {
      "op": "Convolution", 
      "name": "conv_in5a_3x3_reduce", 
      "attr": {
        "kernel": "(1, 1)", 
        "num_filter": "160", 
        "pad": "(0, 0)", 
        "stride": "(1, 1)"
      }, 
      "inputs": [[198, 0, 0], [203, 0, 0], [204, 0, 0]]
    }, 
    {
      "op": "Activation", 
      "name": "relu_in5a_3x3_reduce", 
      "attr": {"act_type": "relu"}, 
      "inputs": [[205, 0, 0]]
    }, 
    {
      "op": "null", 
      "name": "conv_in5a_3x3_weight", 
      "attr": {
        "kernel": "(3, 3)", 
        "num_filter": "320", 
        "pad": "(1, 1)", 
        "stride": "(1, 1)"
      }, 
      "inputs": []
    }, 
    {
      "op": "null", 
      "name": "conv_in5a_3x3_bias", 
      "attr": {
        "kernel": "(3, 3)", 
        "num_filter": "320", 
        "pad": "(1, 1)", 
        "stride": "(1, 1)"
      }, 
      "inputs": []
    }, 
    {
      "op": "Convolution", 
      "name": "conv_in5a_3x3", 
      "attr": {
        "kernel": "(3, 3)", 
        "num_filter": "320", 
        "pad": "(1, 1)", 
        "stride": "(1, 1)"
      }, 
      "inputs": [[206, 0, 0], [207, 0, 0], [208, 0, 0]]
    }, 
    {
      "op": "Activation", 
      "name": "relu_in5a_3x3", 
      "attr": {"act_type": "relu"}, 
      "inputs": [[209, 0, 0]]
    }, 
    {
      "op": "null", 
      "name": "conv_in5a_5x5_reduce_weight", 
      "attr": {
        "kernel": "(1, 1)", 
        "num_filter": "32", 
        "pad": "(0, 0)", 
        "stride": "(1, 1)"
      }, 
      "inputs": []
    }, 
    {
      "op": "null", 
      "name": "conv_in5a_5x5_reduce_bias", 
      "attr": {
        "kernel": "(1, 1)", 
        "num_filter": "32", 
        "pad": "(0, 0)", 
        "stride": "(1, 1)"
      }, 
      "inputs": []
    }, 
    {
      "op": "Convolution", 
      "name": "conv_in5a_5x5_reduce", 
      "attr": {
        "kernel": "(1, 1)", 
        "num_filter": "32", 
        "pad": "(0, 0)", 
        "stride": "(1, 1)"
      }, 
      "inputs": [[198, 0, 0], [211, 0, 0], [212, 0, 0]]
    }, 
    {
      "op": "Activation", 
      "name": "relu_in5a_5x5_reduce", 
      "attr": {"act_type": "relu"}, 
      "inputs": [[213, 0, 0]]
    }, 
    {
      "op": "null", 
      "name": "conv_in5a_5x5_weight", 
      "attr": {
        "kernel": "(5, 5)", 
        "num_filter": "128", 
        "pad": "(2, 2)", 
        "stride": "(1, 1)"
      }, 
      "inputs": []
    }, 
    {
      "op": "null", 
      "name": "conv_in5a_5x5_bias", 
      "attr": {
        "kernel": "(5, 5)", 
        "num_filter": "128", 
        "pad": "(2, 2)", 
        "stride": "(1, 1)"
      }, 
      "inputs": []
    }, 
    {
      "op": "Convolution", 
      "name": "conv_in5a_5x5", 
      "attr": {
        "kernel": "(5, 5)", 
        "num_filter": "128", 
        "pad": "(2, 2)", 
        "stride": "(1, 1)"
      }, 
      "inputs": [[214, 0, 0], [215, 0, 0], [216, 0, 0]]
    }, 
    {
      "op": "Activation", 
      "name": "relu_in5a_5x5", 
      "attr": {"act_type": "relu"}, 
      "inputs": [[217, 0, 0]]
    }, 
    {
      "op": "Pooling", 
      "name": "max_pool_in5a_pool", 
      "attr": {
        "kernel": "(3, 3)", 
        "pad": "(1, 1)", 
        "pool_type": "max", 
        "stride": "(1, 1)"
      }, 
      "inputs": [[198, 0, 0]]
    }, 
    {
      "op": "null", 
      "name": "conv_in5a_proj_weight", 
      "attr": {
        "kernel": "(1, 1)", 
        "num_filter": "128", 
        "pad": "(0, 0)", 
        "stride": "(1, 1)"
      }, 
      "inputs": []
    }, 
    {
      "op": "null", 
      "name": "conv_in5a_proj_bias", 
      "attr": {
        "kernel": "(1, 1)", 
        "num_filter": "128", 
        "pad": "(0, 0)", 
        "stride": "(1, 1)"
      }, 
      "inputs": []
    }, 
    {
      "op": "Convolution", 
      "name": "conv_in5a_proj", 
      "attr": {
        "kernel": "(1, 1)", 
        "num_filter": "128", 
        "pad": "(0, 0)", 
        "stride": "(1, 1)"
      }, 
      "inputs": [[219, 0, 0], [220, 0, 0], [221, 0, 0]]
    }, 
    {
      "op": "Activation", 
      "name": "relu_in5a_proj", 
      "attr": {"act_type": "relu"}, 
      "inputs": [[222, 0, 0]]
    }, 
    {
      "op": "Concat", 
      "name": "ch_concat_in5a_chconcat", 
      "attr": {"num_args": "4"}, 
      "inputs": [[202, 0, 0], [210, 0, 0], [218, 0, 0], [223, 0, 0]]
    }, 
    {
      "op": "null", 
      "name": "conv_in5b_1x1_weight", 
      "attr": {
        "kernel": "(1, 1)", 
        "num_filter": "384", 
        "pad": "(0, 0)", 
        "stride": "(1, 1)"
      }, 
      "inputs": []
    }, 
    {
      "op": "null", 
      "name": "conv_in5b_1x1_bias", 
      "attr": {
        "kernel": "(1, 1)", 
        "num_filter": "384", 
        "pad": "(0, 0)", 
        "stride": "(1, 1)"
      }, 
      "inputs": []
    }, 
    {
      "op": "Convolution", 
      "name": "conv_in5b_1x1", 
      "attr": {
        "kernel": "(1, 1)", 
        "num_filter": "384", 
        "pad": "(0, 0)", 
        "stride": "(1, 1)"
      }, 
      "inputs": [[224, 0, 0], [225, 0, 0], [226, 0, 0]]
    }, 
    {
      "op": "Activation", 
      "name": "relu_in5b_1x1", 
      "attr": {"act_type": "relu"}, 
      "inputs": [[227, 0, 0]]
    }, 
    {
      "op": "null", 
      "name": "conv_in5b_3x3_reduce_weight", 
      "attr": {
        "kernel": "(1, 1)", 
        "num_filter": "192", 
        "pad": "(0, 0)", 
        "stride": "(1, 1)"
      }, 
      "inputs": []
    }, 
    {
      "op": "null", 
      "name": "conv_in5b_3x3_reduce_bias", 
      "attr": {
        "kernel": "(1, 1)", 
        "num_filter": "192", 
        "pad": "(0, 0)", 
        "stride": "(1, 1)"
      }, 
      "inputs": []
    }, 
    {
      "op": "Convolution", 
      "name": "conv_in5b_3x3_reduce", 
      "attr": {
        "kernel": "(1, 1)", 
        "num_filter": "192", 
        "pad": "(0, 0)", 
        "stride": "(1, 1)"
      }, 
      "inputs": [[224, 0, 0], [229, 0, 0], [230, 0, 0]]
    }, 
    {
      "op": "Activation", 
      "name": "relu_in5b_3x3_reduce", 
      "attr": {"act_type": "relu"}, 
      "inputs": [[231, 0, 0]]
    }, 
    {
      "op": "null", 
      "name": "conv_in5b_3x3_weight", 
      "attr": {
        "kernel": "(3, 3)", 
        "num_filter": "384", 
        "pad": "(1, 1)", 
        "stride": "(1, 1)"
      }, 
      "inputs": []
    }, 
    {
      "op": "null", 
      "name": "conv_in5b_3x3_bias", 
      "attr": {
        "kernel": "(3, 3)", 
        "num_filter": "384", 
        "pad": "(1, 1)", 
        "stride": "(1, 1)"
      }, 
      "inputs": []
    }, 
    {
      "op": "Convolution", 
      "name": "conv_in5b_3x3", 
      "attr": {
        "kernel": "(3, 3)", 
        "num_filter": "384", 
        "pad": "(1, 1)", 
        "stride": "(1, 1)"
      }, 
      "inputs": [[232, 0, 0], [233, 0, 0], [234, 0, 0]]
    }, 
    {
      "op": "Activation", 
      "name": "relu_in5b_3x3", 
      "attr": {"act_type": "relu"}, 
      "inputs": [[235, 0, 0]]
    }, 
    {
      "op": "null", 
      "name": "conv_in5b_5x5_reduce_weight", 
      "attr": {
        "kernel": "(1, 1)", 
        "num_filter": "48", 
        "pad": "(0, 0)", 
        "stride": "(1, 1)"
      }, 
      "inputs": []
    }, 
    {
      "op": "null", 
      "name": "conv_in5b_5x5_reduce_bias", 
      "attr": {
        "kernel": "(1, 1)", 
        "num_filter": "48", 
        "pad": "(0, 0)", 
        "stride": "(1, 1)"
      }, 
      "inputs": []
    }, 
    {
      "op": "Convolution", 
      "name": "conv_in5b_5x5_reduce", 
      "attr": {
        "kernel": "(1, 1)", 
        "num_filter": "48", 
        "pad": "(0, 0)", 
        "stride": "(1, 1)"
      }, 
      "inputs": [[224, 0, 0], [237, 0, 0], [238, 0, 0]]
    }, 
    {
      "op": "Activation", 
      "name": "relu_in5b_5x5_reduce", 
      "attr": {"act_type": "relu"}, 
      "inputs": [[239, 0, 0]]
    }, 
    {
      "op": "null", 
      "name": "conv_in5b_5x5_weight", 
      "attr": {
        "kernel": "(5, 5)", 
        "num_filter": "128", 
        "pad": "(2, 2)", 
        "stride": "(1, 1)"
      }, 
      "inputs": []
    }, 
    {
      "op": "null", 
      "name": "conv_in5b_5x5_bias", 
      "attr": {
        "kernel": "(5, 5)", 
        "num_filter": "128", 
        "pad": "(2, 2)", 
        "stride": "(1, 1)"
      }, 
      "inputs": []
    }, 
    {
      "op": "Convolution", 
      "name": "conv_in5b_5x5", 
      "attr": {
        "kernel": "(5, 5)", 
        "num_filter": "128", 
        "pad": "(2, 2)", 
        "stride": "(1, 1)"
      }, 
      "inputs": [[240, 0, 0], [241, 0, 0], [242, 0, 0]]
    }, 
    {
      "op": "Activation", 
      "name": "relu_in5b_5x5", 
      "attr": {"act_type": "relu"}, 
      "inputs": [[243, 0, 0]]
    }, 
    {
      "op": "Pooling", 
      "name": "max_pool_in5b_pool", 
      "attr": {
        "kernel": "(3, 3)", 
        "pad": "(1, 1)", 
        "pool_type": "max", 
        "stride": "(1, 1)"
      }, 
      "inputs": [[224, 0, 0]]
    }, 
    {
      "op": "null", 
      "name": "conv_in5b_proj_weight", 
      "attr": {
        "kernel": "(1, 1)", 
        "num_filter": "128", 
        "pad": "(0, 0)", 
        "stride": "(1, 1)"
      }, 
      "inputs": []
    }, 
    {
      "op": "null", 
      "name": "conv_in5b_proj_bias", 
      "attr": {
        "kernel": "(1, 1)", 
        "num_filter": "128", 
        "pad": "(0, 0)", 
        "stride": "(1, 1)"
      }, 
      "inputs": []
    }, 
    {
      "op": "Convolution", 
      "name": "conv_in5b_proj", 
      "attr": {
        "kernel": "(1, 1)", 
        "num_filter": "128", 
        "pad": "(0, 0)", 
        "stride": "(1, 1)"
      }, 
      "inputs": [[245, 0, 0], [246, 0, 0], [247, 0, 0]]
    }, 
    {
      "op": "Activation", 
      "name": "relu_in5b_proj", 
      "attr": {"act_type": "relu"}, 
      "inputs": [[248, 0, 0]]
    }, 
    {
      "op": "Concat", 
      "name": "ch_concat_in5b_chconcat", 
      "attr": {"num_args": "4"}, 
      "inputs": [[228, 0, 0], [236, 0, 0], [244, 0, 0], [249, 0, 0]]
    }, 
    {
      "op": "Pooling", 
      "name": "pooling4", 
      "attr": {
        "kernel": "(7, 7)", 
        "pool_type": "avg", 
        "stride": "(1, 1)"
      }, 
      "inputs": [[250, 0, 0]]
    }, 
    {
      "op": "Flatten", 
      "name": "flatten0", 
      "inputs": [[251, 0, 0]]
    }, 
    {
      "op": "null", 
      "name": "fullyconnected0_weight", 
      "attr": {"num_hidden": "20"}, 
      "inputs": []
    }, 
    {
      "op": "null", 
      "name": "fullyconnected0_bias", 
      "attr": {"num_hidden": "20"}, 
      "inputs": []
    }, 
    {
      "op": "FullyConnected", 
      "name": "fullyconnected0", 
      "attr": {"num_hidden": "20"}, 
      "inputs": [[252, 0, 0], [253, 0, 0], [254, 0, 0]]
    }, 
    {
      "op": "null", 
      "name": "softmax_label", 
      "inputs": []
    }, 
    {
      "op": "SoftmaxOutput", 
      "name": "softmax", 
      "inputs": [[255, 0, 0], [256, 0, 0]]
    }
  ], 
  "arg_nodes": [
    0, 
    1, 
    2, 
    6, 
    7, 
    10, 
    11, 
    15, 
    16, 
    19, 
    20, 
    23, 
    24, 
    27, 
    28, 
    31, 
    32, 
    36, 
    37, 
    41, 
    42, 
    45, 
    46, 
    49, 
    50, 
    53, 
    54, 
    57, 
    58, 
    62, 
    63, 
    68, 
    69, 
    72, 
    73, 
    76, 
    77, 
    80, 
    81, 
    84, 
    85, 
    89, 
    90, 
    94, 
    95, 
    98, 
    99, 
    102, 
    103, 
    106, 
    107, 
    110, 
    111, 
    115, 
    116, 
    120, 
    121, 
    124, 
    125, 
    128, 
    129, 
    132, 
    133, 
    136, 
    137, 
    141, 
    142, 
    146, 
    147, 
    150, 
    151, 
    154, 
    155, 
    158, 
    159, 
    162, 
    163, 
    167, 
    168, 
    172, 
    173, 
    176, 
    177, 
    180, 
    181, 
    184, 
    185, 
    188, 
    189, 
    193, 
    194, 
    199, 
    200, 
    203, 
    204, 
    207, 
    208, 
    211, 
    212, 
    215, 
    216, 
    220, 
    221, 
    225, 
    226, 
    229, 
    230, 
    233, 
    234, 
    237, 
    238, 
    241, 
    242, 
    246, 
    247, 
    253, 
    254, 
    256
  ], 
  "node_row_ptr": [
    0, 
    1, 
    2, 
    3, 
    4, 
    5, 
    6, 
    7, 
    8, 
    9, 
    10, 
    11, 
    12, 
    13, 
    14, 
    15, 
    16, 
    17, 
    18, 
    19, 
    20, 
    21, 
    22, 
    23, 
    24, 
    25, 
    26, 
    27, 
    28, 
    29, 
    30, 
    31, 
    32, 
    33, 
    34, 
    35, 
    36, 
    37, 
    38, 
    39, 
    40, 
    41, 
    42, 
    43, 
    44, 
    45, 
    46, 
    47, 
    48, 
    49, 
    50, 
    51, 
    52, 
    53, 
    54, 
    55, 
    56, 
    57, 
    58, 
    59, 
    60, 
    61, 
    62, 
    63, 
    64, 
    65, 
    66, 
    67, 
    68, 
    69, 
    70, 
    71, 
    72, 
    73, 
    74, 
    75, 
    76, 
    77, 
    78, 
    79, 
    80, 
    81, 
    82, 
    83, 
    84, 
    85, 
    86, 
    87, 
    88, 
    89, 
    90, 
    91, 
    92, 
    93, 
    94, 
    95, 
    96, 
    97, 
    98, 
    99, 
    100, 
    101, 
    102, 
    103, 
    104, 
    105, 
    106, 
    107, 
    108, 
    109, 
    110, 
    111, 
    112, 
    113, 
    114, 
    115, 
    116, 
    117, 
    118, 
    119, 
    120, 
    121, 
    122, 
    123, 
    124, 
    125, 
    126, 
    127, 
    128, 
    129, 
    130, 
    131, 
    132, 
    133, 
    134, 
    135, 
    136, 
    137, 
    138, 
    139, 
    140, 
    141, 
    142, 
    143, 
    144, 
    145, 
    146, 
    147, 
    148, 
    149, 
    150, 
    151, 
    152, 
    153, 
    154, 
    155, 
    156, 
    157, 
    158, 
    159, 
    160, 
    161, 
    162, 
    163, 
    164, 
    165, 
    166, 
    167, 
    168, 
    169, 
    170, 
    171, 
    172, 
    173, 
    174, 
    175, 
    176, 
    177, 
    178, 
    179, 
    180, 
    181, 
    182, 
    183, 
    184, 
    185, 
    186, 
    187, 
    188, 
    189, 
    190, 
    191, 
    192, 
    193, 
    194, 
    195, 
    196, 
    197, 
    198, 
    199, 
    200, 
    201, 
    202, 
    203, 
    204, 
    205, 
    206, 
    207, 
    208, 
    209, 
    210, 
    211, 
    212, 
    213, 
    214, 
    215, 
    216, 
    217, 
    218, 
    219, 
    220, 
    221, 
    222, 
    223, 
    224, 
    225, 
    226, 
    227, 
    228, 
    229, 
    230, 
    231, 
    232, 
    233, 
    234, 
    235, 
    236, 
    237, 
    238, 
    239, 
    240, 
    241, 
    242, 
    243, 
    244, 
    245, 
    246, 
    247, 
    248, 
    249, 
    250, 
    251, 
    252, 
    253, 
    254, 
    255, 
    256, 
    257, 
    258
  ], 
  "heads": [[257, 0, 0]], 
  "attrs": {"mxnet_version": ["int", 903]}
}