{
  "nodes": [
    {
      "op": "null", 
      "name": "data", 
      "inputs": []
    }, 
    {
      "op": "null", 
      "name": "convolution0_weight", 
      "attr": {
        "kernel": "(3, 3)", 
        "num_filter": "32", 
        "pad": "(0, 0)", 
        "stride": "(2, 2)"
      }, 
      "inputs": []
    }, 
    {
      "op": "null", 
      "name": "convolution0_bias", 
      "attr": {
        "kernel": "(3, 3)", 
        "num_filter": "32", 
        "pad": "(0, 0)", 
        "stride": "(2, 2)"
      }, 
      "inputs": []
    }, 
    {
      "op": "Convolution", 
      "name": "convolution0", 
      "attr": {
        "kernel": "(3, 3)", 
        "num_filter": "32", 
        "pad": "(0, 0)", 
        "stride": "(2, 2)"
      }, 
      "inputs": [[0, 0, 0], [1, 0, 0], [2, 0, 0]]
    }, 
    {
      "op": "null", 
      "name": "batchnorm0_gamma", 
      "inputs": []
    }, 
    {
      "op": "null", 
      "name": "batchnorm0_beta", 
      "inputs": []
    }, 
    {
      "op": "null", 
      "name": "batchnorm0_moving_mean", 
      "inputs": []
    }, 
    {
      "op": "null", 
      "name": "batchnorm0_moving_var", 
      "inputs": []
    }, 
    {
      "op": "BatchNorm", 
      "name": "batchnorm0", 
      "inputs": [[3, 0, 0], [4, 0, 0], [5, 0, 0], [6, 0, 1], [7, 0, 1]]
    }, 
    {
      "op": "Activation", 
      "name": "activation0", 
      "attr": {"act_type": "relu"}, 
      "inputs": [[8, 0, 0]]
    }, 
    {
      "op": "null", 
      "name": "convolution1_weight", 
      "attr": {
        "kernel": "(3, 3)", 
        "num_filter": "32", 
        "pad": "(0, 0)", 
        "stride": "(1, 1)"
      }, 
      "inputs": []
    }, 
    {
      "op": "null", 
      "name": "convolution1_bias", 
      "attr": {
        "kernel": "(3, 3)", 
        "num_filter": "32", 
        "pad": "(0, 0)", 
        "stride": "(1, 1)"
      }, 
      "inputs": []
    }, 
    {
      "op": "Convolution", 
      "name": "convolution1", 
      "attr": {
        "kernel": "(3, 3)", 
        "num_filter": "32", 
        "pad": "(0, 0)", 
        "stride": "(1, 1)"
      }, 
      "inputs": [[9, 0, 0], [10, 0, 0], [11, 0, 0]]
    }, 
    {
      "op": "null", 
      "name": "batchnorm1_gamma", 
      "inputs": []
    }, 
    {
      "op": "null", 
      "name": "batchnorm1_beta", 
      "inputs": []
    }, 
    {
      "op": "null", 
      "name": "batchnorm1_moving_mean", 
      "inputs": []
    }, 
    {
      "op": "null", 
      "name": "batchnorm1_moving_var", 
      "inputs": []
    }, 
    {
      "op": "BatchNorm", 
      "name": "batchnorm1", 
      "inputs": [[12, 0, 0], [13, 0, 0], [14, 0, 0], [15, 0, 1], [16, 0, 1]]
    }, 
    {
      "op": "Activation", 
      "name": "activation1", 
      "attr": {"act_type": "relu"}, 
      "inputs": [[17, 0, 0]]
    }, 
    {
      "op": "null", 
      "name": "convolution2_weight", 
      "attr": {
        "kernel": "(3, 3)", 
        "num_filter": "64", 
        "pad": "(1, 1)", 
        "stride": "(1, 1)"
      }, 
      "inputs": []
    }, 
    {
      "op": "null", 
      "name": "convolution2_bias", 
      "attr": {
        "kernel": "(3, 3)", 
        "num_filter": "64", 
        "pad": "(1, 1)", 
        "stride": "(1, 1)"
      }, 
      "inputs": []
    }, 
    {
      "op": "Convolution", 
      "name": "convolution2", 
      "attr": {
        "kernel": "(3, 3)", 
        "num_filter": "64", 
        "pad": "(1, 1)", 
        "stride": "(1, 1)"
      }, 
      "inputs": [[18, 0, 0], [19, 0, 0], [20, 0, 0]]
    }, 
    {
      "op": "null", 
      "name": "batchnorm2_gamma", 
      "inputs": []
    }, 
    {
      "op": "null", 
      "name": "batchnorm2_beta", 
      "inputs": []
    }, 
    {
      "op": "null", 
      "name": "batchnorm2_moving_mean", 
      "inputs": []
    }, 
    {
      "op": "null", 
      "name": "batchnorm2_moving_var", 
      "inputs": []
    }, 
    {
      "op": "BatchNorm", 
      "name": "batchnorm2", 
      "inputs": [[21, 0, 0], [22, 0, 0], [23, 0, 0], [24, 0, 1], [25, 0, 1]]
    }, 
    {
      "op": "Activation", 
      "name": "activation2", 
      "attr": {"act_type": "relu"}, 
      "inputs": [[26, 0, 0]]
    }, 
    {
      "op": "Pooling", 
      "name": "pooling0", 
      "attr": {
        "kernel": "(3, 3)", 
        "pool_type": "max", 
        "stride": "(2, 2)"
      }, 
      "inputs": [[27, 0, 0]]
    }, 
    {
      "op": "null", 
      "name": "convolution3_weight", 
      "attr": {
        "kernel": "(1, 1)", 
        "num_filter": "80", 
        "pad": "(0, 0)", 
        "stride": "(1, 1)"
      }, 
      "inputs": []
    }, 
    {
      "op": "null", 
      "name": "convolution3_bias", 
      "attr": {
        "kernel": "(1, 1)", 
        "num_filter": "80", 
        "pad": "(0, 0)", 
        "stride": "(1, 1)"
      }, 
      "inputs": []
    }, 
    {
      "op": "Convolution", 
      "name": "convolution3", 
      "attr": {
        "kernel": "(1, 1)", 
        "num_filter": "80", 
        "pad": "(0, 0)", 
        "stride": "(1, 1)"
      }, 
      "inputs": [[28, 0, 0], [29, 0, 0], [30, 0, 0]]
    }, 
    {
      "op": "null", 
      "name": "batchnorm3_gamma", 
      "inputs": []
    }, 
    {
      "op": "null", 
      "name": "batchnorm3_beta", 
      "inputs": []
    }, 
    {
      "op": "null", 
      "name": "batchnorm3_moving_mean", 
      "inputs": []
    }, 
    {
      "op": "null", 
      "name": "batchnorm3_moving_var", 
      "inputs": []
    }, 
    {
      "op": "BatchNorm", 
      "name": "batchnorm3", 
      "inputs": [[31, 0, 0], [32, 0, 0], [33, 0, 0], [34, 0, 1], [35, 0, 1]]
    }, 
    {
      "op": "Activation", 
      "name": "activation3", 
      "attr": {"act_type": "relu"}, 
      "inputs": [[36, 0, 0]]
    }, 
    {
      "op": "null", 
      "name": "convolution4_weight", 
      "attr": {
        "kernel": "(3, 3)", 
        "num_filter": "192", 
        "pad": "(0, 0)", 
        "stride": "(1, 1)"
      }, 
      "inputs": []
    }, 
    {
      "op": "null", 
      "name": "convolution4_bias", 
      "attr": {
        "kernel": "(3, 3)", 
        "num_filter": "192", 
        "pad": "(0, 0)", 
        "stride": "(1, 1)"
      }, 
      "inputs": []
    }, 
    {
      "op": "Convolution", 
      "name": "convolution4", 
      "attr": {
        "kernel": "(3, 3)", 
        "num_filter": "192", 
        "pad": "(0, 0)", 
        "stride": "(1, 1)"
      }, 
      "inputs": [[37, 0, 0], [38, 0, 0], [39, 0, 0]]
    }, 
    {
      "op": "null", 
      "name": "batchnorm4_gamma", 
      "inputs": []
    }, 
    {
      "op": "null", 
      "name": "batchnorm4_beta", 
      "inputs": []
    }, 
    {
      "op": "null", 
      "name": "batchnorm4_moving_mean", 
      "inputs": []
    }, 
    {
      "op": "null", 
      "name": "batchnorm4_moving_var", 
      "inputs": []
    }, 
    {
      "op": "BatchNorm", 
      "name": "batchnorm4", 
      "inputs": [[40, 0, 0], [41, 0, 0], [42, 0, 0], [43, 0, 1], [44, 0, 1]]
    }, 
    {
      "op": "Activation", 
      "name": "activation4", 
      "attr": {"act_type": "relu"}, 
      "inputs": [[45, 0, 0]]
    }, 
    {
      "op": "Pooling", 
      "name": "pooling1", 
      "attr": {
        "kernel": "(3, 3)", 
        "pool_type": "max", 
        "stride": "(2, 2)"
      }, 
      "inputs": [[46, 0, 0]]
    }, 
    {
      "op": "null", 
      "name": "convolution5_weight", 
      "attr": {
        "kernel": "(1, 1)", 
        "num_filter": "96", 
        "pad": "(0, 0)", 
        "stride": "(1, 1)"
      }, 
      "inputs": []
    }, 
    {
      "op": "null", 
      "name": "convolution5_bias", 
      "attr": {
        "kernel": "(1, 1)", 
        "num_filter": "96", 
        "pad": "(0, 0)", 
        "stride": "(1, 1)"
      }, 
      "inputs": []
    }, 
    {
      "op": "Convolution", 
      "name": "convolution5", 
      "attr": {
        "kernel": "(1, 1)", 
        "num_filter": "96", 
        "pad": "(0, 0)", 
        "stride": "(1, 1)"
      }, 
      "inputs": [[47, 0, 0], [48, 0, 0], [49, 0, 0]]
    }, 
    {
      "op": "null", 
      "name": "batchnorm5_gamma", 
      "inputs": []
    }, 
    {
      "op": "null", 
      "name": "batchnorm5_beta", 
      "inputs": []
    }, 
    {
      "op": "null", 
      "name": "batchnorm5_moving_mean", 
      "inputs": []
    }, 
    {
      "op": "null", 
      "name": "batchnorm5_moving_var", 
      "inputs": []
    }, 
    {
      "op": "BatchNorm", 
      "name": "batchnorm5", 
      "inputs": [[50, 0, 0], [51, 0, 0], [52, 0, 0], [53, 0, 1], [54, 0, 1]]
    }, 
    {
      "op": "Activation", 
      "name": "activation5", 
      "attr": {"act_type": "relu"}, 
      "inputs": [[55, 0, 0]]
    }, 
    {
      "op": "null", 
      "name": "convolution6_weight", 
      "attr": {
        "kernel": "(1, 1)", 
        "num_filter": "48", 
        "pad": "(0, 0)", 
        "stride": "(1, 1)"
      }, 
      "inputs": []
    }, 
    {
      "op": "null", 
      "name": "convolution6_bias", 
      "attr": {
        "kernel": "(1, 1)", 
        "num_filter": "48", 
        "pad": "(0, 0)", 
        "stride": "(1, 1)"
      }, 
      "inputs": []
    }, 
    {
      "op": "Convolution", 
      "name": "convolution6", 
      "attr": {
        "kernel": "(1, 1)", 
        "num_filter": "48", 
        "pad": "(0, 0)", 
        "stride": "(1, 1)"
      }, 
      "inputs": [[47, 0, 0], [57, 0, 0], [58, 0, 0]]
    }, 
    {
      "op": "null", 
      "name": "batchnorm6_gamma", 
      "inputs": []
    }, 
    {
      "op": "null", 
      "name": "batchnorm6_beta", 
      "inputs": []
    }, 
    {
      "op": "null", 
      "name": "batchnorm6_moving_mean", 
      "inputs": []
    }, 
    {
      "op": "null", 
      "name": "batchnorm6_moving_var", 
      "inputs": []
    }, 
    {
      "op": "BatchNorm", 
      "name": "batchnorm6", 
      "inputs": [[59, 0, 0], [60, 0, 0], [61, 0, 0], [62, 0, 1], [63, 0, 1]]
    }, 
    {
      "op": "Activation", 
      "name": "activation6", 
      "attr": {"act_type": "relu"}, 
      "inputs": [[64, 0, 0]]
    }, 
    {
      "op": "null", 
      "name": "convolution7_weight", 
      "attr": {
        "kernel": "(5, 5)", 
        "num_filter": "64", 
        "pad": "(2, 2)", 
        "stride": "(1, 1)"
      }, 
      "inputs": []
    }, 
    {
      "op": "null", 
      "name": "convolution7_bias", 
      "attr": {
        "kernel": "(5, 5)", 
        "num_filter": "64", 
        "pad": "(2, 2)", 
        "stride": "(1, 1)"
      }, 
      "inputs": []
    }, 
    {
      "op": "Convolution", 
      "name": "convolution7", 
      "attr": {
        "kernel": "(5, 5)", 
        "num_filter": "64", 
        "pad": "(2, 2)", 
        "stride": "(1, 1)"
      }, 
      "inputs": [[65, 0, 0], [66, 0, 0], [67, 0, 0]]
    }, 
    {
      "op": "null", 
      "name": "batchnorm7_gamma", 
      "inputs": []
    }, 
    {
      "op": "null", 
      "name": "batchnorm7_beta", 
      "inputs": []
    }, 
    {
      "op": "null", 
      "name": "batchnorm7_moving_mean", 
      "inputs": []
    }, 
    {
      "op": "null", 
      "name": "batchnorm7_moving_var", 
      "inputs": []
    }, 
    {
      "op": "BatchNorm", 
      "name": "batchnorm7", 
      "inputs": [[68, 0, 0], [69, 0, 0], [70, 0, 0], [71, 0, 1], [72, 0, 1]]
    }, 
    {
      "op": "Activation", 
      "name": "activation7", 
      "attr": {"act_type": "relu"}, 
      "inputs": [[73, 0, 0]]
    }, 
    {
      "op": "null", 
      "name": "convolution8_weight", 
      "attr": {
        "kernel": "(1, 1)", 
        "num_filter": "64", 
        "pad": "(0, 0)", 
        "stride": "(1, 1)"
      }, 
      "inputs": []
    }, 
    {
      "op": "null", 
      "name": "convolution8_bias", 
      "attr": {
        "kernel": "(1, 1)", 
        "num_filter": "64", 
        "pad": "(0, 0)", 
        "stride": "(1, 1)"
      }, 
      "inputs": []
    }, 
    {
      "op": "Convolution", 
      "name": "convolution8", 
      "attr": {
        "kernel": "(1, 1)", 
        "num_filter": "64", 
        "pad": "(0, 0)", 
        "stride": "(1, 1)"
      }, 
      "inputs": [[47, 0, 0], [75, 0, 0], [76, 0, 0]]
    }, 
    {
      "op": "null", 
      "name": "batchnorm8_gamma", 
      "inputs": []
    }, 
    {
      "op": "null", 
      "name": "batchnorm8_beta", 
      "inputs": []
    }, 
    {
      "op": "null", 
      "name": "batchnorm8_moving_mean", 
      "inputs": []
    }, 
    {
      "op": "null", 
      "name": "batchnorm8_moving_var", 
      "inputs": []
    }, 
    {
      "op": "BatchNorm", 
      "name": "batchnorm8", 
      "inputs": [[77, 0, 0], [78, 0, 0], [79, 0, 0], [80, 0, 1], [81, 0, 1]]
    }, 
    {
      "op": "Activation", 
      "name": "activation8", 
      "attr": {"act_type": "relu"}, 
      "inputs": [[82, 0, 0]]
    }, 
    {
      "op": "null", 
      "name": "convolution9_weight", 
      "attr": {
        "kernel": "(3, 3)", 
        "num_filter": "96", 
        "pad": "(1, 1)", 
        "stride": "(1, 1)"
      }, 
      "inputs": []
    }, 
    {
      "op": "null", 
      "name": "convolution9_bias", 
      "attr": {
        "kernel": "(3, 3)", 
        "num_filter": "96", 
        "pad": "(1, 1)", 
        "stride": "(1, 1)"
      }, 
      "inputs": []
    }, 
    {
      "op": "Convolution", 
      "name": "convolution9", 
      "attr": {
        "kernel": "(3, 3)", 
        "num_filter": "96", 
        "pad": "(1, 1)", 
        "stride": "(1, 1)"
      }, 
      "inputs": [[83, 0, 0], [84, 0, 0], [85, 0, 0]]
    }, 
    {
      "op": "null", 
      "name": "batchnorm9_gamma", 
      "inputs": []
    }, 
    {
      "op": "null", 
      "name": "batchnorm9_beta", 
      "inputs": []
    }, 
    {
      "op": "null", 
      "name": "batchnorm9_moving_mean", 
      "inputs": []
    }, 
    {
      "op": "null", 
      "name": "batchnorm9_moving_var", 
      "inputs": []
    }, 
    {
      "op": "BatchNorm", 
      "name": "batchnorm9", 
      "inputs": [[86, 0, 0], [87, 0, 0], [88, 0, 0], [89, 0, 1], [90, 0, 1]]
    }, 
    {
      "op": "Activation", 
      "name": "activation9", 
      "attr": {"act_type": "relu"}, 
      "inputs": [[91, 0, 0]]
    }, 
    {
      "op": "null", 
      "name": "convolution10_weight", 
      "attr": {
        "kernel": "(3, 3)", 
        "num_filter": "96", 
        "pad": "(1, 1)", 
        "stride": "(1, 1)"
      }, 
      "inputs": []
    }, 
    {
      "op": "null", 
      "name": "convolution10_bias", 
      "attr": {
        "kernel": "(3, 3)", 
        "num_filter": "96", 
        "pad": "(1, 1)", 
        "stride": "(1, 1)"
      }, 
      "inputs": []
    }, 
    {
      "op": "Convolution", 
      "name": "convolution10", 
      "attr": {
        "kernel": "(3, 3)", 
        "num_filter": "96", 
        "pad": "(1, 1)", 
        "stride": "(1, 1)"
      }, 
      "inputs": [[92, 0, 0], [93, 0, 0], [94, 0, 0]]
    }, 
    {
      "op": "null", 
      "name": "batchnorm10_gamma", 
      "inputs": []
    }, 
    {
      "op": "null", 
      "name": "batchnorm10_beta", 
      "inputs": []
    }, 
    {
      "op": "null", 
      "name": "batchnorm10_moving_mean", 
      "inputs": []
    }, 
    {
      "op": "null", 
      "name": "batchnorm10_moving_var", 
      "inputs": []
    }, 
    {
      "op": "BatchNorm", 
      "name": "batchnorm10", 
      "inputs": [[95, 0, 0], [96, 0, 0], [97, 0, 0], [98, 0, 1], [99, 0, 1]]
    }, 
    {
      "op": "Activation", 
      "name": "activation10", 
      "attr": {"act_type": "relu"}, 
      "inputs": [[100, 0, 0]]
    }, 
    {
      "op": "Pooling", 
      "name": "pooling2", 
      "attr": {
        "kernel": "(3, 3)", 
        "pad": "(1, 1)", 
        "pool_type": "avg", 
        "stride": "(1, 1)"
      }, 
      "inputs": [[47, 0, 0]]
    }, 
    {
      "op": "null", 
      "name": "convolution11_weight", 
      "attr": {
        "kernel": "(1, 1)", 
        "num_filter": "64", 
        "pad": "(0, 0)", 
        "stride": "(1, 1)"
      }, 
      "inputs": []
    }, 
    {
      "op": "null", 
      "name": "convolution11_bias", 
      "attr": {
        "kernel": "(1, 1)", 
        "num_filter": "64", 
        "pad": "(0, 0)", 
        "stride": "(1, 1)"
      }, 
      "inputs": []
    }, 
    {
      "op": "Convolution", 
      "name": "convolution11", 
      "attr": {
        "kernel": "(1, 1)", 
        "num_filter": "64", 
        "pad": "(0, 0)", 
        "stride": "(1, 1)"
      }, 
      "inputs": [[102, 0, 0], [103, 0, 0], [104, 0, 0]]
    }, 
    {
      "op": "null", 
      "name": "batchnorm11_gamma", 
      "inputs": []
    }, 
    {
      "op": "null", 
      "name": "batchnorm11_beta", 
      "inputs": []
    }, 
    {
      "op": "null", 
      "name": "batchnorm11_moving_mean", 
      "inputs": []
    }, 
    {
      "op": "null", 
      "name": "batchnorm11_moving_var", 
      "inputs": []
    }, 
    {
      "op": "BatchNorm", 
      "name": "batchnorm11", 
      "inputs": [[105, 0, 0], [106, 0, 0], [107, 0, 0], [108, 0, 1], [109, 0, 1]]
    }, 
    {
      "op": "Activation", 
      "name": "activation11", 
      "attr": {"act_type": "relu"}, 
      "inputs": [[110, 0, 0]]
    }, 
    {
      "op": "Concat", 
      "name": "concat0", 
      "attr": {"num_args": "4"}, 
      "inputs": [[56, 0, 0], [74, 0, 0], [101, 0, 0], [111, 0, 0]]
    }, 
    {
      "op": "null", 
      "name": "convolution12_weight", 
      "attr": {
        "kernel": "(1, 1)", 
        "num_filter": "32", 
        "pad": "(0, 0)", 
        "stride": "(1, 1)"
      }, 
      "inputs": []
    }, 
    {
      "op": "null", 
      "name": "convolution12_bias", 
      "attr": {
        "kernel": "(1, 1)", 
        "num_filter": "32", 
        "pad": "(0, 0)", 
        "stride": "(1, 1)"
      }, 
      "inputs": []
    }, 
    {
      "op": "Convolution", 
      "name": "convolution12", 
      "attr": {
        "kernel": "(1, 1)", 
        "num_filter": "32", 
        "pad": "(0, 0)", 
        "stride": "(1, 1)"
      }, 
      "inputs": [[112, 0, 0], [113, 0, 0], [114, 0, 0]]
    }, 
    {
      "op": "null", 
      "name": "batchnorm12_gamma", 
      "inputs": []
    }, 
    {
      "op": "null", 
      "name": "batchnorm12_beta", 
      "inputs": []
    }, 
    {
      "op": "null", 
      "name": "batchnorm12_moving_mean", 
      "inputs": []
    }, 
    {
      "op": "null", 
      "name": "batchnorm12_moving_var", 
      "inputs": []
    }, 
    {
      "op": "BatchNorm", 
      "name": "batchnorm12", 
      "inputs": [[115, 0, 0], [116, 0, 0], [117, 0, 0], [118, 0, 1], [119, 0, 1]]
    }, 
    {
      "op": "Activation", 
      "name": "activation12", 
      "attr": {"act_type": "relu"}, 
      "inputs": [[120, 0, 0]]
    }, 
    {
      "op": "null", 
      "name": "convolution13_weight", 
      "attr": {
        "kernel": "(1, 1)", 
        "num_filter": "32", 
        "pad": "(0, 0)", 
        "stride": "(1, 1)"
      }, 
      "inputs": []
    }, 
    {
      "op": "null", 
      "name": "convolution13_bias", 
      "attr": {
        "kernel": "(1, 1)", 
        "num_filter": "32", 
        "pad": "(0, 0)", 
        "stride": "(1, 1)"
      }, 
      "inputs": []
    }, 
    {
      "op": "Convolution", 
      "name": "convolution13", 
      "attr": {
        "kernel": "(1, 1)", 
        "num_filter": "32", 
        "pad": "(0, 0)", 
        "stride": "(1, 1)"
      }, 
      "inputs": [[112, 0, 0], [122, 0, 0], [123, 0, 0]]
    }, 
    {
      "op": "null", 
      "name": "batchnorm13_gamma", 
      "inputs": []
    }, 
    {
      "op": "null", 
      "name": "batchnorm13_beta", 
      "inputs": []
    }, 
    {
      "op": "null", 
      "name": "batchnorm13_moving_mean", 
      "inputs": []
    }, 
    {
      "op": "null", 
      "name": "batchnorm13_moving_var", 
      "inputs": []
    }, 
    {
      "op": "BatchNorm", 
      "name": "batchnorm13", 
      "inputs": [[124, 0, 0], [125, 0, 0], [126, 0, 0], [127, 0, 1], [128, 0, 1]]
    }, 
    {
      "op": "Activation", 
      "name": "activation13", 
      "attr": {"act_type": "relu"}, 
      "inputs": [[129, 0, 0]]
    }, 
    {
      "op": "null", 
      "name": "convolution14_weight", 
      "attr": {
        "kernel": "(3, 3)", 
        "num_filter": "32", 
        "pad": "(1, 1)", 
        "stride": "(1, 1)"
      }, 
      "inputs": []
    }, 
    {
      "op": "null", 
      "name": "convolution14_bias", 
      "attr": {
        "kernel": "(3, 3)", 
        "num_filter": "32", 
        "pad": "(1, 1)", 
        "stride": "(1, 1)"
      }, 
      "inputs": []
    }, 
    {
      "op": "Convolution", 
      "name": "convolution14", 
      "attr": {
        "kernel": "(3, 3)", 
        "num_filter": "32", 
        "pad": "(1, 1)", 
        "stride": "(1, 1)"
      }, 
      "inputs": [[130, 0, 0], [131, 0, 0], [132, 0, 0]]
    }, 
    {
      "op": "null", 
      "name": "batchnorm14_gamma", 
      "inputs": []
    }, 
    {
      "op": "null", 
      "name": "batchnorm14_beta", 
      "inputs": []
    }, 
    {
      "op": "null", 
      "name": "batchnorm14_moving_mean", 
      "inputs": []
    }, 
    {
      "op": "null", 
      "name": "batchnorm14_moving_var", 
      "inputs": []
    }, 
    {
      "op": "BatchNorm", 
      "name": "batchnorm14", 
      "inputs": [[133, 0, 0], [134, 0, 0], [135, 0, 0], [136, 0, 1], [137, 0, 1]]
    }, 
    {
      "op": "Activation", 
      "name": "activation14", 
      "attr": {"act_type": "relu"}, 
      "inputs": [[138, 0, 0]]
    }, 
    {
      "op": "null", 
      "name": "convolution15_weight", 
      "attr": {
        "kernel": "(1, 1)", 
        "num_filter": "32", 
        "pad": "(0, 0)", 
        "stride": "(1, 1)"
      }, 
      "inputs": []
    }, 
    {
      "op": "null", 
      "name": "convolution15_bias", 
      "attr": {
        "kernel": "(1, 1)", 
        "num_filter": "32", 
        "pad": "(0, 0)", 
        "stride": "(1, 1)"
      }, 
      "inputs": []
    }, 
    {
      "op": "Convolution", 
      "name": "convolution15", 
      "attr": {
        "kernel": "(1, 1)", 
        "num_filter": "32", 
        "pad": "(0, 0)", 
        "stride": "(1, 1)"
      }, 
      "inputs": [[112, 0, 0], [140, 0, 0], [141, 0, 0]]
    }, 
    {
      "op": "null", 
      "name": "batchnorm15_gamma", 
      "inputs": []
    }, 
    {
      "op": "null", 
      "name": "batchnorm15_beta", 
      "inputs": []
    }, 
    {
      "op": "null", 
      "name": "batchnorm15_moving_mean", 
      "inputs": []
    }, 
    {
      "op": "null", 
      "name": "batchnorm15_moving_var", 
      "inputs": []
    }, 
    {
      "op": "BatchNorm", 
      "name": "batchnorm15", 
      "inputs": [[142, 0, 0], [143, 0, 0], [144, 0, 0], [145, 0, 1], [146, 0, 1]]
    }, 
    {
      "op": "Activation", 
      "name": "activation15", 
      "attr": {"act_type": "relu"}, 
      "inputs": [[147, 0, 0]]
    }, 
    {
      "op": "null", 
      "name": "convolution16_weight", 
      "attr": {
        "kernel": "(3, 3)", 
        "num_filter": "48", 
        "pad": "(1, 1)", 
        "stride": "(1, 1)"
      }, 
      "inputs": []
    }, 
    {
      "op": "null", 
      "name": "convolution16_bias", 
      "attr": {
        "kernel": "(3, 3)", 
        "num_filter": "48", 
        "pad": "(1, 1)", 
        "stride": "(1, 1)"
      }, 
      "inputs": []
    }, 
    {
      "op": "Convolution", 
      "name": "convolution16", 
      "attr": {
        "kernel": "(3, 3)", 
        "num_filter": "48", 
        "pad": "(1, 1)", 
        "stride": "(1, 1)"
      }, 
      "inputs": [[148, 0, 0], [149, 0, 0], [150, 0, 0]]
    }, 
    {
      "op": "null", 
      "name": "batchnorm16_gamma", 
      "inputs": []
    }, 
    {
      "op": "null", 
      "name": "batchnorm16_beta", 
      "inputs": []
    }, 
    {
      "op": "null", 
      "name": "batchnorm16_moving_mean", 
      "inputs": []
    }, 
    {
      "op": "null", 
      "name": "batchnorm16_moving_var", 
      "inputs": []
    }, 
    {
      "op": "BatchNorm", 
      "name": "batchnorm16", 
      "inputs": [[151, 0, 0], [152, 0, 0], [153, 0, 0], [154, 0, 1], [155, 0, 1]]
    }, 
    {
      "op": "Activation", 
      "name": "activation16", 
      "attr": {"act_type": "relu"}, 
      "inputs": [[156, 0, 0]]
    }, 
    {
      "op": "null", 
      "name": "convolution17_weight", 
      "attr": {
        "kernel": "(3, 3)", 
        "num_filter": "64", 
        "pad": "(1, 1)", 
        "stride": "(1, 1)"
      }, 
      "inputs": []
    }, 
    {
      "op": "null", 
      "name": "convolution17_bias", 
      "attr": {
        "kernel": "(3, 3)", 
        "num_filter": "64", 
        "pad": "(1, 1)", 
        "stride": "(1, 1)"
      }, 
      "inputs": []
    }, 
    {
      "op": "Convolution", 
      "name": "convolution17", 
      "attr": {
        "kernel": "(3, 3)", 
        "num_filter": "64", 
        "pad": "(1, 1)", 
        "stride": "(1, 1)"
      }, 
      "inputs": [[157, 0, 0], [158, 0, 0], [159, 0, 0]]
    }, 
    {
      "op": "null", 
      "name": "batchnorm17_gamma", 
      "inputs": []
    }, 
    {
      "op": "null", 
      "name": "batchnorm17_beta", 
      "inputs": []
    }, 
    {
      "op": "null", 
      "name": "batchnorm17_moving_mean", 
      "inputs": []
    }, 
    {
      "op": "null", 
      "name": "batchnorm17_moving_var", 
      "inputs": []
    }, 
    {
      "op": "BatchNorm", 
      "name": "batchnorm17", 
      "inputs": [[160, 0, 0], [161, 0, 0], [162, 0, 0], [163, 0, 1], [164, 0, 1]]
    }, 
    {
      "op": "Activation", 
      "name": "activation17", 
      "attr": {"act_type": "relu"}, 
      "inputs": [[165, 0, 0]]
    }, 
    {
      "op": "Concat", 
      "name": "concat1", 
      "attr": {"num_args": "3"}, 
      "inputs": [[121, 0, 0], [139, 0, 0], [166, 0, 0]]
    }, 
    {
      "op": "null", 
      "name": "convolution18_weight", 
      "attr": {
        "kernel": "(1, 1)", 
        "num_filter": "320", 
        "pad": "(0, 0)", 
        "stride": "(1, 1)"
      }, 
      "inputs": []
    }, 
    {
      "op": "null", 
      "name": "convolution18_bias", 
      "attr": {
        "kernel": "(1, 1)", 
        "num_filter": "320", 
        "pad": "(0, 0)", 
        "stride": "(1, 1)"
      }, 
      "inputs": []
    }, 
    {
      "op": "Convolution", 
      "name": "convolution18", 
      "attr": {
        "kernel": "(1, 1)", 
        "num_filter": "320", 
        "pad": "(0, 0)", 
        "stride": "(1, 1)"
      }, 
      "inputs": [[167, 0, 0], [168, 0, 0], [169, 0, 0]]
    }, 
    {
      "op": "null", 
      "name": "batchnorm18_gamma", 
      "inputs": []
    }, 
    {
      "op": "null", 
      "name": "batchnorm18_beta", 
      "inputs": []
    }, 
    {
      "op": "null", 
      "name": "batchnorm18_moving_mean", 
      "inputs": []
    }, 
    {
      "op": "null", 
      "name": "batchnorm18_moving_var", 
      "inputs": []
    }, 
    {
      "op": "BatchNorm", 
      "name": "batchnorm18", 
      "inputs": [[170, 0, 0], [171, 0, 0], [172, 0, 0], [173, 0, 1], [174, 0, 1]]
    }, 
    {
      "op": "_mul_scalar", 
      "name": "_mulscalar0", 
      "attr": {"scalar": "0.17"}, 
      "inputs": [[175, 0, 0]]
    }, 
    {
      "op": "elemwise_add", 
      "name": "_plus0", 
      "inputs": [[112, 0, 0], [176, 0, 0]]
    }, 
    {
      "op": "Activation", 
      "name": "activation18", 
      "attr": {"act_type": "relu"}, 
      "inputs": [[177, 0, 0]]
    }, 
    {
      "op": "null", 
      "name": "convolution19_weight", 
      "attr": {
        "kernel": "(1, 1)", 
        "num_filter": "32", 
        "pad": "(0, 0)", 
        "stride": "(1, 1)"
      }, 
      "inputs": []
    }, 
    {
      "op": "null", 
      "name": "convolution19_bias", 
      "attr": {
        "kernel": "(1, 1)", 
        "num_filter": "32", 
        "pad": "(0, 0)", 
        "stride": "(1, 1)"
      }, 
      "inputs": []
    }, 
    {
      "op": "Convolution", 
      "name": "convolution19", 
      "attr": {
        "kernel": "(1, 1)", 
        "num_filter": "32", 
        "pad": "(0, 0)", 
        "stride": "(1, 1)"
      }, 
      "inputs": [[178, 0, 0], [179, 0, 0], [180, 0, 0]]
    }, 
    {
      "op": "null", 
      "name": "batchnorm19_gamma", 
      "inputs": []
    }, 
    {
      "op": "null", 
      "name": "batchnorm19_beta", 
      "inputs": []
    }, 
    {
      "op": "null", 
      "name": "batchnorm19_moving_mean", 
      "inputs": []
    }, 
    {
      "op": "null", 
      "name": "batchnorm19_moving_var", 
      "inputs": []
    }, 
    {
      "op": "BatchNorm", 
      "name": "batchnorm19", 
      "inputs": [[181, 0, 0], [182, 0, 0], [183, 0, 0], [184, 0, 1], [185, 0, 1]]
    }, 
    {
      "op": "Activation", 
      "name": "activation19", 
      "attr": {"act_type": "relu"}, 
      "inputs": [[186, 0, 0]]
    }, 
    {
      "op": "null", 
      "name": "convolution20_weight", 
      "attr": {
        "kernel": "(1, 1)", 
        "num_filter": "32", 
        "pad": "(0, 0)", 
        "stride": "(1, 1)"
      }, 
      "inputs": []
    }, 
    {
      "op": "null", 
      "name": "convolution20_bias", 
      "attr": {
        "kernel": "(1, 1)", 
        "num_filter": "32", 
        "pad": "(0, 0)", 
        "stride": "(1, 1)"
      }, 
      "inputs": []
    }, 
    {
      "op": "Convolution", 
      "name": "convolution20", 
      "attr": {
        "kernel": "(1, 1)", 
        "num_filter": "32", 
        "pad": "(0, 0)", 
        "stride": "(1, 1)"
      }, 
      "inputs": [[178, 0, 0], [188, 0, 0], [189, 0, 0]]
    }, 
    {
      "op": "null", 
      "name": "batchnorm20_gamma", 
      "inputs": []
    }, 
    {
      "op": "null", 
      "name": "batchnorm20_beta", 
      "inputs": []
    }, 
    {
      "op": "null", 
      "name": "batchnorm20_moving_mean", 
      "inputs": []
    }, 
    {
      "op": "null", 
      "name": "batchnorm20_moving_var", 
      "inputs": []
    }, 
    {
      "op": "BatchNorm", 
      "name": "batchnorm20", 
      "inputs": [[190, 0, 0], [191, 0, 0], [192, 0, 0], [193, 0, 1], [194, 0, 1]]
    }, 
    {
      "op": "Activation", 
      "name": "activation20", 
      "attr": {"act_type": "relu"}, 
      "inputs": [[195, 0, 0]]
    }, 
    {
      "op": "null", 
      "name": "convolution21_weight", 
      "attr": {
        "kernel": "(3, 3)", 
        "num_filter": "32", 
        "pad": "(1, 1)", 
        "stride": "(1, 1)"
      }, 
      "inputs": []
    }, 
    {
      "op": "null", 
      "name": "convolution21_bias", 
      "attr": {
        "kernel": "(3, 3)", 
        "num_filter": "32", 
        "pad": "(1, 1)", 
        "stride": "(1, 1)"
      }, 
      "inputs": []
    }, 
    {
      "op": "Convolution", 
      "name": "convolution21", 
      "attr": {
        "kernel": "(3, 3)", 
        "num_filter": "32", 
        "pad": "(1, 1)", 
        "stride": "(1, 1)"
      }, 
      "inputs": [[196, 0, 0], [197, 0, 0], [198, 0, 0]]
    }, 
    {
      "op": "null", 
      "name": "batchnorm21_gamma", 
      "inputs": []
    }, 
    {
      "op": "null", 
      "name": "batchnorm21_beta", 
      "inputs": []
    }, 
    {
      "op": "null", 
      "name": "batchnorm21_moving_mean", 
      "inputs": []
    }, 
    {
      "op": "null", 
      "name": "batchnorm21_moving_var", 
      "inputs": []
    }, 
    {
      "op": "BatchNorm", 
      "name": "batchnorm21", 
      "inputs": [[199, 0, 0], [200, 0, 0], [201, 0, 0], [202, 0, 1], [203, 0, 1]]
    }, 
    {
      "op": "Activation", 
      "name": "activation21", 
      "attr": {"act_type": "relu"}, 
      "inputs": [[204, 0, 0]]
    }, 
    {
      "op": "null", 
      "name": "convolution22_weight", 
      "attr": {
        "kernel": "(1, 1)", 
        "num_filter": "32", 
        "pad": "(0, 0)", 
        "stride": "(1, 1)"
      }, 
      "inputs": []
    }, 
    {
      "op": "null", 
      "name": "convolution22_bias", 
      "attr": {
        "kernel": "(1, 1)", 
        "num_filter": "32", 
        "pad": "(0, 0)", 
        "stride": "(1, 1)"
      }, 
      "inputs": []
    }, 
    {
      "op": "Convolution", 
      "name": "convolution22", 
      "attr": {
        "kernel": "(1, 1)", 
        "num_filter": "32", 
        "pad": "(0, 0)", 
        "stride": "(1, 1)"
      }, 
      "inputs": [[178, 0, 0], [206, 0, 0], [207, 0, 0]]
    }, 
    {
      "op": "null", 
      "name": "batchnorm22_gamma", 
      "inputs": []
    }, 
    {
      "op": "null", 
      "name": "batchnorm22_beta", 
      "inputs": []
    }, 
    {
      "op": "null", 
      "name": "batchnorm22_moving_mean", 
      "inputs": []
    }, 
    {
      "op": "null", 
      "name": "batchnorm22_moving_var", 
      "inputs": []
    }, 
    {
      "op": "BatchNorm", 
      "name": "batchnorm22", 
      "inputs": [[208, 0, 0], [209, 0, 0], [210, 0, 0], [211, 0, 1], [212, 0, 1]]
    }, 
    {
      "op": "Activation", 
      "name": "activation22", 
      "attr": {"act_type": "relu"}, 
      "inputs": [[213, 0, 0]]
    }, 
    {
      "op": "null", 
      "name": "convolution23_weight", 
      "attr": {
        "kernel": "(3, 3)", 
        "num_filter": "48", 
        "pad": "(1, 1)", 
        "stride": "(1, 1)"
      }, 
      "inputs": []
    }, 
    {
      "op": "null", 
      "name": "convolution23_bias", 
      "attr": {
        "kernel": "(3, 3)", 
        "num_filter": "48", 
        "pad": "(1, 1)", 
        "stride": "(1, 1)"
      }, 
      "inputs": []
    }, 
    {
      "op": "Convolution", 
      "name": "convolution23", 
      "attr": {
        "kernel": "(3, 3)", 
        "num_filter": "48", 
        "pad": "(1, 1)", 
        "stride": "(1, 1)"
      }, 
      "inputs": [[214, 0, 0], [215, 0, 0], [216, 0, 0]]
    }, 
    {
      "op": "null", 
      "name": "batchnorm23_gamma", 
      "inputs": []
    }, 
    {
      "op": "null", 
      "name": "batchnorm23_beta", 
      "inputs": []
    }, 
    {
      "op": "null", 
      "name": "batchnorm23_moving_mean", 
      "inputs": []
    }, 
    {
      "op": "null", 
      "name": "batchnorm23_moving_var", 
      "inputs": []
    }, 
    {
      "op": "BatchNorm", 
      "name": "batchnorm23", 
      "inputs": [[217, 0, 0], [218, 0, 0], [219, 0, 0], [220, 0, 1], [221, 0, 1]]
    }, 
    {
      "op": "Activation", 
      "name": "activation23", 
      "attr": {"act_type": "relu"}, 
      "inputs": [[222, 0, 0]]
    }, 
    {
      "op": "null", 
      "name": "convolution24_weight", 
      "attr": {
        "kernel": "(3, 3)", 
        "num_filter": "64", 
        "pad": "(1, 1)", 
        "stride": "(1, 1)"
      }, 
      "inputs": []
    }, 
    {
      "op": "null", 
      "name": "convolution24_bias", 
      "attr": {
        "kernel": "(3, 3)", 
        "num_filter": "64", 
        "pad": "(1, 1)", 
        "stride": "(1, 1)"
      }, 
      "inputs": []
    }, 
    {
      "op": "Convolution", 
      "name": "convolution24", 
      "attr": {
        "kernel": "(3, 3)", 
        "num_filter": "64", 
        "pad": "(1, 1)", 
        "stride": "(1, 1)"
      }, 
      "inputs": [[223, 0, 0], [224, 0, 0], [225, 0, 0]]
    }, 
    {
      "op": "null", 
      "name": "batchnorm24_gamma", 
      "inputs": []
    }, 
    {
      "op": "null", 
      "name": "batchnorm24_beta", 
      "inputs": []
    }, 
    {
      "op": "null", 
      "name": "batchnorm24_moving_mean", 
      "inputs": []
    }, 
    {
      "op": "null", 
      "name": "batchnorm24_moving_var", 
      "inputs": []
    }, 
    {
      "op": "BatchNorm", 
      "name": "batchnorm24", 
      "inputs": [[226, 0, 0], [227, 0, 0], [228, 0, 0], [229, 0, 1], [230, 0, 1]]
    }, 
    {
      "op": "Activation", 
      "name": "activation24", 
      "attr": {"act_type": "relu"}, 
      "inputs": [[231, 0, 0]]
    }, 
    {
      "op": "Concat", 
      "name": "concat2", 
      "attr": {"num_args": "3"}, 
      "inputs": [[187, 0, 0], [205, 0, 0], [232, 0, 0]]
    }, 
    {
      "op": "null", 
      "name": "convolution25_weight", 
      "attr": {
        "kernel": "(1, 1)", 
        "num_filter": "320", 
        "pad": "(0, 0)", 
        "stride": "(1, 1)"
      }, 
      "inputs": []
    }, 
    {
      "op": "null", 
      "name": "convolution25_bias", 
      "attr": {
        "kernel": "(1, 1)", 
        "num_filter": "320", 
        "pad": "(0, 0)", 
        "stride": "(1, 1)"
      }, 
      "inputs": []
    }, 
    {
      "op": "Convolution", 
      "name": "convolution25", 
      "attr": {
        "kernel": "(1, 1)", 
        "num_filter": "320", 
        "pad": "(0, 0)", 
        "stride": "(1, 1)"
      }, 
      "inputs": [[233, 0, 0], [234, 0, 0], [235, 0, 0]]
    }, 
    {
      "op": "null", 
      "name": "batchnorm25_gamma", 
      "inputs": []
    }, 
    {
      "op": "null", 
      "name": "batchnorm25_beta", 
      "inputs": []
    }, 
    {
      "op": "null", 
      "name": "batchnorm25_moving_mean", 
      "inputs": []
    }, 
    {
      "op": "null", 
      "name": "batchnorm25_moving_var", 
      "inputs": []
    }, 
    {
      "op": "BatchNorm", 
      "name": "batchnorm25", 
      "inputs": [[236, 0, 0], [237, 0, 0], [238, 0, 0], [239, 0, 1], [240, 0, 1]]
    }, 
    {
      "op": "_mul_scalar", 
      "name": "_mulscalar1", 
      "attr": {"scalar": "0.17"}, 
      "inputs": [[241, 0, 0]]
    }, 
    {
      "op": "elemwise_add", 
      "name": "_plus1", 
      "inputs": [[178, 0, 0], [242, 0, 0]]
    }, 
    {
      "op": "Activation", 
      "name": "activation25", 
      "attr": {"act_type": "relu"}, 
      "inputs": [[243, 0, 0]]
    }, 
    {
      "op": "null", 
      "name": "convolution26_weight", 
      "attr": {
        "kernel": "(1, 1)", 
        "num_filter": "32", 
        "pad": "(0, 0)", 
        "stride": "(1, 1)"
      }, 
      "inputs": []
    }, 
    {
      "op": "null", 
      "name": "convolution26_bias", 
      "attr": {
        "kernel": "(1, 1)", 
        "num_filter": "32", 
        "pad": "(0, 0)", 
        "stride": "(1, 1)"
      }, 
      "inputs": []
    }, 
    {
      "op": "Convolution", 
      "name": "convolution26", 
      "attr": {
        "kernel": "(1, 1)", 
        "num_filter": "32", 
        "pad": "(0, 0)", 
        "stride": "(1, 1)"
      }, 
      "inputs": [[244, 0, 0], [245, 0, 0], [246, 0, 0]]
    }, 
    {
      "op": "null", 
      "name": "batchnorm26_gamma", 
      "inputs": []
    }, 
    {
      "op": "null", 
      "name": "batchnorm26_beta", 
      "inputs": []
    }, 
    {
      "op": "null", 
      "name": "batchnorm26_moving_mean", 
      "inputs": []
    }, 
    {
      "op": "null", 
      "name": "batchnorm26_moving_var", 
      "inputs": []
    }, 
    {
      "op": "BatchNorm", 
      "name": "batchnorm26", 
      "inputs": [[247, 0, 0], [248, 0, 0], [249, 0, 0], [250, 0, 1], [251, 0, 1]]
    }, 
    {
      "op": "Activation", 
      "name": "activation26", 
      "attr": {"act_type": "relu"}, 
      "inputs": [[252, 0, 0]]
    }, 
    {
      "op": "null", 
      "name": "convolution27_weight", 
      "attr": {
        "kernel": "(1, 1)", 
        "num_filter": "32", 
        "pad": "(0, 0)", 
        "stride": "(1, 1)"
      }, 
      "inputs": []
    }, 
    {
      "op": "null", 
      "name": "convolution27_bias", 
      "attr": {
        "kernel": "(1, 1)", 
        "num_filter": "32", 
        "pad": "(0, 0)", 
        "stride": "(1, 1)"
      }, 
      "inputs": []
    }, 
    {
      "op": "Convolution", 
      "name": "convolution27", 
      "attr": {
        "kernel": "(1, 1)", 
        "num_filter": "32", 
        "pad": "(0, 0)", 
        "stride": "(1, 1)"
      }, 
      "inputs": [[244, 0, 0], [254, 0, 0], [255, 0, 0]]
    }, 
    {
      "op": "null", 
      "name": "batchnorm27_gamma", 
      "inputs": []
    }, 
    {
      "op": "null", 
      "name": "batchnorm27_beta", 
      "inputs": []
    }, 
    {
      "op": "null", 
      "name": "batchnorm27_moving_mean", 
      "inputs": []
    }, 
    {
      "op": "null", 
      "name": "batchnorm27_moving_var", 
      "inputs": []
    }, 
    {
      "op": "BatchNorm", 
      "name": "batchnorm27", 
      "inputs": [[256, 0, 0], [257, 0, 0], [258, 0, 0], [259, 0, 1], [260, 0, 1]]
    }, 
    {
      "op": "Activation", 
      "name": "activation27", 
      "attr": {"act_type": "relu"}, 
      "inputs": [[261, 0, 0]]
    }, 
    {
      "op": "null", 
      "name": "convolution28_weight", 
      "attr": {
        "kernel": "(3, 3)", 
        "num_filter": "32", 
        "pad": "(1, 1)", 
        "stride": "(1, 1)"
      }, 
      "inputs": []
    }, 
    {
      "op": "null", 
      "name": "convolution28_bias", 
      "attr": {
        "kernel": "(3, 3)", 
        "num_filter": "32", 
        "pad": "(1, 1)", 
        "stride": "(1, 1)"
      }, 
      "inputs": []
    }, 
    {
      "op": "Convolution", 
      "name": "convolution28", 
      "attr": {
        "kernel": "(3, 3)", 
        "num_filter": "32", 
        "pad": "(1, 1)", 
        "stride": "(1, 1)"
      }, 
      "inputs": [[262, 0, 0], [263, 0, 0], [264, 0, 0]]
    }, 
    {
      "op": "null", 
      "name": "batchnorm28_gamma", 
      "inputs": []
    }, 
    {
      "op": "null", 
      "name": "batchnorm28_beta", 
      "inputs": []
    }, 
    {
      "op": "null", 
      "name": "batchnorm28_moving_mean", 
      "inputs": []
    }, 
    {
      "op": "null", 
      "name": "batchnorm28_moving_var", 
      "inputs": []
    }, 
    {
      "op": "BatchNorm", 
      "name": "batchnorm28", 
      "inputs": [[265, 0, 0], [266, 0, 0], [267, 0, 0], [268, 0, 1], [269, 0, 1]]
    }, 
    {
      "op": "Activation", 
      "name": "activation28", 
      "attr": {"act_type": "relu"}, 
      "inputs": [[270, 0, 0]]
    }, 
    {
      "op": "null", 
      "name": "convolution29_weight", 
      "attr": {
        "kernel": "(1, 1)", 
        "num_filter": "32", 
        "pad": "(0, 0)", 
        "stride": "(1, 1)"
      }, 
      "inputs": []
    }, 
    {
      "op": "null", 
      "name": "convolution29_bias", 
      "attr": {
        "kernel": "(1, 1)", 
        "num_filter": "32", 
        "pad": "(0, 0)", 
        "stride": "(1, 1)"
      }, 
      "inputs": []
    }, 
    {
      "op": "Convolution", 
      "name": "convolution29", 
      "attr": {
        "kernel": "(1, 1)", 
        "num_filter": "32", 
        "pad": "(0, 0)", 
        "stride": "(1, 1)"
      }, 
      "inputs": [[244, 0, 0], [272, 0, 0], [273, 0, 0]]
    }, 
    {
      "op": "null", 
      "name": "batchnorm29_gamma", 
      "inputs": []
    }, 
    {
      "op": "null", 
      "name": "batchnorm29_beta", 
      "inputs": []
    }, 
    {
      "op": "null", 
      "name": "batchnorm29_moving_mean", 
      "inputs": []
    }, 
    {
      "op": "null", 
      "name": "batchnorm29_moving_var", 
      "inputs": []
    }, 
    {
      "op": "BatchNorm", 
      "name": "batchnorm29", 
      "inputs": [[274, 0, 0], [275, 0, 0], [276, 0, 0], [277, 0, 1], [278, 0, 1]]
    }, 
    {
      "op": "Activation", 
      "name": "activation29", 
      "attr": {"act_type": "relu"}, 
      "inputs": [[279, 0, 0]]
    }, 
    {
      "op": "null", 
      "name": "convolution30_weight", 
      "attr": {
        "kernel": "(3, 3)", 
        "num_filter": "48", 
        "pad": "(1, 1)", 
        "stride": "(1, 1)"
      }, 
      "inputs": []
    }, 
    {
      "op": "null", 
      "name": "convolution30_bias", 
      "attr": {
        "kernel": "(3, 3)", 
        "num_filter": "48", 
        "pad": "(1, 1)", 
        "stride": "(1, 1)"
      }, 
      "inputs": []
    }, 
    {
      "op": "Convolution", 
      "name": "convolution30", 
      "attr": {
        "kernel": "(3, 3)", 
        "num_filter": "48", 
        "pad": "(1, 1)", 
        "stride": "(1, 1)"
      }, 
      "inputs": [[280, 0, 0], [281, 0, 0], [282, 0, 0]]
    }, 
    {
      "op": "null", 
      "name": "batchnorm30_gamma", 
      "inputs": []
    }, 
    {
      "op": "null", 
      "name": "batchnorm30_beta", 
      "inputs": []
    }, 
    {
      "op": "null", 
      "name": "batchnorm30_moving_mean", 
      "inputs": []
    }, 
    {
      "op": "null", 
      "name": "batchnorm30_moving_var", 
      "inputs": []
    }, 
    {
      "op": "BatchNorm", 
      "name": "batchnorm30", 
      "inputs": [[283, 0, 0], [284, 0, 0], [285, 0, 0], [286, 0, 1], [287, 0, 1]]
    }, 
    {
      "op": "Activation", 
      "name": "activation30", 
      "attr": {"act_type": "relu"}, 
      "inputs": [[288, 0, 0]]
    }, 
    {
      "op": "null", 
      "name": "convolution31_weight", 
      "attr": {
        "kernel": "(3, 3)", 
        "num_filter": "64", 
        "pad": "(1, 1)", 
        "stride": "(1, 1)"
      }, 
      "inputs": []
    }, 
    {
      "op": "null", 
      "name": "convolution31_bias", 
      "attr": {
        "kernel": "(3, 3)", 
        "num_filter": "64", 
        "pad": "(1, 1)", 
        "stride": "(1, 1)"
      }, 
      "inputs": []
    }, 
    {
      "op": "Convolution", 
      "name": "convolution31", 
      "attr": {
        "kernel": "(3, 3)", 
        "num_filter": "64", 
        "pad": "(1, 1)", 
        "stride": "(1, 1)"
      }, 
      "inputs": [[289, 0, 0], [290, 0, 0], [291, 0, 0]]
    }, 
    {
      "op": "null", 
      "name": "batchnorm31_gamma", 
      "inputs": []
    }, 
    {
      "op": "null", 
      "name": "batchnorm31_beta", 
      "inputs": []
    }, 
    {
      "op": "null", 
      "name": "batchnorm31_moving_mean", 
      "inputs": []
    }, 
    {
      "op": "null", 
      "name": "batchnorm31_moving_var", 
      "inputs": []
    }, 
    {
      "op": "BatchNorm", 
      "name": "batchnorm31", 
      "inputs": [[292, 0, 0], [293, 0, 0], [294, 0, 0], [295, 0, 1], [296, 0, 1]]
    }, 
    {
      "op": "Activation", 
      "name": "activation31", 
      "attr": {"act_type": "relu"}, 
      "inputs": [[297, 0, 0]]
    }, 
    {
      "op": "Concat", 
      "name": "concat3", 
      "attr": {"num_args": "3"}, 
      "inputs": [[253, 0, 0], [271, 0, 0], [298, 0, 0]]
    }, 
    {
      "op": "null", 
      "name": "convolution32_weight", 
      "attr": {
        "kernel": "(1, 1)", 
        "num_filter": "320", 
        "pad": "(0, 0)", 
        "stride": "(1, 1)"
      }, 
      "inputs": []
    }, 
    {
      "op": "null", 
      "name": "convolution32_bias", 
      "attr": {
        "kernel": "(1, 1)", 
        "num_filter": "320", 
        "pad": "(0, 0)", 
        "stride": "(1, 1)"
      }, 
      "inputs": []
    }, 
    {
      "op": "Convolution", 
      "name": "convolution32", 
      "attr": {
        "kernel": "(1, 1)", 
        "num_filter": "320", 
        "pad": "(0, 0)", 
        "stride": "(1, 1)"
      }, 
      "inputs": [[299, 0, 0], [300, 0, 0], [301, 0, 0]]
    }, 
    {
      "op": "null", 
      "name": "batchnorm32_gamma", 
      "inputs": []
    }, 
    {
      "op": "null", 
      "name": "batchnorm32_beta", 
      "inputs": []
    }, 
    {
      "op": "null", 
      "name": "batchnorm32_moving_mean", 
      "inputs": []
    }, 
    {
      "op": "null", 
      "name": "batchnorm32_moving_var", 
      "inputs": []
    }, 
    {
      "op": "BatchNorm", 
      "name": "batchnorm32", 
      "inputs": [[302, 0, 0], [303, 0, 0], [304, 0, 0], [305, 0, 1], [306, 0, 1]]
    }, 
    {
      "op": "_mul_scalar", 
      "name": "_mulscalar2", 
      "attr": {"scalar": "0.17"}, 
      "inputs": [[307, 0, 0]]
    }, 
    {
      "op": "elemwise_add", 
      "name": "_plus2", 
      "inputs": [[244, 0, 0], [308, 0, 0]]
    }, 
    {
      "op": "Activation", 
      "name": "activation32", 
      "attr": {"act_type": "relu"}, 
      "inputs": [[309, 0, 0]]
    }, 
    {
      "op": "null", 
      "name": "convolution33_weight", 
      "attr": {
        "kernel": "(1, 1)", 
        "num_filter": "32", 
        "pad": "(0, 0)", 
        "stride": "(1, 1)"
      }, 
      "inputs": []
    }, 
    {
      "op": "null", 
      "name": "convolution33_bias", 
      "attr": {
        "kernel": "(1, 1)", 
        "num_filter": "32", 
        "pad": "(0, 0)", 
        "stride": "(1, 1)"
      }, 
      "inputs": []
    }, 
    {
      "op": "Convolution", 
      "name": "convolution33", 
      "attr": {
        "kernel": "(1, 1)", 
        "num_filter": "32", 
        "pad": "(0, 0)", 
        "stride": "(1, 1)"
      }, 
      "inputs": [[310, 0, 0], [311, 0, 0], [312, 0, 0]]
    }, 
    {
      "op": "null", 
      "name": "batchnorm33_gamma", 
      "inputs": []
    }, 
    {
      "op": "null", 
      "name": "batchnorm33_beta", 
      "inputs": []
    }, 
    {
      "op": "null", 
      "name": "batchnorm33_moving_mean", 
      "inputs": []
    }, 
    {
      "op": "null", 
      "name": "batchnorm33_moving_var", 
      "inputs": []
    }, 
    {
      "op": "BatchNorm", 
      "name": "batchnorm33", 
      "inputs": [[313, 0, 0], [314, 0, 0], [315, 0, 0], [316, 0, 1], [317, 0, 1]]
    }, 
    {
      "op": "Activation", 
      "name": "activation33", 
      "attr": {"act_type": "relu"}, 
      "inputs": [[318, 0, 0]]
    }, 
    {
      "op": "null", 
      "name": "convolution34_weight", 
      "attr": {
        "kernel": "(1, 1)", 
        "num_filter": "32", 
        "pad": "(0, 0)", 
        "stride": "(1, 1)"
      }, 
      "inputs": []
    }, 
    {
      "op": "null", 
      "name": "convolution34_bias", 
      "attr": {
        "kernel": "(1, 1)", 
        "num_filter": "32", 
        "pad": "(0, 0)", 
        "stride": "(1, 1)"
      }, 
      "inputs": []
    }, 
    {
      "op": "Convolution", 
      "name": "convolution34", 
      "attr": {
        "kernel": "(1, 1)", 
        "num_filter": "32", 
        "pad": "(0, 0)", 
        "stride": "(1, 1)"
      }, 
      "inputs": [[310, 0, 0], [320, 0, 0], [321, 0, 0]]
    }, 
    {
      "op": "null", 
      "name": "batchnorm34_gamma", 
      "inputs": []
    }, 
    {
      "op": "null", 
      "name": "batchnorm34_beta", 
      "inputs": []
    }, 
    {
      "op": "null", 
      "name": "batchnorm34_moving_mean", 
      "inputs": []
    }, 
    {
      "op": "null", 
      "name": "batchnorm34_moving_var", 
      "inputs": []
    }, 
    {
      "op": "BatchNorm", 
      "name": "batchnorm34", 
      "inputs": [[322, 0, 0], [323, 0, 0], [324, 0, 0], [325, 0, 1], [326, 0, 1]]
    }, 
    {
      "op": "Activation", 
      "name": "activation34", 
      "attr": {"act_type": "relu"}, 
      "inputs": [[327, 0, 0]]
    }, 
    {
      "op": "null", 
      "name": "convolution35_weight", 
      "attr": {
        "kernel": "(3, 3)", 
        "num_filter": "32", 
        "pad": "(1, 1)", 
        "stride": "(1, 1)"
      }, 
      "inputs": []
    }, 
    {
      "op": "null", 
      "name": "convolution35_bias", 
      "attr": {
        "kernel": "(3, 3)", 
        "num_filter": "32", 
        "pad": "(1, 1)", 
        "stride": "(1, 1)"
      }, 
      "inputs": []
    }, 
    {
      "op": "Convolution", 
      "name": "convolution35", 
      "attr": {
        "kernel": "(3, 3)", 
        "num_filter": "32", 
        "pad": "(1, 1)", 
        "stride": "(1, 1)"
      }, 
      "inputs": [[328, 0, 0], [329, 0, 0], [330, 0, 0]]
    }, 
    {
      "op": "null", 
      "name": "batchnorm35_gamma", 
      "inputs": []
    }, 
    {
      "op": "null", 
      "name": "batchnorm35_beta", 
      "inputs": []
    }, 
    {
      "op": "null", 
      "name": "batchnorm35_moving_mean", 
      "inputs": []
    }, 
    {
      "op": "null", 
      "name": "batchnorm35_moving_var", 
      "inputs": []
    }, 
    {
      "op": "BatchNorm", 
      "name": "batchnorm35", 
      "inputs": [[331, 0, 0], [332, 0, 0], [333, 0, 0], [334, 0, 1], [335, 0, 1]]
    }, 
    {
      "op": "Activation", 
      "name": "activation35", 
      "attr": {"act_type": "relu"}, 
      "inputs": [[336, 0, 0]]
    }, 
    {
      "op": "null", 
      "name": "convolution36_weight", 
      "attr": {
        "kernel": "(1, 1)", 
        "num_filter": "32", 
        "pad": "(0, 0)", 
        "stride": "(1, 1)"
      }, 
      "inputs": []
    }, 
    {
      "op": "null", 
      "name": "convolution36_bias", 
      "attr": {
        "kernel": "(1, 1)", 
        "num_filter": "32", 
        "pad": "(0, 0)", 
        "stride": "(1, 1)"
      }, 
      "inputs": []
    }, 
    {
      "op": "Convolution", 
      "name": "convolution36", 
      "attr": {
        "kernel": "(1, 1)", 
        "num_filter": "32", 
        "pad": "(0, 0)", 
        "stride": "(1, 1)"
      }, 
      "inputs": [[310, 0, 0], [338, 0, 0], [339, 0, 0]]
    }, 
    {
      "op": "null", 
      "name": "batchnorm36_gamma", 
      "inputs": []
    }, 
    {
      "op": "null", 
      "name": "batchnorm36_beta", 
      "inputs": []
    }, 
    {
      "op": "null", 
      "name": "batchnorm36_moving_mean", 
      "inputs": []
    }, 
    {
      "op": "null", 
      "name": "batchnorm36_moving_var", 
      "inputs": []
    }, 
    {
      "op": "BatchNorm", 
      "name": "batchnorm36", 
      "inputs": [[340, 0, 0], [341, 0, 0], [342, 0, 0], [343, 0, 1], [344, 0, 1]]
    }, 
    {
      "op": "Activation", 
      "name": "activation36", 
      "attr": {"act_type": "relu"}, 
      "inputs": [[345, 0, 0]]
    }, 
    {
      "op": "null", 
      "name": "convolution37_weight", 
      "attr": {
        "kernel": "(3, 3)", 
        "num_filter": "48", 
        "pad": "(1, 1)", 
        "stride": "(1, 1)"
      }, 
      "inputs": []
    }, 
    {
      "op": "null", 
      "name": "convolution37_bias", 
      "attr": {
        "kernel": "(3, 3)", 
        "num_filter": "48", 
        "pad": "(1, 1)", 
        "stride": "(1, 1)"
      }, 
      "inputs": []
    }, 
    {
      "op": "Convolution", 
      "name": "convolution37", 
      "attr": {
        "kernel": "(3, 3)", 
        "num_filter": "48", 
        "pad": "(1, 1)", 
        "stride": "(1, 1)"
      }, 
      "inputs": [[346, 0, 0], [347, 0, 0], [348, 0, 0]]
    }, 
    {
      "op": "null", 
      "name": "batchnorm37_gamma", 
      "inputs": []
    }, 
    {
      "op": "null", 
      "name": "batchnorm37_beta", 
      "inputs": []
    }, 
    {
      "op": "null", 
      "name": "batchnorm37_moving_mean", 
      "inputs": []
    }, 
    {
      "op": "null", 
      "name": "batchnorm37_moving_var", 
      "inputs": []
    }, 
    {
      "op": "BatchNorm", 
      "name": "batchnorm37", 
      "inputs": [[349, 0, 0], [350, 0, 0], [351, 0, 0], [352, 0, 1], [353, 0, 1]]
    }, 
    {
      "op": "Activation", 
      "name": "activation37", 
      "attr": {"act_type": "relu"}, 
      "inputs": [[354, 0, 0]]
    }, 
    {
      "op": "null", 
      "name": "convolution38_weight", 
      "attr": {
        "kernel": "(3, 3)", 
        "num_filter": "64", 
        "pad": "(1, 1)", 
        "stride": "(1, 1)"
      }, 
      "inputs": []
    }, 
    {
      "op": "null", 
      "name": "convolution38_bias", 
      "attr": {
        "kernel": "(3, 3)", 
        "num_filter": "64", 
        "pad": "(1, 1)", 
        "stride": "(1, 1)"
      }, 
      "inputs": []
    }, 
    {
      "op": "Convolution", 
      "name": "convolution38", 
      "attr": {
        "kernel": "(3, 3)", 
        "num_filter": "64", 
        "pad": "(1, 1)", 
        "stride": "(1, 1)"
      }, 
      "inputs": [[355, 0, 0], [356, 0, 0], [357, 0, 0]]
    }, 
    {
      "op": "null", 
      "name": "batchnorm38_gamma", 
      "inputs": []
    }, 
    {
      "op": "null", 
      "name": "batchnorm38_beta", 
      "inputs": []
    }, 
    {
      "op": "null", 
      "name": "batchnorm38_moving_mean", 
      "inputs": []
    }, 
    {
      "op": "null", 
      "name": "batchnorm38_moving_var", 
      "inputs": []
    }, 
    {
      "op": "BatchNorm", 
      "name": "batchnorm38", 
      "inputs": [[358, 0, 0], [359, 0, 0], [360, 0, 0], [361, 0, 1], [362, 0, 1]]
    }, 
    {
      "op": "Activation", 
      "name": "activation38", 
      "attr": {"act_type": "relu"}, 
      "inputs": [[363, 0, 0]]
    }, 
    {
      "op": "Concat", 
      "name": "concat4", 
      "attr": {"num_args": "3"}, 
      "inputs": [[319, 0, 0], [337, 0, 0], [364, 0, 0]]
    }, 
    {
      "op": "null", 
      "name": "convolution39_weight", 
      "attr": {
        "kernel": "(1, 1)", 
        "num_filter": "320", 
        "pad": "(0, 0)", 
        "stride": "(1, 1)"
      }, 
      "inputs": []
    }, 
    {
      "op": "null", 
      "name": "convolution39_bias", 
      "attr": {
        "kernel": "(1, 1)", 
        "num_filter": "320", 
        "pad": "(0, 0)", 
        "stride": "(1, 1)"
      }, 
      "inputs": []
    }, 
    {
      "op": "Convolution", 
      "name": "convolution39", 
      "attr": {
        "kernel": "(1, 1)", 
        "num_filter": "320", 
        "pad": "(0, 0)", 
        "stride": "(1, 1)"
      }, 
      "inputs": [[365, 0, 0], [366, 0, 0], [367, 0, 0]]
    }, 
    {
      "op": "null", 
      "name": "batchnorm39_gamma", 
      "inputs": []
    }, 
    {
      "op": "null", 
      "name": "batchnorm39_beta", 
      "inputs": []
    }, 
    {
      "op": "null", 
      "name": "batchnorm39_moving_mean", 
      "inputs": []
    }, 
    {
      "op": "null", 
      "name": "batchnorm39_moving_var", 
      "inputs": []
    }, 
    {
      "op": "BatchNorm", 
      "name": "batchnorm39", 
      "inputs": [[368, 0, 0], [369, 0, 0], [370, 0, 0], [371, 0, 1], [372, 0, 1]]
    }, 
    {
      "op": "_mul_scalar", 
      "name": "_mulscalar3", 
      "attr": {"scalar": "0.17"}, 
      "inputs": [[373, 0, 0]]
    }, 
    {
      "op": "elemwise_add", 
      "name": "_plus3", 
      "inputs": [[310, 0, 0], [374, 0, 0]]
    }, 
    {
      "op": "Activation", 
      "name": "activation39", 
      "attr": {"act_type": "relu"}, 
      "inputs": [[375, 0, 0]]
    }, 
    {
      "op": "null", 
      "name": "convolution40_weight", 
      "attr": {
        "kernel": "(1, 1)", 
        "num_filter": "32", 
        "pad": "(0, 0)", 
        "stride": "(1, 1)"
      }, 
      "inputs": []
    }, 
    {
      "op": "null", 
      "name": "convolution40_bias", 
      "attr": {
        "kernel": "(1, 1)", 
        "num_filter": "32", 
        "pad": "(0, 0)", 
        "stride": "(1, 1)"
      }, 
      "inputs": []
    }, 
    {
      "op": "Convolution", 
      "name": "convolution40", 
      "attr": {
        "kernel": "(1, 1)", 
        "num_filter": "32", 
        "pad": "(0, 0)", 
        "stride": "(1, 1)"
      }, 
      "inputs": [[376, 0, 0], [377, 0, 0], [378, 0, 0]]
    }, 
    {
      "op": "null", 
      "name": "batchnorm40_gamma", 
      "inputs": []
    }, 
    {
      "op": "null", 
      "name": "batchnorm40_beta", 
      "inputs": []
    }, 
    {
      "op": "null", 
      "name": "batchnorm40_moving_mean", 
      "inputs": []
    }, 
    {
      "op": "null", 
      "name": "batchnorm40_moving_var", 
      "inputs": []
    }, 
    {
      "op": "BatchNorm", 
      "name": "batchnorm40", 
      "inputs": [[379, 0, 0], [380, 0, 0], [381, 0, 0], [382, 0, 1], [383, 0, 1]]
    }, 
    {
      "op": "Activation", 
      "name": "activation40", 
      "attr": {"act_type": "relu"}, 
      "inputs": [[384, 0, 0]]
    }, 
    {
      "op": "null", 
      "name": "convolution41_weight", 
      "attr": {
        "kernel": "(1, 1)", 
        "num_filter": "32", 
        "pad": "(0, 0)", 
        "stride": "(1, 1)"
      }, 
      "inputs": []
    }, 
    {
      "op": "null", 
      "name": "convolution41_bias", 
      "attr": {
        "kernel": "(1, 1)", 
        "num_filter": "32", 
        "pad": "(0, 0)", 
        "stride": "(1, 1)"
      }, 
      "inputs": []
    }, 
    {
      "op": "Convolution", 
      "name": "convolution41", 
      "attr": {
        "kernel": "(1, 1)", 
        "num_filter": "32", 
        "pad": "(0, 0)", 
        "stride": "(1, 1)"
      }, 
      "inputs": [[376, 0, 0], [386, 0, 0], [387, 0, 0]]
    }, 
    {
      "op": "null", 
      "name": "batchnorm41_gamma", 
      "inputs": []
    }, 
    {
      "op": "null", 
      "name": "batchnorm41_beta", 
      "inputs": []
    }, 
    {
      "op": "null", 
      "name": "batchnorm41_moving_mean", 
      "inputs": []
    }, 
    {
      "op": "null", 
      "name": "batchnorm41_moving_var", 
      "inputs": []
    }, 
    {
      "op": "BatchNorm", 
      "name": "batchnorm41", 
      "inputs": [[388, 0, 0], [389, 0, 0], [390, 0, 0], [391, 0, 1], [392, 0, 1]]
    }, 
    {
      "op": "Activation", 
      "name": "activation41", 
      "attr": {"act_type": "relu"}, 
      "inputs": [[393, 0, 0]]
    }, 
    {
      "op": "null", 
      "name": "convolution42_weight", 
      "attr": {
        "kernel": "(3, 3)", 
        "num_filter": "32", 
        "pad": "(1, 1)", 
        "stride": "(1, 1)"
      }, 
      "inputs": []
    }, 
    {
      "op": "null", 
      "name": "convolution42_bias", 
      "attr": {
        "kernel": "(3, 3)", 
        "num_filter": "32", 
        "pad": "(1, 1)", 
        "stride": "(1, 1)"
      }, 
      "inputs": []
    }, 
    {
      "op": "Convolution", 
      "name": "convolution42", 
      "attr": {
        "kernel": "(3, 3)", 
        "num_filter": "32", 
        "pad": "(1, 1)", 
        "stride": "(1, 1)"
      }, 
      "inputs": [[394, 0, 0], [395, 0, 0], [396, 0, 0]]
    }, 
    {
      "op": "null", 
      "name": "batchnorm42_gamma", 
      "inputs": []
    }, 
    {
      "op": "null", 
      "name": "batchnorm42_beta", 
      "inputs": []
    }, 
    {
      "op": "null", 
      "name": "batchnorm42_moving_mean", 
      "inputs": []
    }, 
    {
      "op": "null", 
      "name": "batchnorm42_moving_var", 
      "inputs": []
    }, 
    {
      "op": "BatchNorm", 
      "name": "batchnorm42", 
      "inputs": [[397, 0, 0], [398, 0, 0], [399, 0, 0], [400, 0, 1], [401, 0, 1]]
    }, 
    {
      "op": "Activation", 
      "name": "activation42", 
      "attr": {"act_type": "relu"}, 
      "inputs": [[402, 0, 0]]
    }, 
    {
      "op": "null", 
      "name": "convolution43_weight", 
      "attr": {
        "kernel": "(1, 1)", 
        "num_filter": "32", 
        "pad": "(0, 0)", 
        "stride": "(1, 1)"
      }, 
      "inputs": []
    }, 
    {
      "op": "null", 
      "name": "convolution43_bias", 
      "attr": {
        "kernel": "(1, 1)", 
        "num_filter": "32", 
        "pad": "(0, 0)", 
        "stride": "(1, 1)"
      }, 
      "inputs": []
    }, 
    {
      "op": "Convolution", 
      "name": "convolution43", 
      "attr": {
        "kernel": "(1, 1)", 
        "num_filter": "32", 
        "pad": "(0, 0)", 
        "stride": "(1, 1)"
      }, 
      "inputs": [[376, 0, 0], [404, 0, 0], [405, 0, 0]]
    }, 
    {
      "op": "null", 
      "name": "batchnorm43_gamma", 
      "inputs": []
    }, 
    {
      "op": "null", 
      "name": "batchnorm43_beta", 
      "inputs": []
    }, 
    {
      "op": "null", 
      "name": "batchnorm43_moving_mean", 
      "inputs": []
    }, 
    {
      "op": "null", 
      "name": "batchnorm43_moving_var", 
      "inputs": []
    }, 
    {
      "op": "BatchNorm", 
      "name": "batchnorm43", 
      "inputs": [[406, 0, 0], [407, 0, 0], [408, 0, 0], [409, 0, 1], [410, 0, 1]]
    }, 
    {
      "op": "Activation", 
      "name": "activation43", 
      "attr": {"act_type": "relu"}, 
      "inputs": [[411, 0, 0]]
    }, 
    {
      "op": "null", 
      "name": "convolution44_weight", 
      "attr": {
        "kernel": "(3, 3)", 
        "num_filter": "48", 
        "pad": "(1, 1)", 
        "stride": "(1, 1)"
      }, 
      "inputs": []
    }, 
    {
      "op": "null", 
      "name": "convolution44_bias", 
      "attr": {
        "kernel": "(3, 3)", 
        "num_filter": "48", 
        "pad": "(1, 1)", 
        "stride": "(1, 1)"
      }, 
      "inputs": []
    }, 
    {
      "op": "Convolution", 
      "name": "convolution44", 
      "attr": {
        "kernel": "(3, 3)", 
        "num_filter": "48", 
        "pad": "(1, 1)", 
        "stride": "(1, 1)"
      }, 
      "inputs": [[412, 0, 0], [413, 0, 0], [414, 0, 0]]
    }, 
    {
      "op": "null", 
      "name": "batchnorm44_gamma", 
      "inputs": []
    }, 
    {
      "op": "null", 
      "name": "batchnorm44_beta", 
      "inputs": []
    }, 
    {
      "op": "null", 
      "name": "batchnorm44_moving_mean", 
      "inputs": []
    }, 
    {
      "op": "null", 
      "name": "batchnorm44_moving_var", 
      "inputs": []
    }, 
    {
      "op": "BatchNorm", 
      "name": "batchnorm44", 
      "inputs": [[415, 0, 0], [416, 0, 0], [417, 0, 0], [418, 0, 1], [419, 0, 1]]
    }, 
    {
      "op": "Activation", 
      "name": "activation44", 
      "attr": {"act_type": "relu"}, 
      "inputs": [[420, 0, 0]]
    }, 
    {
      "op": "null", 
      "name": "convolution45_weight", 
      "attr": {
        "kernel": "(3, 3)", 
        "num_filter": "64", 
        "pad": "(1, 1)", 
        "stride": "(1, 1)"
      }, 
      "inputs": []
    }, 
    {
      "op": "null", 
      "name": "convolution45_bias", 
      "attr": {
        "kernel": "(3, 3)", 
        "num_filter": "64", 
        "pad": "(1, 1)", 
        "stride": "(1, 1)"
      }, 
      "inputs": []
    }, 
    {
      "op": "Convolution", 
      "name": "convolution45", 
      "attr": {
        "kernel": "(3, 3)", 
        "num_filter": "64", 
        "pad": "(1, 1)", 
        "stride": "(1, 1)"
      }, 
      "inputs": [[421, 0, 0], [422, 0, 0], [423, 0, 0]]
    }, 
    {
      "op": "null", 
      "name": "batchnorm45_gamma", 
      "inputs": []
    }, 
    {
      "op": "null", 
      "name": "batchnorm45_beta", 
      "inputs": []
    }, 
    {
      "op": "null", 
      "name": "batchnorm45_moving_mean", 
      "inputs": []
    }, 
    {
      "op": "null", 
      "name": "batchnorm45_moving_var", 
      "inputs": []
    }, 
    {
      "op": "BatchNorm", 
      "name": "batchnorm45", 
      "inputs": [[424, 0, 0], [425, 0, 0], [426, 0, 0], [427, 0, 1], [428, 0, 1]]
    }, 
    {
      "op": "Activation", 
      "name": "activation45", 
      "attr": {"act_type": "relu"}, 
      "inputs": [[429, 0, 0]]
    }, 
    {
      "op": "Concat", 
      "name": "concat5", 
      "attr": {"num_args": "3"}, 
      "inputs": [[385, 0, 0], [403, 0, 0], [430, 0, 0]]
    }, 
    {
      "op": "null", 
      "name": "convolution46_weight", 
      "attr": {
        "kernel": "(1, 1)", 
        "num_filter": "320", 
        "pad": "(0, 0)", 
        "stride": "(1, 1)"
      }, 
      "inputs": []
    }, 
    {
      "op": "null", 
      "name": "convolution46_bias", 
      "attr": {
        "kernel": "(1, 1)", 
        "num_filter": "320", 
        "pad": "(0, 0)", 
        "stride": "(1, 1)"
      }, 
      "inputs": []
    }, 
    {
      "op": "Convolution", 
      "name": "convolution46", 
      "attr": {
        "kernel": "(1, 1)", 
        "num_filter": "320", 
        "pad": "(0, 0)", 
        "stride": "(1, 1)"
      }, 
      "inputs": [[431, 0, 0], [432, 0, 0], [433, 0, 0]]
    }, 
    {
      "op": "null", 
      "name": "batchnorm46_gamma", 
      "inputs": []
    }, 
    {
      "op": "null", 
      "name": "batchnorm46_beta", 
      "inputs": []
    }, 
    {
      "op": "null", 
      "name": "batchnorm46_moving_mean", 
      "inputs": []
    }, 
    {
      "op": "null", 
      "name": "batchnorm46_moving_var", 
      "inputs": []
    }, 
    {
      "op": "BatchNorm", 
      "name": "batchnorm46", 
      "inputs": [[434, 0, 0], [435, 0, 0], [436, 0, 0], [437, 0, 1], [438, 0, 1]]
    }, 
    {
      "op": "_mul_scalar", 
      "name": "_mulscalar4", 
      "attr": {"scalar": "0.17"}, 
      "inputs": [[439, 0, 0]]
    }, 
    {
      "op": "elemwise_add", 
      "name": "_plus4", 
      "inputs": [[376, 0, 0], [440, 0, 0]]
    }, 
    {
      "op": "Activation", 
      "name": "activation46", 
      "attr": {"act_type": "relu"}, 
      "inputs": [[441, 0, 0]]
    }, 
    {
      "op": "null", 
      "name": "convolution47_weight", 
      "attr": {
        "kernel": "(1, 1)", 
        "num_filter": "32", 
        "pad": "(0, 0)", 
        "stride": "(1, 1)"
      }, 
      "inputs": []
    }, 
    {
      "op": "null", 
      "name": "convolution47_bias", 
      "attr": {
        "kernel": "(1, 1)", 
        "num_filter": "32", 
        "pad": "(0, 0)", 
        "stride": "(1, 1)"
      }, 
      "inputs": []
    }, 
    {
      "op": "Convolution", 
      "name": "convolution47", 
      "attr": {
        "kernel": "(1, 1)", 
        "num_filter": "32", 
        "pad": "(0, 0)", 
        "stride": "(1, 1)"
      }, 
      "inputs": [[442, 0, 0], [443, 0, 0], [444, 0, 0]]
    }, 
    {
      "op": "null", 
      "name": "batchnorm47_gamma", 
      "inputs": []
    }, 
    {
      "op": "null", 
      "name": "batchnorm47_beta", 
      "inputs": []
    }, 
    {
      "op": "null", 
      "name": "batchnorm47_moving_mean", 
      "inputs": []
    }, 
    {
      "op": "null", 
      "name": "batchnorm47_moving_var", 
      "inputs": []
    }, 
    {
      "op": "BatchNorm", 
      "name": "batchnorm47", 
      "inputs": [[445, 0, 0], [446, 0, 0], [447, 0, 0], [448, 0, 1], [449, 0, 1]]
    }, 
    {
      "op": "Activation", 
      "name": "activation47", 
      "attr": {"act_type": "relu"}, 
      "inputs": [[450, 0, 0]]
    }, 
    {
      "op": "null", 
      "name": "convolution48_weight", 
      "attr": {
        "kernel": "(1, 1)", 
        "num_filter": "32", 
        "pad": "(0, 0)", 
        "stride": "(1, 1)"
      }, 
      "inputs": []
    }, 
    {
      "op": "null", 
      "name": "convolution48_bias", 
      "attr": {
        "kernel": "(1, 1)", 
        "num_filter": "32", 
        "pad": "(0, 0)", 
        "stride": "(1, 1)"
      }, 
      "inputs": []
    }, 
    {
      "op": "Convolution", 
      "name": "convolution48", 
      "attr": {
        "kernel": "(1, 1)", 
        "num_filter": "32", 
        "pad": "(0, 0)", 
        "stride": "(1, 1)"
      }, 
      "inputs": [[442, 0, 0], [452, 0, 0], [453, 0, 0]]
    }, 
    {
      "op": "null", 
      "name": "batchnorm48_gamma", 
      "inputs": []
    }, 
    {
      "op": "null", 
      "name": "batchnorm48_beta", 
      "inputs": []
    }, 
    {
      "op": "null", 
      "name": "batchnorm48_moving_mean", 
      "inputs": []
    }, 
    {
      "op": "null", 
      "name": "batchnorm48_moving_var", 
      "inputs": []
    }, 
    {
      "op": "BatchNorm", 
      "name": "batchnorm48", 
      "inputs": [[454, 0, 0], [455, 0, 0], [456, 0, 0], [457, 0, 1], [458, 0, 1]]
    }, 
    {
      "op": "Activation", 
      "name": "activation48", 
      "attr": {"act_type": "relu"}, 
      "inputs": [[459, 0, 0]]
    }, 
    {
      "op": "null", 
      "name": "convolution49_weight", 
      "attr": {
        "kernel": "(3, 3)", 
        "num_filter": "32", 
        "pad": "(1, 1)", 
        "stride": "(1, 1)"
      }, 
      "inputs": []
    }, 
    {
      "op": "null", 
      "name": "convolution49_bias", 
      "attr": {
        "kernel": "(3, 3)", 
        "num_filter": "32", 
        "pad": "(1, 1)", 
        "stride": "(1, 1)"
      }, 
      "inputs": []
    }, 
    {
      "op": "Convolution", 
      "name": "convolution49", 
      "attr": {
        "kernel": "(3, 3)", 
        "num_filter": "32", 
        "pad": "(1, 1)", 
        "stride": "(1, 1)"
      }, 
      "inputs": [[460, 0, 0], [461, 0, 0], [462, 0, 0]]
    }, 
    {
      "op": "null", 
      "name": "batchnorm49_gamma", 
      "inputs": []
    }, 
    {
      "op": "null", 
      "name": "batchnorm49_beta", 
      "inputs": []
    }, 
    {
      "op": "null", 
      "name": "batchnorm49_moving_mean", 
      "inputs": []
    }, 
    {
      "op": "null", 
      "name": "batchnorm49_moving_var", 
      "inputs": []
    }, 
    {
      "op": "BatchNorm", 
      "name": "batchnorm49", 
      "inputs": [[463, 0, 0], [464, 0, 0], [465, 0, 0], [466, 0, 1], [467, 0, 1]]
    }, 
    {
      "op": "Activation", 
      "name": "activation49", 
      "attr": {"act_type": "relu"}, 
      "inputs": [[468, 0, 0]]
    }, 
    {
      "op": "null", 
      "name": "convolution50_weight", 
      "attr": {
        "kernel": "(1, 1)", 
        "num_filter": "32", 
        "pad": "(0, 0)", 
        "stride": "(1, 1)"
      }, 
      "inputs": []
    }, 
    {
      "op": "null", 
      "name": "convolution50_bias", 
      "attr": {
        "kernel": "(1, 1)", 
        "num_filter": "32", 
        "pad": "(0, 0)", 
        "stride": "(1, 1)"
      }, 
      "inputs": []
    }, 
    {
      "op": "Convolution", 
      "name": "convolution50", 
      "attr": {
        "kernel": "(1, 1)", 
        "num_filter": "32", 
        "pad": "(0, 0)", 
        "stride": "(1, 1)"
      }, 
      "inputs": [[442, 0, 0], [470, 0, 0], [471, 0, 0]]
    }, 
    {
      "op": "null", 
      "name": "batchnorm50_gamma", 
      "inputs": []
    }, 
    {
      "op": "null", 
      "name": "batchnorm50_beta", 
      "inputs": []
    }, 
    {
      "op": "null", 
      "name": "batchnorm50_moving_mean", 
      "inputs": []
    }, 
    {
      "op": "null", 
      "name": "batchnorm50_moving_var", 
      "inputs": []
    }, 
    {
      "op": "BatchNorm", 
      "name": "batchnorm50", 
      "inputs": [[472, 0, 0], [473, 0, 0], [474, 0, 0], [475, 0, 1], [476, 0, 1]]
    }, 
    {
      "op": "Activation", 
      "name": "activation50", 
      "attr": {"act_type": "relu"}, 
      "inputs": [[477, 0, 0]]
    }, 
    {
      "op": "null", 
      "name": "convolution51_weight", 
      "attr": {
        "kernel": "(3, 3)", 
        "num_filter": "48", 
        "pad": "(1, 1)", 
        "stride": "(1, 1)"
      }, 
      "inputs": []
    }, 
    {
      "op": "null", 
      "name": "convolution51_bias", 
      "attr": {
        "kernel": "(3, 3)", 
        "num_filter": "48", 
        "pad": "(1, 1)", 
        "stride": "(1, 1)"
      }, 
      "inputs": []
    }, 
    {
      "op": "Convolution", 
      "name": "convolution51", 
      "attr": {
        "kernel": "(3, 3)", 
        "num_filter": "48", 
        "pad": "(1, 1)", 
        "stride": "(1, 1)"
      }, 
      "inputs": [[478, 0, 0], [479, 0, 0], [480, 0, 0]]
    }, 
    {
      "op": "null", 
      "name": "batchnorm51_gamma", 
      "inputs": []
    }, 
    {
      "op": "null", 
      "name": "batchnorm51_beta", 
      "inputs": []
    }, 
    {
      "op": "null", 
      "name": "batchnorm51_moving_mean", 
      "inputs": []
    }, 
    {
      "op": "null", 
      "name": "batchnorm51_moving_var", 
      "inputs": []
    }, 
    {
      "op": "BatchNorm", 
      "name": "batchnorm51", 
      "inputs": [[481, 0, 0], [482, 0, 0], [483, 0, 0], [484, 0, 1], [485, 0, 1]]
    }, 
    {
      "op": "Activation", 
      "name": "activation51", 
      "attr": {"act_type": "relu"}, 
      "inputs": [[486, 0, 0]]
    }, 
    {
      "op": "null", 
      "name": "convolution52_weight", 
      "attr": {
        "kernel": "(3, 3)", 
        "num_filter": "64", 
        "pad": "(1, 1)", 
        "stride": "(1, 1)"
      }, 
      "inputs": []
    }, 
    {
      "op": "null", 
      "name": "convolution52_bias", 
      "attr": {
        "kernel": "(3, 3)", 
        "num_filter": "64", 
        "pad": "(1, 1)", 
        "stride": "(1, 1)"
      }, 
      "inputs": []
    }, 
    {
      "op": "Convolution", 
      "name": "convolution52", 
      "attr": {
        "kernel": "(3, 3)", 
        "num_filter": "64", 
        "pad": "(1, 1)", 
        "stride": "(1, 1)"
      }, 
      "inputs": [[487, 0, 0], [488, 0, 0], [489, 0, 0]]
    }, 
    {
      "op": "null", 
      "name": "batchnorm52_gamma", 
      "inputs": []
    }, 
    {
      "op": "null", 
      "name": "batchnorm52_beta", 
      "inputs": []
    }, 
    {
      "op": "null", 
      "name": "batchnorm52_moving_mean", 
      "inputs": []
    }, 
    {
      "op": "null", 
      "name": "batchnorm52_moving_var", 
      "inputs": []
    }, 
    {
      "op": "BatchNorm", 
      "name": "batchnorm52", 
      "inputs": [[490, 0, 0], [491, 0, 0], [492, 0, 0], [493, 0, 1], [494, 0, 1]]
    }, 
    {
      "op": "Activation", 
      "name": "activation52", 
      "attr": {"act_type": "relu"}, 
      "inputs": [[495, 0, 0]]
    }, 
    {
      "op": "Concat", 
      "name": "concat6", 
      "attr": {"num_args": "3"}, 
      "inputs": [[451, 0, 0], [469, 0, 0], [496, 0, 0]]
    }, 
    {
      "op": "null", 
      "name": "convolution53_weight", 
      "attr": {
        "kernel": "(1, 1)", 
        "num_filter": "320", 
        "pad": "(0, 0)", 
        "stride": "(1, 1)"
      }, 
      "inputs": []
    }, 
    {
      "op": "null", 
      "name": "convolution53_bias", 
      "attr": {
        "kernel": "(1, 1)", 
        "num_filter": "320", 
        "pad": "(0, 0)", 
        "stride": "(1, 1)"
      }, 
      "inputs": []
    }, 
    {
      "op": "Convolution", 
      "name": "convolution53", 
      "attr": {
        "kernel": "(1, 1)", 
        "num_filter": "320", 
        "pad": "(0, 0)", 
        "stride": "(1, 1)"
      }, 
      "inputs": [[497, 0, 0], [498, 0, 0], [499, 0, 0]]
    }, 
    {
      "op": "null", 
      "name": "batchnorm53_gamma", 
      "inputs": []
    }, 
    {
      "op": "null", 
      "name": "batchnorm53_beta", 
      "inputs": []
    }, 
    {
      "op": "null", 
      "name": "batchnorm53_moving_mean", 
      "inputs": []
    }, 
    {
      "op": "null", 
      "name": "batchnorm53_moving_var", 
      "inputs": []
    }, 
    {
      "op": "BatchNorm", 
      "name": "batchnorm53", 
      "inputs": [[500, 0, 0], [501, 0, 0], [502, 0, 0], [503, 0, 1], [504, 0, 1]]
    }, 
    {
      "op": "_mul_scalar", 
      "name": "_mulscalar5", 
      "attr": {"scalar": "0.17"}, 
      "inputs": [[505, 0, 0]]
    }, 
    {
      "op": "elemwise_add", 
      "name": "_plus5", 
      "inputs": [[442, 0, 0], [506, 0, 0]]
    }, 
    {
      "op": "Activation", 
      "name": "activation53", 
      "attr": {"act_type": "relu"}, 
      "inputs": [[507, 0, 0]]
    }, 
    {
      "op": "null", 
      "name": "convolution54_weight", 
      "attr": {
        "kernel": "(1, 1)", 
        "num_filter": "32", 
        "pad": "(0, 0)", 
        "stride": "(1, 1)"
      }, 
      "inputs": []
    }, 
    {
      "op": "null", 
      "name": "convolution54_bias", 
      "attr": {
        "kernel": "(1, 1)", 
        "num_filter": "32", 
        "pad": "(0, 0)", 
        "stride": "(1, 1)"
      }, 
      "inputs": []
    }, 
    {
      "op": "Convolution", 
      "name": "convolution54", 
      "attr": {
        "kernel": "(1, 1)", 
        "num_filter": "32", 
        "pad": "(0, 0)", 
        "stride": "(1, 1)"
      }, 
      "inputs": [[508, 0, 0], [509, 0, 0], [510, 0, 0]]
    }, 
    {
      "op": "null", 
      "name": "batchnorm54_gamma", 
      "inputs": []
    }, 
    {
      "op": "null", 
      "name": "batchnorm54_beta", 
      "inputs": []
    }, 
    {
      "op": "null", 
      "name": "batchnorm54_moving_mean", 
      "inputs": []
    }, 
    {
      "op": "null", 
      "name": "batchnorm54_moving_var", 
      "inputs": []
    }, 
    {
      "op": "BatchNorm", 
      "name": "batchnorm54", 
      "inputs": [[511, 0, 0], [512, 0, 0], [513, 0, 0], [514, 0, 1], [515, 0, 1]]
    }, 
    {
      "op": "Activation", 
      "name": "activation54", 
      "attr": {"act_type": "relu"}, 
      "inputs": [[516, 0, 0]]
    }, 
    {
      "op": "null", 
      "name": "convolution55_weight", 
      "attr": {
        "kernel": "(1, 1)", 
        "num_filter": "32", 
        "pad": "(0, 0)", 
        "stride": "(1, 1)"
      }, 
      "inputs": []
    }, 
    {
      "op": "null", 
      "name": "convolution55_bias", 
      "attr": {
        "kernel": "(1, 1)", 
        "num_filter": "32", 
        "pad": "(0, 0)", 
        "stride": "(1, 1)"
      }, 
      "inputs": []
    }, 
    {
      "op": "Convolution", 
      "name": "convolution55", 
      "attr": {
        "kernel": "(1, 1)", 
        "num_filter": "32", 
        "pad": "(0, 0)", 
        "stride": "(1, 1)"
      }, 
      "inputs": [[508, 0, 0], [518, 0, 0], [519, 0, 0]]
    }, 
    {
      "op": "null", 
      "name": "batchnorm55_gamma", 
      "inputs": []
    }, 
    {
      "op": "null", 
      "name": "batchnorm55_beta", 
      "inputs": []
    }, 
    {
      "op": "null", 
      "name": "batchnorm55_moving_mean", 
      "inputs": []
    }, 
    {
      "op": "null", 
      "name": "batchnorm55_moving_var", 
      "inputs": []
    }, 
    {
      "op": "BatchNorm", 
      "name": "batchnorm55", 
      "inputs": [[520, 0, 0], [521, 0, 0], [522, 0, 0], [523, 0, 1], [524, 0, 1]]
    }, 
    {
      "op": "Activation", 
      "name": "activation55", 
      "attr": {"act_type": "relu"}, 
      "inputs": [[525, 0, 0]]
    }, 
    {
      "op": "null", 
      "name": "convolution56_weight", 
      "attr": {
        "kernel": "(3, 3)", 
        "num_filter": "32", 
        "pad": "(1, 1)", 
        "stride": "(1, 1)"
      }, 
      "inputs": []
    }, 
    {
      "op": "null", 
      "name": "convolution56_bias", 
      "attr": {
        "kernel": "(3, 3)", 
        "num_filter": "32", 
        "pad": "(1, 1)", 
        "stride": "(1, 1)"
      }, 
      "inputs": []
    }, 
    {
      "op": "Convolution", 
      "name": "convolution56", 
      "attr": {
        "kernel": "(3, 3)", 
        "num_filter": "32", 
        "pad": "(1, 1)", 
        "stride": "(1, 1)"
      }, 
      "inputs": [[526, 0, 0], [527, 0, 0], [528, 0, 0]]
    }, 
    {
      "op": "null", 
      "name": "batchnorm56_gamma", 
      "inputs": []
    }, 
    {
      "op": "null", 
      "name": "batchnorm56_beta", 
      "inputs": []
    }, 
    {
      "op": "null", 
      "name": "batchnorm56_moving_mean", 
      "inputs": []
    }, 
    {
      "op": "null", 
      "name": "batchnorm56_moving_var", 
      "inputs": []
    }, 
    {
      "op": "BatchNorm", 
      "name": "batchnorm56", 
      "inputs": [[529, 0, 0], [530, 0, 0], [531, 0, 0], [532, 0, 1], [533, 0, 1]]
    }, 
    {
      "op": "Activation", 
      "name": "activation56", 
      "attr": {"act_type": "relu"}, 
      "inputs": [[534, 0, 0]]
    }, 
    {
      "op": "null", 
      "name": "convolution57_weight", 
      "attr": {
        "kernel": "(1, 1)", 
        "num_filter": "32", 
        "pad": "(0, 0)", 
        "stride": "(1, 1)"
      }, 
      "inputs": []
    }, 
    {
      "op": "null", 
      "name": "convolution57_bias", 
      "attr": {
        "kernel": "(1, 1)", 
        "num_filter": "32", 
        "pad": "(0, 0)", 
        "stride": "(1, 1)"
      }, 
      "inputs": []
    }, 
    {
      "op": "Convolution", 
      "name": "convolution57", 
      "attr": {
        "kernel": "(1, 1)", 
        "num_filter": "32", 
        "pad": "(0, 0)", 
        "stride": "(1, 1)"
      }, 
      "inputs": [[508, 0, 0], [536, 0, 0], [537, 0, 0]]
    }, 
    {
      "op": "null", 
      "name": "batchnorm57_gamma", 
      "inputs": []
    }, 
    {
      "op": "null", 
      "name": "batchnorm57_beta", 
      "inputs": []
    }, 
    {
      "op": "null", 
      "name": "batchnorm57_moving_mean", 
      "inputs": []
    }, 
    {
      "op": "null", 
      "name": "batchnorm57_moving_var", 
      "inputs": []
    }, 
    {
      "op": "BatchNorm", 
      "name": "batchnorm57", 
      "inputs": [[538, 0, 0], [539, 0, 0], [540, 0, 0], [541, 0, 1], [542, 0, 1]]
    }, 
    {
      "op": "Activation", 
      "name": "activation57", 
      "attr": {"act_type": "relu"}, 
      "inputs": [[543, 0, 0]]
    }, 
    {
      "op": "null", 
      "name": "convolution58_weight", 
      "attr": {
        "kernel": "(3, 3)", 
        "num_filter": "48", 
        "pad": "(1, 1)", 
        "stride": "(1, 1)"
      }, 
      "inputs": []
    }, 
    {
      "op": "null", 
      "name": "convolution58_bias", 
      "attr": {
        "kernel": "(3, 3)", 
        "num_filter": "48", 
        "pad": "(1, 1)", 
        "stride": "(1, 1)"
      }, 
      "inputs": []
    }, 
    {
      "op": "Convolution", 
      "name": "convolution58", 
      "attr": {
        "kernel": "(3, 3)", 
        "num_filter": "48", 
        "pad": "(1, 1)", 
        "stride": "(1, 1)"
      }, 
      "inputs": [[544, 0, 0], [545, 0, 0], [546, 0, 0]]
    }, 
    {
      "op": "null", 
      "name": "batchnorm58_gamma", 
      "inputs": []
    }, 
    {
      "op": "null", 
      "name": "batchnorm58_beta", 
      "inputs": []
    }, 
    {
      "op": "null", 
      "name": "batchnorm58_moving_mean", 
      "inputs": []
    }, 
    {
      "op": "null", 
      "name": "batchnorm58_moving_var", 
      "inputs": []
    }, 
    {
      "op": "BatchNorm", 
      "name": "batchnorm58", 
      "inputs": [[547, 0, 0], [548, 0, 0], [549, 0, 0], [550, 0, 1], [551, 0, 1]]
    }, 
    {
      "op": "Activation", 
      "name": "activation58", 
      "attr": {"act_type": "relu"}, 
      "inputs": [[552, 0, 0]]
    }, 
    {
      "op": "null", 
      "name": "convolution59_weight", 
      "attr": {
        "kernel": "(3, 3)", 
        "num_filter": "64", 
        "pad": "(1, 1)", 
        "stride": "(1, 1)"
      }, 
      "inputs": []
    }, 
    {
      "op": "null", 
      "name": "convolution59_bias", 
      "attr": {
        "kernel": "(3, 3)", 
        "num_filter": "64", 
        "pad": "(1, 1)", 
        "stride": "(1, 1)"
      }, 
      "inputs": []
    }, 
    {
      "op": "Convolution", 
      "name": "convolution59", 
      "attr": {
        "kernel": "(3, 3)", 
        "num_filter": "64", 
        "pad": "(1, 1)", 
        "stride": "(1, 1)"
      }, 
      "inputs": [[553, 0, 0], [554, 0, 0], [555, 0, 0]]
    }, 
    {
      "op": "null", 
      "name": "batchnorm59_gamma", 
      "inputs": []
    }, 
    {
      "op": "null", 
      "name": "batchnorm59_beta", 
      "inputs": []
    }, 
    {
      "op": "null", 
      "name": "batchnorm59_moving_mean", 
      "inputs": []
    }, 
    {
      "op": "null", 
      "name": "batchnorm59_moving_var", 
      "inputs": []
    }, 
    {
      "op": "BatchNorm", 
      "name": "batchnorm59", 
      "inputs": [[556, 0, 0], [557, 0, 0], [558, 0, 0], [559, 0, 1], [560, 0, 1]]
    }, 
    {
      "op": "Activation", 
      "name": "activation59", 
      "attr": {"act_type": "relu"}, 
      "inputs": [[561, 0, 0]]
    }, 
    {
      "op": "Concat", 
      "name": "concat7", 
      "attr": {"num_args": "3"}, 
      "inputs": [[517, 0, 0], [535, 0, 0], [562, 0, 0]]
    }, 
    {
      "op": "null", 
      "name": "convolution60_weight", 
      "attr": {
        "kernel": "(1, 1)", 
        "num_filter": "320", 
        "pad": "(0, 0)", 
        "stride": "(1, 1)"
      }, 
      "inputs": []
    }, 
    {
      "op": "null", 
      "name": "convolution60_bias", 
      "attr": {
        "kernel": "(1, 1)", 
        "num_filter": "320", 
        "pad": "(0, 0)", 
        "stride": "(1, 1)"
      }, 
      "inputs": []
    }, 
    {
      "op": "Convolution", 
      "name": "convolution60", 
      "attr": {
        "kernel": "(1, 1)", 
        "num_filter": "320", 
        "pad": "(0, 0)", 
        "stride": "(1, 1)"
      }, 
      "inputs": [[563, 0, 0], [564, 0, 0], [565, 0, 0]]
    }, 
    {
      "op": "null", 
      "name": "batchnorm60_gamma", 
      "inputs": []
    }, 
    {
      "op": "null", 
      "name": "batchnorm60_beta", 
      "inputs": []
    }, 
    {
      "op": "null", 
      "name": "batchnorm60_moving_mean", 
      "inputs": []
    }, 
    {
      "op": "null", 
      "name": "batchnorm60_moving_var", 
      "inputs": []
    }, 
    {
      "op": "BatchNorm", 
      "name": "batchnorm60", 
      "inputs": [[566, 0, 0], [567, 0, 0], [568, 0, 0], [569, 0, 1], [570, 0, 1]]
    }, 
    {
      "op": "_mul_scalar", 
      "name": "_mulscalar6", 
      "attr": {"scalar": "0.17"}, 
      "inputs": [[571, 0, 0]]
    }, 
    {
      "op": "elemwise_add", 
      "name": "_plus6", 
      "inputs": [[508, 0, 0], [572, 0, 0]]
    }, 
    {
      "op": "Activation", 
      "name": "activation60", 
      "attr": {"act_type": "relu"}, 
      "inputs": [[573, 0, 0]]
    }, 
    {
      "op": "null", 
      "name": "convolution61_weight", 
      "attr": {
        "kernel": "(1, 1)", 
        "num_filter": "32", 
        "pad": "(0, 0)", 
        "stride": "(1, 1)"
      }, 
      "inputs": []
    }, 
    {
      "op": "null", 
      "name": "convolution61_bias", 
      "attr": {
        "kernel": "(1, 1)", 
        "num_filter": "32", 
        "pad": "(0, 0)", 
        "stride": "(1, 1)"
      }, 
      "inputs": []
    }, 
    {
      "op": "Convolution", 
      "name": "convolution61", 
      "attr": {
        "kernel": "(1, 1)", 
        "num_filter": "32", 
        "pad": "(0, 0)", 
        "stride": "(1, 1)"
      }, 
      "inputs": [[574, 0, 0], [575, 0, 0], [576, 0, 0]]
    }, 
    {
      "op": "null", 
      "name": "batchnorm61_gamma", 
      "inputs": []
    }, 
    {
      "op": "null", 
      "name": "batchnorm61_beta", 
      "inputs": []
    }, 
    {
      "op": "null", 
      "name": "batchnorm61_moving_mean", 
      "inputs": []
    }, 
    {
      "op": "null", 
      "name": "batchnorm61_moving_var", 
      "inputs": []
    }, 
    {
      "op": "BatchNorm", 
      "name": "batchnorm61", 
      "inputs": [[577, 0, 0], [578, 0, 0], [579, 0, 0], [580, 0, 1], [581, 0, 1]]
    }, 
    {
      "op": "Activation", 
      "name": "activation61", 
      "attr": {"act_type": "relu"}, 
      "inputs": [[582, 0, 0]]
    }, 
    {
      "op": "null", 
      "name": "convolution62_weight", 
      "attr": {
        "kernel": "(1, 1)", 
        "num_filter": "32", 
        "pad": "(0, 0)", 
        "stride": "(1, 1)"
      }, 
      "inputs": []
    }, 
    {
      "op": "null", 
      "name": "convolution62_bias", 
      "attr": {
        "kernel": "(1, 1)", 
        "num_filter": "32", 
        "pad": "(0, 0)", 
        "stride": "(1, 1)"
      }, 
      "inputs": []
    }, 
    {
      "op": "Convolution", 
      "name": "convolution62", 
      "attr": {
        "kernel": "(1, 1)", 
        "num_filter": "32", 
        "pad": "(0, 0)", 
        "stride": "(1, 1)"
      }, 
      "inputs": [[574, 0, 0], [584, 0, 0], [585, 0, 0]]
    }, 
    {
      "op": "null", 
      "name": "batchnorm62_gamma", 
      "inputs": []
    }, 
    {
      "op": "null", 
      "name": "batchnorm62_beta", 
      "inputs": []
    }, 
    {
      "op": "null", 
      "name": "batchnorm62_moving_mean", 
      "inputs": []
    }, 
    {
      "op": "null", 
      "name": "batchnorm62_moving_var", 
      "inputs": []
    }, 
    {
      "op": "BatchNorm", 
      "name": "batchnorm62", 
      "inputs": [[586, 0, 0], [587, 0, 0], [588, 0, 0], [589, 0, 1], [590, 0, 1]]
    }, 
    {
      "op": "Activation", 
      "name": "activation62", 
      "attr": {"act_type": "relu"}, 
      "inputs": [[591, 0, 0]]
    }, 
    {
      "op": "null", 
      "name": "convolution63_weight", 
      "attr": {
        "kernel": "(3, 3)", 
        "num_filter": "32", 
        "pad": "(1, 1)", 
        "stride": "(1, 1)"
      }, 
      "inputs": []
    }, 
    {
      "op": "null", 
      "name": "convolution63_bias", 
      "attr": {
        "kernel": "(3, 3)", 
        "num_filter": "32", 
        "pad": "(1, 1)", 
        "stride": "(1, 1)"
      }, 
      "inputs": []
    }, 
    {
      "op": "Convolution", 
      "name": "convolution63", 
      "attr": {
        "kernel": "(3, 3)", 
        "num_filter": "32", 
        "pad": "(1, 1)", 
        "stride": "(1, 1)"
      }, 
      "inputs": [[592, 0, 0], [593, 0, 0], [594, 0, 0]]
    }, 
    {
      "op": "null", 
      "name": "batchnorm63_gamma", 
      "inputs": []
    }, 
    {
      "op": "null", 
      "name": "batchnorm63_beta", 
      "inputs": []
    }, 
    {
      "op": "null", 
      "name": "batchnorm63_moving_mean", 
      "inputs": []
    }, 
    {
      "op": "null", 
      "name": "batchnorm63_moving_var", 
      "inputs": []
    }, 
    {
      "op": "BatchNorm", 
      "name": "batchnorm63", 
      "inputs": [[595, 0, 0], [596, 0, 0], [597, 0, 0], [598, 0, 1], [599, 0, 1]]
    }, 
    {
      "op": "Activation", 
      "name": "activation63", 
      "attr": {"act_type": "relu"}, 
      "inputs": [[600, 0, 0]]
    }, 
    {
      "op": "null", 
      "name": "convolution64_weight", 
      "attr": {
        "kernel": "(1, 1)", 
        "num_filter": "32", 
        "pad": "(0, 0)", 
        "stride": "(1, 1)"
      }, 
      "inputs": []
    }, 
    {
      "op": "null", 
      "name": "convolution64_bias", 
      "attr": {
        "kernel": "(1, 1)", 
        "num_filter": "32", 
        "pad": "(0, 0)", 
        "stride": "(1, 1)"
      }, 
      "inputs": []
    }, 
    {
      "op": "Convolution", 
      "name": "convolution64", 
      "attr": {
        "kernel": "(1, 1)", 
        "num_filter": "32", 
        "pad": "(0, 0)", 
        "stride": "(1, 1)"
      }, 
      "inputs": [[574, 0, 0], [602, 0, 0], [603, 0, 0]]
    }, 
    {
      "op": "null", 
      "name": "batchnorm64_gamma", 
      "inputs": []
    }, 
    {
      "op": "null", 
      "name": "batchnorm64_beta", 
      "inputs": []
    }, 
    {
      "op": "null", 
      "name": "batchnorm64_moving_mean", 
      "inputs": []
    }, 
    {
      "op": "null", 
      "name": "batchnorm64_moving_var", 
      "inputs": []
    }, 
    {
      "op": "BatchNorm", 
      "name": "batchnorm64", 
      "inputs": [[604, 0, 0], [605, 0, 0], [606, 0, 0], [607, 0, 1], [608, 0, 1]]
    }, 
    {
      "op": "Activation", 
      "name": "activation64", 
      "attr": {"act_type": "relu"}, 
      "inputs": [[609, 0, 0]]
    }, 
    {
      "op": "null", 
      "name": "convolution65_weight", 
      "attr": {
        "kernel": "(3, 3)", 
        "num_filter": "48", 
        "pad": "(1, 1)", 
        "stride": "(1, 1)"
      }, 
      "inputs": []
    }, 
    {
      "op": "null", 
      "name": "convolution65_bias", 
      "attr": {
        "kernel": "(3, 3)", 
        "num_filter": "48", 
        "pad": "(1, 1)", 
        "stride": "(1, 1)"
      }, 
      "inputs": []
    }, 
    {
      "op": "Convolution", 
      "name": "convolution65", 
      "attr": {
        "kernel": "(3, 3)", 
        "num_filter": "48", 
        "pad": "(1, 1)", 
        "stride": "(1, 1)"
      }, 
      "inputs": [[610, 0, 0], [611, 0, 0], [612, 0, 0]]
    }, 
    {
      "op": "null", 
      "name": "batchnorm65_gamma", 
      "inputs": []
    }, 
    {
      "op": "null", 
      "name": "batchnorm65_beta", 
      "inputs": []
    }, 
    {
      "op": "null", 
      "name": "batchnorm65_moving_mean", 
      "inputs": []
    }, 
    {
      "op": "null", 
      "name": "batchnorm65_moving_var", 
      "inputs": []
    }, 
    {
      "op": "BatchNorm", 
      "name": "batchnorm65", 
      "inputs": [[613, 0, 0], [614, 0, 0], [615, 0, 0], [616, 0, 1], [617, 0, 1]]
    }, 
    {
      "op": "Activation", 
      "name": "activation65", 
      "attr": {"act_type": "relu"}, 
      "inputs": [[618, 0, 0]]
    }, 
    {
      "op": "null", 
      "name": "convolution66_weight", 
      "attr": {
        "kernel": "(3, 3)", 
        "num_filter": "64", 
        "pad": "(1, 1)", 
        "stride": "(1, 1)"
      }, 
      "inputs": []
    }, 
    {
      "op": "null", 
      "name": "convolution66_bias", 
      "attr": {
        "kernel": "(3, 3)", 
        "num_filter": "64", 
        "pad": "(1, 1)", 
        "stride": "(1, 1)"
      }, 
      "inputs": []
    }, 
    {
      "op": "Convolution", 
      "name": "convolution66", 
      "attr": {
        "kernel": "(3, 3)", 
        "num_filter": "64", 
        "pad": "(1, 1)", 
        "stride": "(1, 1)"
      }, 
      "inputs": [[619, 0, 0], [620, 0, 0], [621, 0, 0]]
    }, 
    {
      "op": "null", 
      "name": "batchnorm66_gamma", 
      "inputs": []
    }, 
    {
      "op": "null", 
      "name": "batchnorm66_beta", 
      "inputs": []
    }, 
    {
      "op": "null", 
      "name": "batchnorm66_moving_mean", 
      "inputs": []
    }, 
    {
      "op": "null", 
      "name": "batchnorm66_moving_var", 
      "inputs": []
    }, 
    {
      "op": "BatchNorm", 
      "name": "batchnorm66", 
      "inputs": [[622, 0, 0], [623, 0, 0], [624, 0, 0], [625, 0, 1], [626, 0, 1]]
    }, 
    {
      "op": "Activation", 
      "name": "activation66", 
      "attr": {"act_type": "relu"}, 
      "inputs": [[627, 0, 0]]
    }, 
    {
      "op": "Concat", 
      "name": "concat8", 
      "attr": {"num_args": "3"}, 
      "inputs": [[583, 0, 0], [601, 0, 0], [628, 0, 0]]
    }, 
    {
      "op": "null", 
      "name": "convolution67_weight", 
      "attr": {
        "kernel": "(1, 1)", 
        "num_filter": "320", 
        "pad": "(0, 0)", 
        "stride": "(1, 1)"
      }, 
      "inputs": []
    }, 
    {
      "op": "null", 
      "name": "convolution67_bias", 
      "attr": {
        "kernel": "(1, 1)", 
        "num_filter": "320", 
        "pad": "(0, 0)", 
        "stride": "(1, 1)"
      }, 
      "inputs": []
    }, 
    {
      "op": "Convolution", 
      "name": "convolution67", 
      "attr": {
        "kernel": "(1, 1)", 
        "num_filter": "320", 
        "pad": "(0, 0)", 
        "stride": "(1, 1)"
      }, 
      "inputs": [[629, 0, 0], [630, 0, 0], [631, 0, 0]]
    }, 
    {
      "op": "null", 
      "name": "batchnorm67_gamma", 
      "inputs": []
    }, 
    {
      "op": "null", 
      "name": "batchnorm67_beta", 
      "inputs": []
    }, 
    {
      "op": "null", 
      "name": "batchnorm67_moving_mean", 
      "inputs": []
    }, 
    {
      "op": "null", 
      "name": "batchnorm67_moving_var", 
      "inputs": []
    }, 
    {
      "op": "BatchNorm", 
      "name": "batchnorm67", 
      "inputs": [[632, 0, 0], [633, 0, 0], [634, 0, 0], [635, 0, 1], [636, 0, 1]]
    }, 
    {
      "op": "_mul_scalar", 
      "name": "_mulscalar7", 
      "attr": {"scalar": "0.17"}, 
      "inputs": [[637, 0, 0]]
    }, 
    {
      "op": "elemwise_add", 
      "name": "_plus7", 
      "inputs": [[574, 0, 0], [638, 0, 0]]
    }, 
    {
      "op": "Activation", 
      "name": "activation67", 
      "attr": {"act_type": "relu"}, 
      "inputs": [[639, 0, 0]]
    }, 
    {
      "op": "null", 
      "name": "convolution68_weight", 
      "attr": {
        "kernel": "(1, 1)", 
        "num_filter": "32", 
        "pad": "(0, 0)", 
        "stride": "(1, 1)"
      }, 
      "inputs": []
    }, 
    {
      "op": "null", 
      "name": "convolution68_bias", 
      "attr": {
        "kernel": "(1, 1)", 
        "num_filter": "32", 
        "pad": "(0, 0)", 
        "stride": "(1, 1)"
      }, 
      "inputs": []
    }, 
    {
      "op": "Convolution", 
      "name": "convolution68", 
      "attr": {
        "kernel": "(1, 1)", 
        "num_filter": "32", 
        "pad": "(0, 0)", 
        "stride": "(1, 1)"
      }, 
      "inputs": [[640, 0, 0], [641, 0, 0], [642, 0, 0]]
    }, 
    {
      "op": "null", 
      "name": "batchnorm68_gamma", 
      "inputs": []
    }, 
    {
      "op": "null", 
      "name": "batchnorm68_beta", 
      "inputs": []
    }, 
    {
      "op": "null", 
      "name": "batchnorm68_moving_mean", 
      "inputs": []
    }, 
    {
      "op": "null", 
      "name": "batchnorm68_moving_var", 
      "inputs": []
    }, 
    {
      "op": "BatchNorm", 
      "name": "batchnorm68", 
      "inputs": [[643, 0, 0], [644, 0, 0], [645, 0, 0], [646, 0, 1], [647, 0, 1]]
    }, 
    {
      "op": "Activation", 
      "name": "activation68", 
      "attr": {"act_type": "relu"}, 
      "inputs": [[648, 0, 0]]
    }, 
    {
      "op": "null", 
      "name": "convolution69_weight", 
      "attr": {
        "kernel": "(1, 1)", 
        "num_filter": "32", 
        "pad": "(0, 0)", 
        "stride": "(1, 1)"
      }, 
      "inputs": []
    }, 
    {
      "op": "null", 
      "name": "convolution69_bias", 
      "attr": {
        "kernel": "(1, 1)", 
        "num_filter": "32", 
        "pad": "(0, 0)", 
        "stride": "(1, 1)"
      }, 
      "inputs": []
    }, 
    {
      "op": "Convolution", 
      "name": "convolution69", 
      "attr": {
        "kernel": "(1, 1)", 
        "num_filter": "32", 
        "pad": "(0, 0)", 
        "stride": "(1, 1)"
      }, 
      "inputs": [[640, 0, 0], [650, 0, 0], [651, 0, 0]]
    }, 
    {
      "op": "null", 
      "name": "batchnorm69_gamma", 
      "inputs": []
    }, 
    {
      "op": "null", 
      "name": "batchnorm69_beta", 
      "inputs": []
    }, 
    {
      "op": "null", 
      "name": "batchnorm69_moving_mean", 
      "inputs": []
    }, 
    {
      "op": "null", 
      "name": "batchnorm69_moving_var", 
      "inputs": []
    }, 
    {
      "op": "BatchNorm", 
      "name": "batchnorm69", 
      "inputs": [[652, 0, 0], [653, 0, 0], [654, 0, 0], [655, 0, 1], [656, 0, 1]]
    }, 
    {
      "op": "Activation", 
      "name": "activation69", 
      "attr": {"act_type": "relu"}, 
      "inputs": [[657, 0, 0]]
    }, 
    {
      "op": "null", 
      "name": "convolution70_weight", 
      "attr": {
        "kernel": "(3, 3)", 
        "num_filter": "32", 
        "pad": "(1, 1)", 
        "stride": "(1, 1)"
      }, 
      "inputs": []
    }, 
    {
      "op": "null", 
      "name": "convolution70_bias", 
      "attr": {
        "kernel": "(3, 3)", 
        "num_filter": "32", 
        "pad": "(1, 1)", 
        "stride": "(1, 1)"
      }, 
      "inputs": []
    }, 
    {
      "op": "Convolution", 
      "name": "convolution70", 
      "attr": {
        "kernel": "(3, 3)", 
        "num_filter": "32", 
        "pad": "(1, 1)", 
        "stride": "(1, 1)"
      }, 
      "inputs": [[658, 0, 0], [659, 0, 0], [660, 0, 0]]
    }, 
    {
      "op": "null", 
      "name": "batchnorm70_gamma", 
      "inputs": []
    }, 
    {
      "op": "null", 
      "name": "batchnorm70_beta", 
      "inputs": []
    }, 
    {
      "op": "null", 
      "name": "batchnorm70_moving_mean", 
      "inputs": []
    }, 
    {
      "op": "null", 
      "name": "batchnorm70_moving_var", 
      "inputs": []
    }, 
    {
      "op": "BatchNorm", 
      "name": "batchnorm70", 
      "inputs": [[661, 0, 0], [662, 0, 0], [663, 0, 0], [664, 0, 1], [665, 0, 1]]
    }, 
    {
      "op": "Activation", 
      "name": "activation70", 
      "attr": {"act_type": "relu"}, 
      "inputs": [[666, 0, 0]]
    }, 
    {
      "op": "null", 
      "name": "convolution71_weight", 
      "attr": {
        "kernel": "(1, 1)", 
        "num_filter": "32", 
        "pad": "(0, 0)", 
        "stride": "(1, 1)"
      }, 
      "inputs": []
    }, 
    {
      "op": "null", 
      "name": "convolution71_bias", 
      "attr": {
        "kernel": "(1, 1)", 
        "num_filter": "32", 
        "pad": "(0, 0)", 
        "stride": "(1, 1)"
      }, 
      "inputs": []
    }, 
    {
      "op": "Convolution", 
      "name": "convolution71", 
      "attr": {
        "kernel": "(1, 1)", 
        "num_filter": "32", 
        "pad": "(0, 0)", 
        "stride": "(1, 1)"
      }, 
      "inputs": [[640, 0, 0], [668, 0, 0], [669, 0, 0]]
    }, 
    {
      "op": "null", 
      "name": "batchnorm71_gamma", 
      "inputs": []
    }, 
    {
      "op": "null", 
      "name": "batchnorm71_beta", 
      "inputs": []
    }, 
    {
      "op": "null", 
      "name": "batchnorm71_moving_mean", 
      "inputs": []
    }, 
    {
      "op": "null", 
      "name": "batchnorm71_moving_var", 
      "inputs": []
    }, 
    {
      "op": "BatchNorm", 
      "name": "batchnorm71", 
      "inputs": [[670, 0, 0], [671, 0, 0], [672, 0, 0], [673, 0, 1], [674, 0, 1]]
    }, 
    {
      "op": "Activation", 
      "name": "activation71", 
      "attr": {"act_type": "relu"}, 
      "inputs": [[675, 0, 0]]
    }, 
    {
      "op": "null", 
      "name": "convolution72_weight", 
      "attr": {
        "kernel": "(3, 3)", 
        "num_filter": "48", 
        "pad": "(1, 1)", 
        "stride": "(1, 1)"
      }, 
      "inputs": []
    }, 
    {
      "op": "null", 
      "name": "convolution72_bias", 
      "attr": {
        "kernel": "(3, 3)", 
        "num_filter": "48", 
        "pad": "(1, 1)", 
        "stride": "(1, 1)"
      }, 
      "inputs": []
    }, 
    {
      "op": "Convolution", 
      "name": "convolution72", 
      "attr": {
        "kernel": "(3, 3)", 
        "num_filter": "48", 
        "pad": "(1, 1)", 
        "stride": "(1, 1)"
      }, 
      "inputs": [[676, 0, 0], [677, 0, 0], [678, 0, 0]]
    }, 
    {
      "op": "null", 
      "name": "batchnorm72_gamma", 
      "inputs": []
    }, 
    {
      "op": "null", 
      "name": "batchnorm72_beta", 
      "inputs": []
    }, 
    {
      "op": "null", 
      "name": "batchnorm72_moving_mean", 
      "inputs": []
    }, 
    {
      "op": "null", 
      "name": "batchnorm72_moving_var", 
      "inputs": []
    }, 
    {
      "op": "BatchNorm", 
      "name": "batchnorm72", 
      "inputs": [[679, 0, 0], [680, 0, 0], [681, 0, 0], [682, 0, 1], [683, 0, 1]]
    }, 
    {
      "op": "Activation", 
      "name": "activation72", 
      "attr": {"act_type": "relu"}, 
      "inputs": [[684, 0, 0]]
    }, 
    {
      "op": "null", 
      "name": "convolution73_weight", 
      "attr": {
        "kernel": "(3, 3)", 
        "num_filter": "64", 
        "pad": "(1, 1)", 
        "stride": "(1, 1)"
      }, 
      "inputs": []
    }, 
    {
      "op": "null", 
      "name": "convolution73_bias", 
      "attr": {
        "kernel": "(3, 3)", 
        "num_filter": "64", 
        "pad": "(1, 1)", 
        "stride": "(1, 1)"
      }, 
      "inputs": []
    }, 
    {
      "op": "Convolution", 
      "name": "convolution73", 
      "attr": {
        "kernel": "(3, 3)", 
        "num_filter": "64", 
        "pad": "(1, 1)", 
        "stride": "(1, 1)"
      }, 
      "inputs": [[685, 0, 0], [686, 0, 0], [687, 0, 0]]
    }, 
    {
      "op": "null", 
      "name": "batchnorm73_gamma", 
      "inputs": []
    }, 
    {
      "op": "null", 
      "name": "batchnorm73_beta", 
      "inputs": []
    }, 
    {
      "op": "null", 
      "name": "batchnorm73_moving_mean", 
      "inputs": []
    }, 
    {
      "op": "null", 
      "name": "batchnorm73_moving_var", 
      "inputs": []
    }, 
    {
      "op": "BatchNorm", 
      "name": "batchnorm73", 
      "inputs": [[688, 0, 0], [689, 0, 0], [690, 0, 0], [691, 0, 1], [692, 0, 1]]
    }, 
    {
      "op": "Activation", 
      "name": "activation73", 
      "attr": {"act_type": "relu"}, 
      "inputs": [[693, 0, 0]]
    }, 
    {
      "op": "Concat", 
      "name": "concat9", 
      "attr": {"num_args": "3"}, 
      "inputs": [[649, 0, 0], [667, 0, 0], [694, 0, 0]]
    }, 
    {
      "op": "null", 
      "name": "convolution74_weight", 
      "attr": {
        "kernel": "(1, 1)", 
        "num_filter": "320", 
        "pad": "(0, 0)", 
        "stride": "(1, 1)"
      }, 
      "inputs": []
    }, 
    {
      "op": "null", 
      "name": "convolution74_bias", 
      "attr": {
        "kernel": "(1, 1)", 
        "num_filter": "320", 
        "pad": "(0, 0)", 
        "stride": "(1, 1)"
      }, 
      "inputs": []
    }, 
    {
      "op": "Convolution", 
      "name": "convolution74", 
      "attr": {
        "kernel": "(1, 1)", 
        "num_filter": "320", 
        "pad": "(0, 0)", 
        "stride": "(1, 1)"
      }, 
      "inputs": [[695, 0, 0], [696, 0, 0], [697, 0, 0]]
    }, 
    {
      "op": "null", 
      "name": "batchnorm74_gamma", 
      "inputs": []
    }, 
    {
      "op": "null", 
      "name": "batchnorm74_beta", 
      "inputs": []
    }, 
    {
      "op": "null", 
      "name": "batchnorm74_moving_mean", 
      "inputs": []
    }, 
    {
      "op": "null", 
      "name": "batchnorm74_moving_var", 
      "inputs": []
    }, 
    {
      "op": "BatchNorm", 
      "name": "batchnorm74", 
      "inputs": [[698, 0, 0], [699, 0, 0], [700, 0, 0], [701, 0, 1], [702, 0, 1]]
    }, 
    {
      "op": "_mul_scalar", 
      "name": "_mulscalar8", 
      "attr": {"scalar": "0.17"}, 
      "inputs": [[703, 0, 0]]
    }, 
    {
      "op": "elemwise_add", 
      "name": "_plus8", 
      "inputs": [[640, 0, 0], [704, 0, 0]]
    }, 
    {
      "op": "Activation", 
      "name": "activation74", 
      "attr": {"act_type": "relu"}, 
      "inputs": [[705, 0, 0]]
    }, 
    {
      "op": "null", 
      "name": "convolution75_weight", 
      "attr": {
        "kernel": "(1, 1)", 
        "num_filter": "32", 
        "pad": "(0, 0)", 
        "stride": "(1, 1)"
      }, 
      "inputs": []
    }, 
    {
      "op": "null", 
      "name": "convolution75_bias", 
      "attr": {
        "kernel": "(1, 1)", 
        "num_filter": "32", 
        "pad": "(0, 0)", 
        "stride": "(1, 1)"
      }, 
      "inputs": []
    }, 
    {
      "op": "Convolution", 
      "name": "convolution75", 
      "attr": {
        "kernel": "(1, 1)", 
        "num_filter": "32", 
        "pad": "(0, 0)", 
        "stride": "(1, 1)"
      }, 
      "inputs": [[706, 0, 0], [707, 0, 0], [708, 0, 0]]
    }, 
    {
      "op": "null", 
      "name": "batchnorm75_gamma", 
      "inputs": []
    }, 
    {
      "op": "null", 
      "name": "batchnorm75_beta", 
      "inputs": []
    }, 
    {
      "op": "null", 
      "name": "batchnorm75_moving_mean", 
      "inputs": []
    }, 
    {
      "op": "null", 
      "name": "batchnorm75_moving_var", 
      "inputs": []
    }, 
    {
      "op": "BatchNorm", 
      "name": "batchnorm75", 
      "inputs": [[709, 0, 0], [710, 0, 0], [711, 0, 0], [712, 0, 1], [713, 0, 1]]
    }, 
    {
      "op": "Activation", 
      "name": "activation75", 
      "attr": {"act_type": "relu"}, 
      "inputs": [[714, 0, 0]]
    }, 
    {
      "op": "null", 
      "name": "convolution76_weight", 
      "attr": {
        "kernel": "(1, 1)", 
        "num_filter": "32", 
        "pad": "(0, 0)", 
        "stride": "(1, 1)"
      }, 
      "inputs": []
    }, 
    {
      "op": "null", 
      "name": "convolution76_bias", 
      "attr": {
        "kernel": "(1, 1)", 
        "num_filter": "32", 
        "pad": "(0, 0)", 
        "stride": "(1, 1)"
      }, 
      "inputs": []
    }, 
    {
      "op": "Convolution", 
      "name": "convolution76", 
      "attr": {
        "kernel": "(1, 1)", 
        "num_filter": "32", 
        "pad": "(0, 0)", 
        "stride": "(1, 1)"
      }, 
      "inputs": [[706, 0, 0], [716, 0, 0], [717, 0, 0]]
    }, 
    {
      "op": "null", 
      "name": "batchnorm76_gamma", 
      "inputs": []
    }, 
    {
      "op": "null", 
      "name": "batchnorm76_beta", 
      "inputs": []
    }, 
    {
      "op": "null", 
      "name": "batchnorm76_moving_mean", 
      "inputs": []
    }, 
    {
      "op": "null", 
      "name": "batchnorm76_moving_var", 
      "inputs": []
    }, 
    {
      "op": "BatchNorm", 
      "name": "batchnorm76", 
      "inputs": [[718, 0, 0], [719, 0, 0], [720, 0, 0], [721, 0, 1], [722, 0, 1]]
    }, 
    {
      "op": "Activation", 
      "name": "activation76", 
      "attr": {"act_type": "relu"}, 
      "inputs": [[723, 0, 0]]
    }, 
    {
      "op": "null", 
      "name": "convolution77_weight", 
      "attr": {
        "kernel": "(3, 3)", 
        "num_filter": "32", 
        "pad": "(1, 1)", 
        "stride": "(1, 1)"
      }, 
      "inputs": []
    }, 
    {
      "op": "null", 
      "name": "convolution77_bias", 
      "attr": {
        "kernel": "(3, 3)", 
        "num_filter": "32", 
        "pad": "(1, 1)", 
        "stride": "(1, 1)"
      }, 
      "inputs": []
    }, 
    {
      "op": "Convolution", 
      "name": "convolution77", 
      "attr": {
        "kernel": "(3, 3)", 
        "num_filter": "32", 
        "pad": "(1, 1)", 
        "stride": "(1, 1)"
      }, 
      "inputs": [[724, 0, 0], [725, 0, 0], [726, 0, 0]]
    }, 
    {
      "op": "null", 
      "name": "batchnorm77_gamma", 
      "inputs": []
    }, 
    {
      "op": "null", 
      "name": "batchnorm77_beta", 
      "inputs": []
    }, 
    {
      "op": "null", 
      "name": "batchnorm77_moving_mean", 
      "inputs": []
    }, 
    {
      "op": "null", 
      "name": "batchnorm77_moving_var", 
      "inputs": []
    }, 
    {
      "op": "BatchNorm", 
      "name": "batchnorm77", 
      "inputs": [[727, 0, 0], [728, 0, 0], [729, 0, 0], [730, 0, 1], [731, 0, 1]]
    }, 
    {
      "op": "Activation", 
      "name": "activation77", 
      "attr": {"act_type": "relu"}, 
      "inputs": [[732, 0, 0]]
    }, 
    {
      "op": "null", 
      "name": "convolution78_weight", 
      "attr": {
        "kernel": "(1, 1)", 
        "num_filter": "32", 
        "pad": "(0, 0)", 
        "stride": "(1, 1)"
      }, 
      "inputs": []
    }, 
    {
      "op": "null", 
      "name": "convolution78_bias", 
      "attr": {
        "kernel": "(1, 1)", 
        "num_filter": "32", 
        "pad": "(0, 0)", 
        "stride": "(1, 1)"
      }, 
      "inputs": []
    }, 
    {
      "op": "Convolution", 
      "name": "convolution78", 
      "attr": {
        "kernel": "(1, 1)", 
        "num_filter": "32", 
        "pad": "(0, 0)", 
        "stride": "(1, 1)"
      }, 
      "inputs": [[706, 0, 0], [734, 0, 0], [735, 0, 0]]
    }, 
    {
      "op": "null", 
      "name": "batchnorm78_gamma", 
      "inputs": []
    }, 
    {
      "op": "null", 
      "name": "batchnorm78_beta", 
      "inputs": []
    }, 
    {
      "op": "null", 
      "name": "batchnorm78_moving_mean", 
      "inputs": []
    }, 
    {
      "op": "null", 
      "name": "batchnorm78_moving_var", 
      "inputs": []
    }, 
    {
      "op": "BatchNorm", 
      "name": "batchnorm78", 
      "inputs": [[736, 0, 0], [737, 0, 0], [738, 0, 0], [739, 0, 1], [740, 0, 1]]
    }, 
    {
      "op": "Activation", 
      "name": "activation78", 
      "attr": {"act_type": "relu"}, 
      "inputs": [[741, 0, 0]]
    }, 
    {
      "op": "null", 
      "name": "convolution79_weight", 
      "attr": {
        "kernel": "(3, 3)", 
        "num_filter": "48", 
        "pad": "(1, 1)", 
        "stride": "(1, 1)"
      }, 
      "inputs": []
    }, 
    {
      "op": "null", 
      "name": "convolution79_bias", 
      "attr": {
        "kernel": "(3, 3)", 
        "num_filter": "48", 
        "pad": "(1, 1)", 
        "stride": "(1, 1)"
      }, 
      "inputs": []
    }, 
    {
      "op": "Convolution", 
      "name": "convolution79", 
      "attr": {
        "kernel": "(3, 3)", 
        "num_filter": "48", 
        "pad": "(1, 1)", 
        "stride": "(1, 1)"
      }, 
      "inputs": [[742, 0, 0], [743, 0, 0], [744, 0, 0]]
    }, 
    {
      "op": "null", 
      "name": "batchnorm79_gamma", 
      "inputs": []
    }, 
    {
      "op": "null", 
      "name": "batchnorm79_beta", 
      "inputs": []
    }, 
    {
      "op": "null", 
      "name": "batchnorm79_moving_mean", 
      "inputs": []
    }, 
    {
      "op": "null", 
      "name": "batchnorm79_moving_var", 
      "inputs": []
    }, 
    {
      "op": "BatchNorm", 
      "name": "batchnorm79", 
      "inputs": [[745, 0, 0], [746, 0, 0], [747, 0, 0], [748, 0, 1], [749, 0, 1]]
    }, 
    {
      "op": "Activation", 
      "name": "activation79", 
      "attr": {"act_type": "relu"}, 
      "inputs": [[750, 0, 0]]
    }, 
    {
      "op": "null", 
      "name": "convolution80_weight", 
      "attr": {
        "kernel": "(3, 3)", 
        "num_filter": "64", 
        "pad": "(1, 1)", 
        "stride": "(1, 1)"
      }, 
      "inputs": []
    }, 
    {
      "op": "null", 
      "name": "convolution80_bias", 
      "attr": {
        "kernel": "(3, 3)", 
        "num_filter": "64", 
        "pad": "(1, 1)", 
        "stride": "(1, 1)"
      }, 
      "inputs": []
    }, 
    {
      "op": "Convolution", 
      "name": "convolution80", 
      "attr": {
        "kernel": "(3, 3)", 
        "num_filter": "64", 
        "pad": "(1, 1)", 
        "stride": "(1, 1)"
      }, 
      "inputs": [[751, 0, 0], [752, 0, 0], [753, 0, 0]]
    }, 
    {
      "op": "null", 
      "name": "batchnorm80_gamma", 
      "inputs": []
    }, 
    {
      "op": "null", 
      "name": "batchnorm80_beta", 
      "inputs": []
    }, 
    {
      "op": "null", 
      "name": "batchnorm80_moving_mean", 
      "inputs": []
    }, 
    {
      "op": "null", 
      "name": "batchnorm80_moving_var", 
      "inputs": []
    }, 
    {
      "op": "BatchNorm", 
      "name": "batchnorm80", 
      "inputs": [[754, 0, 0], [755, 0, 0], [756, 0, 0], [757, 0, 1], [758, 0, 1]]
    }, 
    {
      "op": "Activation", 
      "name": "activation80", 
      "attr": {"act_type": "relu"}, 
      "inputs": [[759, 0, 0]]
    }, 
    {
      "op": "Concat", 
      "name": "concat10", 
      "attr": {"num_args": "3"}, 
      "inputs": [[715, 0, 0], [733, 0, 0], [760, 0, 0]]
    }, 
    {
      "op": "null", 
      "name": "convolution81_weight", 
      "attr": {
        "kernel": "(1, 1)", 
        "num_filter": "320", 
        "pad": "(0, 0)", 
        "stride": "(1, 1)"
      }, 
      "inputs": []
    }, 
    {
      "op": "null", 
      "name": "convolution81_bias", 
      "attr": {
        "kernel": "(1, 1)", 
        "num_filter": "320", 
        "pad": "(0, 0)", 
        "stride": "(1, 1)"
      }, 
      "inputs": []
    }, 
    {
      "op": "Convolution", 
      "name": "convolution81", 
      "attr": {
        "kernel": "(1, 1)", 
        "num_filter": "320", 
        "pad": "(0, 0)", 
        "stride": "(1, 1)"
      }, 
      "inputs": [[761, 0, 0], [762, 0, 0], [763, 0, 0]]
    }, 
    {
      "op": "null", 
      "name": "batchnorm81_gamma", 
      "inputs": []
    }, 
    {
      "op": "null", 
      "name": "batchnorm81_beta", 
      "inputs": []
    }, 
    {
      "op": "null", 
      "name": "batchnorm81_moving_mean", 
      "inputs": []
    }, 
    {
      "op": "null", 
      "name": "batchnorm81_moving_var", 
      "inputs": []
    }, 
    {
      "op": "BatchNorm", 
      "name": "batchnorm81", 
      "inputs": [[764, 0, 0], [765, 0, 0], [766, 0, 0], [767, 0, 1], [768, 0, 1]]
    }, 
    {
      "op": "_mul_scalar", 
      "name": "_mulscalar9", 
      "attr": {"scalar": "0.17"}, 
      "inputs": [[769, 0, 0]]
    }, 
    {
      "op": "elemwise_add", 
      "name": "_plus9", 
      "inputs": [[706, 0, 0], [770, 0, 0]]
    }, 
    {
      "op": "Activation", 
      "name": "activation81", 
      "attr": {"act_type": "relu"}, 
      "inputs": [[771, 0, 0]]
    }, 
    {
      "op": "null", 
      "name": "convolution82_weight", 
      "attr": {
        "kernel": "(3, 3)", 
        "num_filter": "384", 
        "pad": "(0, 0)", 
        "stride": "(2, 2)"
      }, 
      "inputs": []
    }, 
    {
      "op": "null", 
      "name": "convolution82_bias", 
      "attr": {
        "kernel": "(3, 3)", 
        "num_filter": "384", 
        "pad": "(0, 0)", 
        "stride": "(2, 2)"
      }, 
      "inputs": []
    }, 
    {
      "op": "Convolution", 
      "name": "convolution82", 
      "attr": {
        "kernel": "(3, 3)", 
        "num_filter": "384", 
        "pad": "(0, 0)", 
        "stride": "(2, 2)"
      }, 
      "inputs": [[772, 0, 0], [773, 0, 0], [774, 0, 0]]
    }, 
    {
      "op": "null", 
      "name": "batchnorm82_gamma", 
      "inputs": []
    }, 
    {
      "op": "null", 
      "name": "batchnorm82_beta", 
      "inputs": []
    }, 
    {
      "op": "null", 
      "name": "batchnorm82_moving_mean", 
      "inputs": []
    }, 
    {
      "op": "null", 
      "name": "batchnorm82_moving_var", 
      "inputs": []
    }, 
    {
      "op": "BatchNorm", 
      "name": "batchnorm82", 
      "inputs": [[775, 0, 0], [776, 0, 0], [777, 0, 0], [778, 0, 1], [779, 0, 1]]
    }, 
    {
      "op": "Activation", 
      "name": "activation82", 
      "attr": {"act_type": "relu"}, 
      "inputs": [[780, 0, 0]]
    }, 
    {
      "op": "null", 
      "name": "convolution83_weight", 
      "attr": {
        "kernel": "(1, 1)", 
        "num_filter": "256", 
        "pad": "(0, 0)", 
        "stride": "(1, 1)"
      }, 
      "inputs": []
    }, 
    {
      "op": "null", 
      "name": "convolution83_bias", 
      "attr": {
        "kernel": "(1, 1)", 
        "num_filter": "256", 
        "pad": "(0, 0)", 
        "stride": "(1, 1)"
      }, 
      "inputs": []
    }, 
    {
      "op": "Convolution", 
      "name": "convolution83", 
      "attr": {
        "kernel": "(1, 1)", 
        "num_filter": "256", 
        "pad": "(0, 0)", 
        "stride": "(1, 1)"
      }, 
      "inputs": [[772, 0, 0], [782, 0, 0], [783, 0, 0]]
    }, 
    {
      "op": "null", 
      "name": "batchnorm83_gamma", 
      "inputs": []
    }, 
    {
      "op": "null", 
      "name": "batchnorm83_beta", 
      "inputs": []
    }, 
    {
      "op": "null", 
      "name": "batchnorm83_moving_mean", 
      "inputs": []
    }, 
    {
      "op": "null", 
      "name": "batchnorm83_moving_var", 
      "inputs": []
    }, 
    {
      "op": "BatchNorm", 
      "name": "batchnorm83", 
      "inputs": [[784, 0, 0], [785, 0, 0], [786, 0, 0], [787, 0, 1], [788, 0, 1]]
    }, 
    {
      "op": "Activation", 
      "name": "activation83", 
      "attr": {"act_type": "relu"}, 
      "inputs": [[789, 0, 0]]
    }, 
    {
      "op": "null", 
      "name": "convolution84_weight", 
      "attr": {
        "kernel": "(3, 3)", 
        "num_filter": "256", 
        "pad": "(1, 1)", 
        "stride": "(1, 1)"
      }, 
      "inputs": []
    }, 
    {
      "op": "null", 
      "name": "convolution84_bias", 
      "attr": {
        "kernel": "(3, 3)", 
        "num_filter": "256", 
        "pad": "(1, 1)", 
        "stride": "(1, 1)"
      }, 
      "inputs": []
    }, 
    {
      "op": "Convolution", 
      "name": "convolution84", 
      "attr": {
        "kernel": "(3, 3)", 
        "num_filter": "256", 
        "pad": "(1, 1)", 
        "stride": "(1, 1)"
      }, 
      "inputs": [[790, 0, 0], [791, 0, 0], [792, 0, 0]]
    }, 
    {
      "op": "null", 
      "name": "batchnorm84_gamma", 
      "inputs": []
    }, 
    {
      "op": "null", 
      "name": "batchnorm84_beta", 
      "inputs": []
    }, 
    {
      "op": "null", 
      "name": "batchnorm84_moving_mean", 
      "inputs": []
    }, 
    {
      "op": "null", 
      "name": "batchnorm84_moving_var", 
      "inputs": []
    }, 
    {
      "op": "BatchNorm", 
      "name": "batchnorm84", 
      "inputs": [[793, 0, 0], [794, 0, 0], [795, 0, 0], [796, 0, 1], [797, 0, 1]]
    }, 
    {
      "op": "Activation", 
      "name": "activation84", 
      "attr": {"act_type": "relu"}, 
      "inputs": [[798, 0, 0]]
    }, 
    {
      "op": "null", 
      "name": "convolution85_weight", 
      "attr": {
        "kernel": "(3, 3)", 
        "num_filter": "384", 
        "pad": "(0, 0)", 
        "stride": "(2, 2)"
      }, 
      "inputs": []
    }, 
    {
      "op": "null", 
      "name": "convolution85_bias", 
      "attr": {
        "kernel": "(3, 3)", 
        "num_filter": "384", 
        "pad": "(0, 0)", 
        "stride": "(2, 2)"
      }, 
      "inputs": []
    }, 
    {
      "op": "Convolution", 
      "name": "convolution85", 
      "attr": {
        "kernel": "(3, 3)", 
        "num_filter": "384", 
        "pad": "(0, 0)", 
        "stride": "(2, 2)"
      }, 
      "inputs": [[799, 0, 0], [800, 0, 0], [801, 0, 0]]
    }, 
    {
      "op": "null", 
      "name": "batchnorm85_gamma", 
      "inputs": []
    }, 
    {
      "op": "null", 
      "name": "batchnorm85_beta", 
      "inputs": []
    }, 
    {
      "op": "null", 
      "name": "batchnorm85_moving_mean", 
      "inputs": []
    }, 
    {
      "op": "null", 
      "name": "batchnorm85_moving_var", 
      "inputs": []
    }, 
    {
      "op": "BatchNorm", 
      "name": "batchnorm85", 
      "inputs": [[802, 0, 0], [803, 0, 0], [804, 0, 0], [805, 0, 1], [806, 0, 1]]
    }, 
    {
      "op": "Activation", 
      "name": "activation85", 
      "attr": {"act_type": "relu"}, 
      "inputs": [[807, 0, 0]]
    }, 
    {
      "op": "Pooling", 
      "name": "pooling3", 
      "attr": {
        "kernel": "(3, 3)", 
        "pool_type": "max", 
        "stride": "(2, 2)"
      }, 
      "inputs": [[772, 0, 0]]
    }, 
    {
      "op": "Concat", 
      "name": "concat11", 
      "attr": {"num_args": "3"}, 
      "inputs": [[781, 0, 0], [808, 0, 0], [809, 0, 0]]
    }, 
    {
      "op": "null", 
      "name": "convolution86_weight", 
      "attr": {
        "kernel": "(1, 1)", 
        "num_filter": "192", 
        "pad": "(0, 0)", 
        "stride": "(1, 1)"
      }, 
      "inputs": []
    }, 
    {
      "op": "null", 
      "name": "convolution86_bias", 
      "attr": {
        "kernel": "(1, 1)", 
        "num_filter": "192", 
        "pad": "(0, 0)", 
        "stride": "(1, 1)"
      }, 
      "inputs": []
    }, 
    {
      "op": "Convolution", 
      "name": "convolution86", 
      "attr": {
        "kernel": "(1, 1)", 
        "num_filter": "192", 
        "pad": "(0, 0)", 
        "stride": "(1, 1)"
      }, 
      "inputs": [[810, 0, 0], [811, 0, 0], [812, 0, 0]]
    }, 
    {
      "op": "null", 
      "name": "batchnorm86_gamma", 
      "inputs": []
    }, 
    {
      "op": "null", 
      "name": "batchnorm86_beta", 
      "inputs": []
    }, 
    {
      "op": "null", 
      "name": "batchnorm86_moving_mean", 
      "inputs": []
    }, 
    {
      "op": "null", 
      "name": "batchnorm86_moving_var", 
      "inputs": []
    }, 
    {
      "op": "BatchNorm", 
      "name": "batchnorm86", 
      "inputs": [[813, 0, 0], [814, 0, 0], [815, 0, 0], [816, 0, 1], [817, 0, 1]]
    }, 
    {
      "op": "Activation", 
      "name": "activation86", 
      "attr": {"act_type": "relu"}, 
      "inputs": [[818, 0, 0]]
    }, 
    {
      "op": "null", 
      "name": "convolution87_weight", 
      "attr": {
        "kernel": "(1, 1)", 
        "num_filter": "129", 
        "pad": "(0, 0)", 
        "stride": "(1, 1)"
      }, 
      "inputs": []
    }, 
    {
      "op": "null", 
      "name": "convolution87_bias", 
      "attr": {
        "kernel": "(1, 1)", 
        "num_filter": "129", 
        "pad": "(0, 0)", 
        "stride": "(1, 1)"
      }, 
      "inputs": []
    }, 
    {
      "op": "Convolution", 
      "name": "convolution87", 
      "attr": {
        "kernel": "(1, 1)", 
        "num_filter": "129", 
        "pad": "(0, 0)", 
        "stride": "(1, 1)"
      }, 
      "inputs": [[810, 0, 0], [820, 0, 0], [821, 0, 0]]
    }, 
    {
      "op": "null", 
      "name": "batchnorm87_gamma", 
      "inputs": []
    }, 
    {
      "op": "null", 
      "name": "batchnorm87_beta", 
      "inputs": []
    }, 
    {
      "op": "null", 
      "name": "batchnorm87_moving_mean", 
      "inputs": []
    }, 
    {
      "op": "null", 
      "name": "batchnorm87_moving_var", 
      "inputs": []
    }, 
    {
      "op": "BatchNorm", 
      "name": "batchnorm87", 
      "inputs": [[822, 0, 0], [823, 0, 0], [824, 0, 0], [825, 0, 1], [826, 0, 1]]
    }, 
    {
      "op": "Activation", 
      "name": "activation87", 
      "attr": {"act_type": "relu"}, 
      "inputs": [[827, 0, 0]]
    }, 
    {
      "op": "null", 
      "name": "convolution88_weight", 
      "attr": {
        "kernel": "(1, 7)", 
        "num_filter": "160", 
        "pad": "(1, 2)", 
        "stride": "(1, 1)"
      }, 
      "inputs": []
    }, 
    {
      "op": "null", 
      "name": "convolution88_bias", 
      "attr": {
        "kernel": "(1, 7)", 
        "num_filter": "160", 
        "pad": "(1, 2)", 
        "stride": "(1, 1)"
      }, 
      "inputs": []
    }, 
    {
      "op": "Convolution", 
      "name": "convolution88", 
      "attr": {
        "kernel": "(1, 7)", 
        "num_filter": "160", 
        "pad": "(1, 2)", 
        "stride": "(1, 1)"
      }, 
      "inputs": [[828, 0, 0], [829, 0, 0], [830, 0, 0]]
    }, 
    {
      "op": "null", 
      "name": "batchnorm88_gamma", 
      "inputs": []
    }, 
    {
      "op": "null", 
      "name": "batchnorm88_beta", 
      "inputs": []
    }, 
    {
      "op": "null", 
      "name": "batchnorm88_moving_mean", 
      "inputs": []
    }, 
    {
      "op": "null", 
      "name": "batchnorm88_moving_var", 
      "inputs": []
    }, 
    {
      "op": "BatchNorm", 
      "name": "batchnorm88", 
      "inputs": [[831, 0, 0], [832, 0, 0], [833, 0, 0], [834, 0, 1], [835, 0, 1]]
    }, 
    {
      "op": "Activation", 
      "name": "activation88", 
      "attr": {"act_type": "relu"}, 
      "inputs": [[836, 0, 0]]
    }, 
    {
      "op": "null", 
      "name": "convolution89_weight", 
      "attr": {
        "kernel": "(7, 1)", 
        "num_filter": "192", 
        "pad": "(2, 1)", 
        "stride": "(1, 1)"
      }, 
      "inputs": []
    }, 
    {
      "op": "null", 
      "name": "convolution89_bias", 
      "attr": {
        "kernel": "(7, 1)", 
        "num_filter": "192", 
        "pad": "(2, 1)", 
        "stride": "(1, 1)"
      }, 
      "inputs": []
    }, 
    {
      "op": "Convolution", 
      "name": "convolution89", 
      "attr": {
        "kernel": "(7, 1)", 
        "num_filter": "192", 
        "pad": "(2, 1)", 
        "stride": "(1, 1)"
      }, 
      "inputs": [[837, 0, 0], [838, 0, 0], [839, 0, 0]]
    }, 
    {
      "op": "null", 
      "name": "batchnorm89_gamma", 
      "inputs": []
    }, 
    {
      "op": "null", 
      "name": "batchnorm89_beta", 
      "inputs": []
    }, 
    {
      "op": "null", 
      "name": "batchnorm89_moving_mean", 
      "inputs": []
    }, 
    {
      "op": "null", 
      "name": "batchnorm89_moving_var", 
      "inputs": []
    }, 
    {
      "op": "BatchNorm", 
      "name": "batchnorm89", 
      "inputs": [[840, 0, 0], [841, 0, 0], [842, 0, 0], [843, 0, 1], [844, 0, 1]]
    }, 
    {
      "op": "Activation", 
      "name": "activation89", 
      "attr": {"act_type": "relu"}, 
      "inputs": [[845, 0, 0]]
    }, 
    {
      "op": "Concat", 
      "name": "concat12", 
      "attr": {"num_args": "2"}, 
      "inputs": [[819, 0, 0], [846, 0, 0]]
    }, 
    {
      "op": "null", 
      "name": "convolution90_weight", 
      "attr": {
        "kernel": "(1, 1)", 
        "num_filter": "1088", 
        "pad": "(0, 0)", 
        "stride": "(1, 1)"
      }, 
      "inputs": []
    }, 
    {
      "op": "null", 
      "name": "convolution90_bias", 
      "attr": {
        "kernel": "(1, 1)", 
        "num_filter": "1088", 
        "pad": "(0, 0)", 
        "stride": "(1, 1)"
      }, 
      "inputs": []
    }, 
    {
      "op": "Convolution", 
      "name": "convolution90", 
      "attr": {
        "kernel": "(1, 1)", 
        "num_filter": "1088", 
        "pad": "(0, 0)", 
        "stride": "(1, 1)"
      }, 
      "inputs": [[847, 0, 0], [848, 0, 0], [849, 0, 0]]
    }, 
    {
      "op": "null", 
      "name": "batchnorm90_gamma", 
      "inputs": []
    }, 
    {
      "op": "null", 
      "name": "batchnorm90_beta", 
      "inputs": []
    }, 
    {
      "op": "null", 
      "name": "batchnorm90_moving_mean", 
      "inputs": []
    }, 
    {
      "op": "null", 
      "name": "batchnorm90_moving_var", 
      "inputs": []
    }, 
    {
      "op": "BatchNorm", 
      "name": "batchnorm90", 
      "inputs": [[850, 0, 0], [851, 0, 0], [852, 0, 0], [853, 0, 1], [854, 0, 1]]
    }, 
    {
      "op": "_mul_scalar", 
      "name": "_mulscalar10", 
      "attr": {"scalar": "0.1"}, 
      "inputs": [[855, 0, 0]]
    }, 
    {
      "op": "elemwise_add", 
      "name": "_plus10", 
      "inputs": [[810, 0, 0], [856, 0, 0]]
    }, 
    {
      "op": "Activation", 
      "name": "activation90", 
      "attr": {"act_type": "relu"}, 
      "inputs": [[857, 0, 0]]
    }, 
    {
      "op": "null", 
      "name": "convolution91_weight", 
      "attr": {
        "kernel": "(1, 1)", 
        "num_filter": "192", 
        "pad": "(0, 0)", 
        "stride": "(1, 1)"
      }, 
      "inputs": []
    }, 
    {
      "op": "null", 
      "name": "convolution91_bias", 
      "attr": {
        "kernel": "(1, 1)", 
        "num_filter": "192", 
        "pad": "(0, 0)", 
        "stride": "(1, 1)"
      }, 
      "inputs": []
    }, 
    {
      "op": "Convolution", 
      "name": "convolution91", 
      "attr": {
        "kernel": "(1, 1)", 
        "num_filter": "192", 
        "pad": "(0, 0)", 
        "stride": "(1, 1)"
      }, 
      "inputs": [[858, 0, 0], [859, 0, 0], [860, 0, 0]]
    }, 
    {
      "op": "null", 
      "name": "batchnorm91_gamma", 
      "inputs": []
    }, 
    {
      "op": "null", 
      "name": "batchnorm91_beta", 
      "inputs": []
    }, 
    {
      "op": "null", 
      "name": "batchnorm91_moving_mean", 
      "inputs": []
    }, 
    {
      "op": "null", 
      "name": "batchnorm91_moving_var", 
      "inputs": []
    }, 
    {
      "op": "BatchNorm", 
      "name": "batchnorm91", 
      "inputs": [[861, 0, 0], [862, 0, 0], [863, 0, 0], [864, 0, 1], [865, 0, 1]]
    }, 
    {
      "op": "Activation", 
      "name": "activation91", 
      "attr": {"act_type": "relu"}, 
      "inputs": [[866, 0, 0]]
    }, 
    {
      "op": "null", 
      "name": "convolution92_weight", 
      "attr": {
        "kernel": "(1, 1)", 
        "num_filter": "129", 
        "pad": "(0, 0)", 
        "stride": "(1, 1)"
      }, 
      "inputs": []
    }, 
    {
      "op": "null", 
      "name": "convolution92_bias", 
      "attr": {
        "kernel": "(1, 1)", 
        "num_filter": "129", 
        "pad": "(0, 0)", 
        "stride": "(1, 1)"
      }, 
      "inputs": []
    }, 
    {
      "op": "Convolution", 
      "name": "convolution92", 
      "attr": {
        "kernel": "(1, 1)", 
        "num_filter": "129", 
        "pad": "(0, 0)", 
        "stride": "(1, 1)"
      }, 
      "inputs": [[858, 0, 0], [868, 0, 0], [869, 0, 0]]
    }, 
    {
      "op": "null", 
      "name": "batchnorm92_gamma", 
      "inputs": []
    }, 
    {
      "op": "null", 
      "name": "batchnorm92_beta", 
      "inputs": []
    }, 
    {
      "op": "null", 
      "name": "batchnorm92_moving_mean", 
      "inputs": []
    }, 
    {
      "op": "null", 
      "name": "batchnorm92_moving_var", 
      "inputs": []
    }, 
    {
      "op": "BatchNorm", 
      "name": "batchnorm92", 
      "inputs": [[870, 0, 0], [871, 0, 0], [872, 0, 0], [873, 0, 1], [874, 0, 1]]
    }, 
    {
      "op": "Activation", 
      "name": "activation92", 
      "attr": {"act_type": "relu"}, 
      "inputs": [[875, 0, 0]]
    }, 
    {
      "op": "null", 
      "name": "convolution93_weight", 
      "attr": {
        "kernel": "(1, 7)", 
        "num_filter": "160", 
        "pad": "(1, 2)", 
        "stride": "(1, 1)"
      }, 
      "inputs": []
    }, 
    {
      "op": "null", 
      "name": "convolution93_bias", 
      "attr": {
        "kernel": "(1, 7)", 
        "num_filter": "160", 
        "pad": "(1, 2)", 
        "stride": "(1, 1)"
      }, 
      "inputs": []
    }, 
    {
      "op": "Convolution", 
      "name": "convolution93", 
      "attr": {
        "kernel": "(1, 7)", 
        "num_filter": "160", 
        "pad": "(1, 2)", 
        "stride": "(1, 1)"
      }, 
      "inputs": [[876, 0, 0], [877, 0, 0], [878, 0, 0]]
    }, 
    {
      "op": "null", 
      "name": "batchnorm93_gamma", 
      "inputs": []
    }, 
    {
      "op": "null", 
      "name": "batchnorm93_beta", 
      "inputs": []
    }, 
    {
      "op": "null", 
      "name": "batchnorm93_moving_mean", 
      "inputs": []
    }, 
    {
      "op": "null", 
      "name": "batchnorm93_moving_var", 
      "inputs": []
    }, 
    {
      "op": "BatchNorm", 
      "name": "batchnorm93", 
      "inputs": [[879, 0, 0], [880, 0, 0], [881, 0, 0], [882, 0, 1], [883, 0, 1]]
    }, 
    {
      "op": "Activation", 
      "name": "activation93", 
      "attr": {"act_type": "relu"}, 
      "inputs": [[884, 0, 0]]
    }, 
    {
      "op": "null", 
      "name": "convolution94_weight", 
      "attr": {
        "kernel": "(7, 1)", 
        "num_filter": "192", 
        "pad": "(2, 1)", 
        "stride": "(1, 1)"
      }, 
      "inputs": []
    }, 
    {
      "op": "null", 
      "name": "convolution94_bias", 
      "attr": {
        "kernel": "(7, 1)", 
        "num_filter": "192", 
        "pad": "(2, 1)", 
        "stride": "(1, 1)"
      }, 
      "inputs": []
    }, 
    {
      "op": "Convolution", 
      "name": "convolution94", 
      "attr": {
        "kernel": "(7, 1)", 
        "num_filter": "192", 
        "pad": "(2, 1)", 
        "stride": "(1, 1)"
      }, 
      "inputs": [[885, 0, 0], [886, 0, 0], [887, 0, 0]]
    }, 
    {
      "op": "null", 
      "name": "batchnorm94_gamma", 
      "inputs": []
    }, 
    {
      "op": "null", 
      "name": "batchnorm94_beta", 
      "inputs": []
    }, 
    {
      "op": "null", 
      "name": "batchnorm94_moving_mean", 
      "inputs": []
    }, 
    {
      "op": "null", 
      "name": "batchnorm94_moving_var", 
      "inputs": []
    }, 
    {
      "op": "BatchNorm", 
      "name": "batchnorm94", 
      "inputs": [[888, 0, 0], [889, 0, 0], [890, 0, 0], [891, 0, 1], [892, 0, 1]]
    }, 
    {
      "op": "Activation", 
      "name": "activation94", 
      "attr": {"act_type": "relu"}, 
      "inputs": [[893, 0, 0]]
    }, 
    {
      "op": "Concat", 
      "name": "concat13", 
      "attr": {"num_args": "2"}, 
      "inputs": [[867, 0, 0], [894, 0, 0]]
    }, 
    {
      "op": "null", 
      "name": "convolution95_weight", 
      "attr": {
        "kernel": "(1, 1)", 
        "num_filter": "1088", 
        "pad": "(0, 0)", 
        "stride": "(1, 1)"
      }, 
      "inputs": []
    }, 
    {
      "op": "null", 
      "name": "convolution95_bias", 
      "attr": {
        "kernel": "(1, 1)", 
        "num_filter": "1088", 
        "pad": "(0, 0)", 
        "stride": "(1, 1)"
      }, 
      "inputs": []
    }, 
    {
      "op": "Convolution", 
      "name": "convolution95", 
      "attr": {
        "kernel": "(1, 1)", 
        "num_filter": "1088", 
        "pad": "(0, 0)", 
        "stride": "(1, 1)"
      }, 
      "inputs": [[895, 0, 0], [896, 0, 0], [897, 0, 0]]
    }, 
    {
      "op": "null", 
      "name": "batchnorm95_gamma", 
      "inputs": []
    }, 
    {
      "op": "null", 
      "name": "batchnorm95_beta", 
      "inputs": []
    }, 
    {
      "op": "null", 
      "name": "batchnorm95_moving_mean", 
      "inputs": []
    }, 
    {
      "op": "null", 
      "name": "batchnorm95_moving_var", 
      "inputs": []
    }, 
    {
      "op": "BatchNorm", 
      "name": "batchnorm95", 
      "inputs": [[898, 0, 0], [899, 0, 0], [900, 0, 0], [901, 0, 1], [902, 0, 1]]
    }, 
    {
      "op": "_mul_scalar", 
      "name": "_mulscalar11", 
      "attr": {"scalar": "0.1"}, 
      "inputs": [[903, 0, 0]]
    }, 
    {
      "op": "elemwise_add", 
      "name": "_plus11", 
      "inputs": [[858, 0, 0], [904, 0, 0]]
    }, 
    {
      "op": "Activation", 
      "name": "activation95", 
      "attr": {"act_type": "relu"}, 
      "inputs": [[905, 0, 0]]
    }, 
    {
      "op": "null", 
      "name": "convolution96_weight", 
      "attr": {
        "kernel": "(1, 1)", 
        "num_filter": "192", 
        "pad": "(0, 0)", 
        "stride": "(1, 1)"
      }, 
      "inputs": []
    }, 
    {
      "op": "null", 
      "name": "convolution96_bias", 
      "attr": {
        "kernel": "(1, 1)", 
        "num_filter": "192", 
        "pad": "(0, 0)", 
        "stride": "(1, 1)"
      }, 
      "inputs": []
    }, 
    {
      "op": "Convolution", 
      "name": "convolution96", 
      "attr": {
        "kernel": "(1, 1)", 
        "num_filter": "192", 
        "pad": "(0, 0)", 
        "stride": "(1, 1)"
      }, 
      "inputs": [[906, 0, 0], [907, 0, 0], [908, 0, 0]]
    }, 
    {
      "op": "null", 
      "name": "batchnorm96_gamma", 
      "inputs": []
    }, 
    {
      "op": "null", 
      "name": "batchnorm96_beta", 
      "inputs": []
    }, 
    {
      "op": "null", 
      "name": "batchnorm96_moving_mean", 
      "inputs": []
    }, 
    {
      "op": "null", 
      "name": "batchnorm96_moving_var", 
      "inputs": []
    }, 
    {
      "op": "BatchNorm", 
      "name": "batchnorm96", 
      "inputs": [[909, 0, 0], [910, 0, 0], [911, 0, 0], [912, 0, 1], [913, 0, 1]]
    }, 
    {
      "op": "Activation", 
      "name": "activation96", 
      "attr": {"act_type": "relu"}, 
      "inputs": [[914, 0, 0]]
    }, 
    {
      "op": "null", 
      "name": "convolution97_weight", 
      "attr": {
        "kernel": "(1, 1)", 
        "num_filter": "129", 
        "pad": "(0, 0)", 
        "stride": "(1, 1)"
      }, 
      "inputs": []
    }, 
    {
      "op": "null", 
      "name": "convolution97_bias", 
      "attr": {
        "kernel": "(1, 1)", 
        "num_filter": "129", 
        "pad": "(0, 0)", 
        "stride": "(1, 1)"
      }, 
      "inputs": []
    }, 
    {
      "op": "Convolution", 
      "name": "convolution97", 
      "attr": {
        "kernel": "(1, 1)", 
        "num_filter": "129", 
        "pad": "(0, 0)", 
        "stride": "(1, 1)"
      }, 
      "inputs": [[906, 0, 0], [916, 0, 0], [917, 0, 0]]
    }, 
    {
      "op": "null", 
      "name": "batchnorm97_gamma", 
      "inputs": []
    }, 
    {
      "op": "null", 
      "name": "batchnorm97_beta", 
      "inputs": []
    }, 
    {
      "op": "null", 
      "name": "batchnorm97_moving_mean", 
      "inputs": []
    }, 
    {
      "op": "null", 
      "name": "batchnorm97_moving_var", 
      "inputs": []
    }, 
    {
      "op": "BatchNorm", 
      "name": "batchnorm97", 
      "inputs": [[918, 0, 0], [919, 0, 0], [920, 0, 0], [921, 0, 1], [922, 0, 1]]
    }, 
    {
      "op": "Activation", 
      "name": "activation97", 
      "attr": {"act_type": "relu"}, 
      "inputs": [[923, 0, 0]]
    }, 
    {
      "op": "null", 
      "name": "convolution98_weight", 
      "attr": {
        "kernel": "(1, 7)", 
        "num_filter": "160", 
        "pad": "(1, 2)", 
        "stride": "(1, 1)"
      }, 
      "inputs": []
    }, 
    {
      "op": "null", 
      "name": "convolution98_bias", 
      "attr": {
        "kernel": "(1, 7)", 
        "num_filter": "160", 
        "pad": "(1, 2)", 
        "stride": "(1, 1)"
      }, 
      "inputs": []
    }, 
    {
      "op": "Convolution", 
      "name": "convolution98", 
      "attr": {
        "kernel": "(1, 7)", 
        "num_filter": "160", 
        "pad": "(1, 2)", 
        "stride": "(1, 1)"
      }, 
      "inputs": [[924, 0, 0], [925, 0, 0], [926, 0, 0]]
    }, 
    {
      "op": "null", 
      "name": "batchnorm98_gamma", 
      "inputs": []
    }, 
    {
      "op": "null", 
      "name": "batchnorm98_beta", 
      "inputs": []
    }, 
    {
      "op": "null", 
      "name": "batchnorm98_moving_mean", 
      "inputs": []
    }, 
    {
      "op": "null", 
      "name": "batchnorm98_moving_var", 
      "inputs": []
    }, 
    {
      "op": "BatchNorm", 
      "name": "batchnorm98", 
      "inputs": [[927, 0, 0], [928, 0, 0], [929, 0, 0], [930, 0, 1], [931, 0, 1]]
    }, 
    {
      "op": "Activation", 
      "name": "activation98", 
      "attr": {"act_type": "relu"}, 
      "inputs": [[932, 0, 0]]
    }, 
    {
      "op": "null", 
      "name": "convolution99_weight", 
      "attr": {
        "kernel": "(7, 1)", 
        "num_filter": "192", 
        "pad": "(2, 1)", 
        "stride": "(1, 1)"
      }, 
      "inputs": []
    }, 
    {
      "op": "null", 
      "name": "convolution99_bias", 
      "attr": {
        "kernel": "(7, 1)", 
        "num_filter": "192", 
        "pad": "(2, 1)", 
        "stride": "(1, 1)"
      }, 
      "inputs": []
    }, 
    {
      "op": "Convolution", 
      "name": "convolution99", 
      "attr": {
        "kernel": "(7, 1)", 
        "num_filter": "192", 
        "pad": "(2, 1)", 
        "stride": "(1, 1)"
      }, 
      "inputs": [[933, 0, 0], [934, 0, 0], [935, 0, 0]]
    }, 
    {
      "op": "null", 
      "name": "batchnorm99_gamma", 
      "inputs": []
    }, 
    {
      "op": "null", 
      "name": "batchnorm99_beta", 
      "inputs": []
    }, 
    {
      "op": "null", 
      "name": "batchnorm99_moving_mean", 
      "inputs": []
    }, 
    {
      "op": "null", 
      "name": "batchnorm99_moving_var", 
      "inputs": []
    }, 
    {
      "op": "BatchNorm", 
      "name": "batchnorm99", 
      "inputs": [[936, 0, 0], [937, 0, 0], [938, 0, 0], [939, 0, 1], [940, 0, 1]]
    }, 
    {
      "op": "Activation", 
      "name": "activation99", 
      "attr": {"act_type": "relu"}, 
      "inputs": [[941, 0, 0]]
    }, 
    {
      "op": "Concat", 
      "name": "concat14", 
      "attr": {"num_args": "2"}, 
      "inputs": [[915, 0, 0], [942, 0, 0]]
    }, 
    {
      "op": "null", 
      "name": "convolution100_weight", 
      "attr": {
        "kernel": "(1, 1)", 
        "num_filter": "1088", 
        "pad": "(0, 0)", 
        "stride": "(1, 1)"
      }, 
      "inputs": []
    }, 
    {
      "op": "null", 
      "name": "convolution100_bias", 
      "attr": {
        "kernel": "(1, 1)", 
        "num_filter": "1088", 
        "pad": "(0, 0)", 
        "stride": "(1, 1)"
      }, 
      "inputs": []
    }, 
    {
      "op": "Convolution", 
      "name": "convolution100", 
      "attr": {
        "kernel": "(1, 1)", 
        "num_filter": "1088", 
        "pad": "(0, 0)", 
        "stride": "(1, 1)"
      }, 
      "inputs": [[943, 0, 0], [944, 0, 0], [945, 0, 0]]
    }, 
    {
      "op": "null", 
      "name": "batchnorm100_gamma", 
      "inputs": []
    }, 
    {
      "op": "null", 
      "name": "batchnorm100_beta", 
      "inputs": []
    }, 
    {
      "op": "null", 
      "name": "batchnorm100_moving_mean", 
      "inputs": []
    }, 
    {
      "op": "null", 
      "name": "batchnorm100_moving_var", 
      "inputs": []
    }, 
    {
      "op": "BatchNorm", 
      "name": "batchnorm100", 
      "inputs": [[946, 0, 0], [947, 0, 0], [948, 0, 0], [949, 0, 1], [950, 0, 1]]
    }, 
    {
      "op": "_mul_scalar", 
      "name": "_mulscalar12", 
      "attr": {"scalar": "0.1"}, 
      "inputs": [[951, 0, 0]]
    }, 
    {
      "op": "elemwise_add", 
      "name": "_plus12", 
      "inputs": [[906, 0, 0], [952, 0, 0]]
    }, 
    {
      "op": "Activation", 
      "name": "activation100", 
      "attr": {"act_type": "relu"}, 
      "inputs": [[953, 0, 0]]
    }, 
    {
      "op": "null", 
      "name": "convolution101_weight", 
      "attr": {
        "kernel": "(1, 1)", 
        "num_filter": "192", 
        "pad": "(0, 0)", 
        "stride": "(1, 1)"
      }, 
      "inputs": []
    }, 
    {
      "op": "null", 
      "name": "convolution101_bias", 
      "attr": {
        "kernel": "(1, 1)", 
        "num_filter": "192", 
        "pad": "(0, 0)", 
        "stride": "(1, 1)"
      }, 
      "inputs": []
    }, 
    {
      "op": "Convolution", 
      "name": "convolution101", 
      "attr": {
        "kernel": "(1, 1)", 
        "num_filter": "192", 
        "pad": "(0, 0)", 
        "stride": "(1, 1)"
      }, 
      "inputs": [[954, 0, 0], [955, 0, 0], [956, 0, 0]]
    }, 
    {
      "op": "null", 
      "name": "batchnorm101_gamma", 
      "inputs": []
    }, 
    {
      "op": "null", 
      "name": "batchnorm101_beta", 
      "inputs": []
    }, 
    {
      "op": "null", 
      "name": "batchnorm101_moving_mean", 
      "inputs": []
    }, 
    {
      "op": "null", 
      "name": "batchnorm101_moving_var", 
      "inputs": []
    }, 
    {
      "op": "BatchNorm", 
      "name": "batchnorm101", 
      "inputs": [[957, 0, 0], [958, 0, 0], [959, 0, 0], [960, 0, 1], [961, 0, 1]]
    }, 
    {
      "op": "Activation", 
      "name": "activation101", 
      "attr": {"act_type": "relu"}, 
      "inputs": [[962, 0, 0]]
    }, 
    {
      "op": "null", 
      "name": "convolution102_weight", 
      "attr": {
        "kernel": "(1, 1)", 
        "num_filter": "129", 
        "pad": "(0, 0)", 
        "stride": "(1, 1)"
      }, 
      "inputs": []
    }, 
    {
      "op": "null", 
      "name": "convolution102_bias", 
      "attr": {
        "kernel": "(1, 1)", 
        "num_filter": "129", 
        "pad": "(0, 0)", 
        "stride": "(1, 1)"
      }, 
      "inputs": []
    }, 
    {
      "op": "Convolution", 
      "name": "convolution102", 
      "attr": {
        "kernel": "(1, 1)", 
        "num_filter": "129", 
        "pad": "(0, 0)", 
        "stride": "(1, 1)"
      }, 
      "inputs": [[954, 0, 0], [964, 0, 0], [965, 0, 0]]
    }, 
    {
      "op": "null", 
      "name": "batchnorm102_gamma", 
      "inputs": []
    }, 
    {
      "op": "null", 
      "name": "batchnorm102_beta", 
      "inputs": []
    }, 
    {
      "op": "null", 
      "name": "batchnorm102_moving_mean", 
      "inputs": []
    }, 
    {
      "op": "null", 
      "name": "batchnorm102_moving_var", 
      "inputs": []
    }, 
    {
      "op": "BatchNorm", 
      "name": "batchnorm102", 
      "inputs": [[966, 0, 0], [967, 0, 0], [968, 0, 0], [969, 0, 1], [970, 0, 1]]
    }, 
    {
      "op": "Activation", 
      "name": "activation102", 
      "attr": {"act_type": "relu"}, 
      "inputs": [[971, 0, 0]]
    }, 
    {
      "op": "null", 
      "name": "convolution103_weight", 
      "attr": {
        "kernel": "(1, 7)", 
        "num_filter": "160", 
        "pad": "(1, 2)", 
        "stride": "(1, 1)"
      }, 
      "inputs": []
    }, 
    {
      "op": "null", 
      "name": "convolution103_bias", 
      "attr": {
        "kernel": "(1, 7)", 
        "num_filter": "160", 
        "pad": "(1, 2)", 
        "stride": "(1, 1)"
      }, 
      "inputs": []
    }, 
    {
      "op": "Convolution", 
      "name": "convolution103", 
      "attr": {
        "kernel": "(1, 7)", 
        "num_filter": "160", 
        "pad": "(1, 2)", 
        "stride": "(1, 1)"
      }, 
      "inputs": [[972, 0, 0], [973, 0, 0], [974, 0, 0]]
    }, 
    {
      "op": "null", 
      "name": "batchnorm103_gamma", 
      "inputs": []
    }, 
    {
      "op": "null", 
…
        "kernel": "(1, 1)", 
        "num_filter": "192", 
        "pad": "(0, 0)", 
        "stride": "(1, 1)"
      }, 
      "inputs": []
    }, 
    {
      "op": "null", 
      "name": "convolution238_bias", 
      "attr": {
        "kernel": "(1, 1)", 
        "num_filter": "192", 
        "pad": "(0, 0)", 
        "stride": "(1, 1)"
      }, 
      "inputs": []
    }, 
    {
      "op": "Convolution", 
      "name": "convolution238", 
      "attr": {
        "kernel": "(1, 1)", 
        "num_filter": "192", 
        "pad": "(0, 0)", 
        "stride": "(1, 1)"
      }, 
      "inputs": [[2267, 0, 0], [2268, 0, 0], [2269, 0, 0]]
    }, 
    {
      "op": "null", 
      "name": "batchnorm238_gamma", 
      "inputs": []
    }, 
    {
      "op": "null", 
      "name": "batchnorm238_beta", 
      "inputs": []
    }, 
    {
      "op": "null", 
      "name": "batchnorm238_moving_mean", 
      "inputs": []
    }, 
    {
      "op": "null", 
      "name": "batchnorm238_moving_var", 
      "inputs": []
    }, 
    {
      "op": "BatchNorm", 
      "name": "batchnorm238", 
      "inputs": [[2270, 0, 0], [2271, 0, 0], [2272, 0, 0], [2273, 0, 1], [2274, 0, 1]]
    }, 
    {
      "op": "Activation", 
      "name": "activation238", 
      "attr": {"act_type": "relu"}, 
      "inputs": [[2275, 0, 0]]
    }, 
    {
      "op": "null", 
      "name": "convolution239_weight", 
      "attr": {
        "kernel": "(1, 1)", 
        "num_filter": "192", 
        "pad": "(0, 0)", 
        "stride": "(1, 1)"
      }, 
      "inputs": []
    }, 
    {
      "op": "null", 
      "name": "convolution239_bias", 
      "attr": {
        "kernel": "(1, 1)", 
        "num_filter": "192", 
        "pad": "(0, 0)", 
        "stride": "(1, 1)"
      }, 
      "inputs": []
    }, 
    {
      "op": "Convolution", 
      "name": "convolution239", 
      "attr": {
        "kernel": "(1, 1)", 
        "num_filter": "192", 
        "pad": "(0, 0)", 
        "stride": "(1, 1)"
      }, 
      "inputs": [[2267, 0, 0], [2277, 0, 0], [2278, 0, 0]]
    }, 
    {
      "op": "null", 
      "name": "batchnorm239_gamma", 
      "inputs": []
    }, 
    {
      "op": "null", 
      "name": "batchnorm239_beta", 
      "inputs": []
    }, 
    {
      "op": "null", 
      "name": "batchnorm239_moving_mean", 
      "inputs": []
    }, 
    {
      "op": "null", 
      "name": "batchnorm239_moving_var", 
      "inputs": []
    }, 
    {
      "op": "BatchNorm", 
      "name": "batchnorm239", 
      "inputs": [[2279, 0, 0], [2280, 0, 0], [2281, 0, 0], [2282, 0, 1], [2283, 0, 1]]
    }, 
    {
      "op": "Activation", 
      "name": "activation239", 
      "attr": {"act_type": "relu"}, 
      "inputs": [[2284, 0, 0]]
    }, 
    {
      "op": "null", 
      "name": "convolution240_weight", 
      "attr": {
        "kernel": "(1, 3)", 
        "num_filter": "224", 
        "pad": "(0, 1)", 
        "stride": "(1, 1)"
      }, 
      "inputs": []
    }, 
    {
      "op": "null", 
      "name": "convolution240_bias", 
      "attr": {
        "kernel": "(1, 3)", 
        "num_filter": "224", 
        "pad": "(0, 1)", 
        "stride": "(1, 1)"
      }, 
      "inputs": []
    }, 
    {
      "op": "Convolution", 
      "name": "convolution240", 
      "attr": {
        "kernel": "(1, 3)", 
        "num_filter": "224", 
        "pad": "(0, 1)", 
        "stride": "(1, 1)"
      }, 
      "inputs": [[2285, 0, 0], [2286, 0, 0], [2287, 0, 0]]
    }, 
    {
      "op": "null", 
      "name": "batchnorm240_gamma", 
      "inputs": []
    }, 
    {
      "op": "null", 
      "name": "batchnorm240_beta", 
      "inputs": []
    }, 
    {
      "op": "null", 
      "name": "batchnorm240_moving_mean", 
      "inputs": []
    }, 
    {
      "op": "null", 
      "name": "batchnorm240_moving_var", 
      "inputs": []
    }, 
    {
      "op": "BatchNorm", 
      "name": "batchnorm240", 
      "inputs": [[2288, 0, 0], [2289, 0, 0], [2290, 0, 0], [2291, 0, 1], [2292, 0, 1]]
    }, 
    {
      "op": "Activation", 
      "name": "activation240", 
      "attr": {"act_type": "relu"}, 
      "inputs": [[2293, 0, 0]]
    }, 
    {
      "op": "null", 
      "name": "convolution241_weight", 
      "attr": {
        "kernel": "(3, 1)", 
        "num_filter": "256", 
        "pad": "(1, 0)", 
        "stride": "(1, 1)"
      }, 
      "inputs": []
    }, 
    {
      "op": "null", 
      "name": "convolution241_bias", 
      "attr": {
        "kernel": "(3, 1)", 
        "num_filter": "256", 
        "pad": "(1, 0)", 
        "stride": "(1, 1)"
      }, 
      "inputs": []
    }, 
    {
      "op": "Convolution", 
      "name": "convolution241", 
      "attr": {
        "kernel": "(3, 1)", 
        "num_filter": "256", 
        "pad": "(1, 0)", 
        "stride": "(1, 1)"
      }, 
      "inputs": [[2294, 0, 0], [2295, 0, 0], [2296, 0, 0]]
    }, 
    {
      "op": "null", 
      "name": "batchnorm241_gamma", 
      "inputs": []
    }, 
    {
      "op": "null", 
      "name": "batchnorm241_beta", 
      "inputs": []
    }, 
    {
      "op": "null", 
      "name": "batchnorm241_moving_mean", 
      "inputs": []
    }, 
    {
      "op": "null", 
      "name": "batchnorm241_moving_var", 
      "inputs": []
    }, 
    {
      "op": "BatchNorm", 
      "name": "batchnorm241", 
      "inputs": [[2297, 0, 0], [2298, 0, 0], [2299, 0, 0], [2300, 0, 1], [2301, 0, 1]]
    }, 
    {
      "op": "Activation", 
      "name": "activation241", 
      "attr": {"act_type": "relu"}, 
      "inputs": [[2302, 0, 0]]
    }, 
    {
      "op": "Concat", 
      "name": "concat42", 
      "attr": {"num_args": "2"}, 
      "inputs": [[2276, 0, 0], [2303, 0, 0]]
    }, 
    {
      "op": "null", 
      "name": "convolution242_weight", 
      "attr": {
        "kernel": "(1, 1)", 
        "num_filter": "2080", 
        "pad": "(0, 0)", 
        "stride": "(1, 1)"
      }, 
      "inputs": []
    }, 
    {
      "op": "null", 
      "name": "convolution242_bias", 
      "attr": {
        "kernel": "(1, 1)", 
        "num_filter": "2080", 
        "pad": "(0, 0)", 
        "stride": "(1, 1)"
      }, 
      "inputs": []
    }, 
    {
      "op": "Convolution", 
      "name": "convolution242", 
      "attr": {
        "kernel": "(1, 1)", 
        "num_filter": "2080", 
        "pad": "(0, 0)", 
        "stride": "(1, 1)"
      }, 
      "inputs": [[2304, 0, 0], [2305, 0, 0], [2306, 0, 0]]
    }, 
    {
      "op": "null", 
      "name": "batchnorm242_gamma", 
      "inputs": []
    }, 
    {
      "op": "null", 
      "name": "batchnorm242_beta", 
      "inputs": []
    }, 
    {
      "op": "null", 
      "name": "batchnorm242_moving_mean", 
      "inputs": []
    }, 
    {
      "op": "null", 
      "name": "batchnorm242_moving_var", 
      "inputs": []
    }, 
    {
      "op": "BatchNorm", 
      "name": "batchnorm242", 
      "inputs": [[2307, 0, 0], [2308, 0, 0], [2309, 0, 0], [2310, 0, 1], [2311, 0, 1]]
    }, 
    {
      "op": "_mul_scalar", 
      "name": "_mulscalar39", 
      "attr": {"scalar": "1.0"}, 
      "inputs": [[2312, 0, 0]]
    }, 
    {
      "op": "elemwise_add", 
      "name": "_plus39", 
      "inputs": [[2267, 0, 0], [2313, 0, 0]]
    }, 
    {
      "op": "null", 
      "name": "convolution243_weight", 
      "attr": {
        "kernel": "(1, 1)", 
        "num_filter": "1536", 
        "pad": "(0, 0)", 
        "stride": "(1, 1)"
      }, 
      "inputs": []
    }, 
    {
      "op": "null", 
      "name": "convolution243_bias", 
      "attr": {
        "kernel": "(1, 1)", 
        "num_filter": "1536", 
        "pad": "(0, 0)", 
        "stride": "(1, 1)"
      }, 
      "inputs": []
    }, 
    {
      "op": "Convolution", 
      "name": "convolution243", 
      "attr": {
        "kernel": "(1, 1)", 
        "num_filter": "1536", 
        "pad": "(0, 0)", 
        "stride": "(1, 1)"
      }, 
      "inputs": [[2314, 0, 0], [2315, 0, 0], [2316, 0, 0]]
    }, 
    {
      "op": "null", 
      "name": "batchnorm243_gamma", 
      "inputs": []
    }, 
    {
      "op": "null", 
      "name": "batchnorm243_beta", 
      "inputs": []
    }, 
    {
      "op": "null", 
      "name": "batchnorm243_moving_mean", 
      "inputs": []
    }, 
    {
      "op": "null", 
      "name": "batchnorm243_moving_var", 
      "inputs": []
    }, 
    {
      "op": "BatchNorm", 
      "name": "batchnorm243", 
      "inputs": [[2317, 0, 0], [2318, 0, 0], [2319, 0, 0], [2320, 0, 1], [2321, 0, 1]]
    }, 
    {
      "op": "Activation", 
      "name": "activation242", 
      "attr": {"act_type": "relu"}, 
      "inputs": [[2322, 0, 0]]
    }, 
    {
      "op": "Pooling", 
      "name": "pooling5", 
      "attr": {
        "global_pool": "True", 
        "kernel": "(1, 1)", 
        "pool_type": "avg", 
        "stride": "(2, 2)"
      }, 
      "inputs": [[2323, 0, 0]]
    }, 
    {
      "op": "Flatten", 
      "name": "flatten0", 
      "inputs": [[2324, 0, 0]]
    }, 
    {
      "op": "Dropout", 
      "name": "dropout0", 
      "attr": {"p": "0.2"}, 
      "inputs": [[2325, 0, 0]]
    }, 
    {
      "op": "null", 
      "name": "fullyconnected0_weight", 
      "attr": {"num_hidden": "20"}, 
      "inputs": []
    }, 
    {
      "op": "null", 
      "name": "fullyconnected0_bias", 
      "attr": {"num_hidden": "20"}, 
      "inputs": []
    }, 
    {
      "op": "FullyConnected", 
      "name": "fullyconnected0", 
      "attr": {"num_hidden": "20"}, 
      "inputs": [[2326, 0, 0], [2327, 0, 0], [2328, 0, 0]]
    }, 
    {
      "op": "null", 
      "name": "softmax_label", 
      "inputs": []
    }, 
    {
      "op": "SoftmaxOutput", 
      "name": "softmax", 
      "inputs": [[2329, 0, 0], [2330, 0, 0]]
    }
  ], 
  "arg_nodes": [
    0, 
    1, 
    2, 
    4, 
    5, 
    6, 
    7, 
    10, 
    11, 
    13, 
    14, 
    15, 
    16, 
    19, 
    20, 
    22, 
    23, 
    24, 
    25, 
    29, 
    30, 
    32, 
    33, 
    34, 
    35, 
    38, 
    39, 
    41, 
    42, 
    43, 
    44, 
    48, 
    49, 
    51, 
    52, 
    53, 
    54, 
    57, 
    58, 
    60, 
    61, 
    62, 
    63, 
    66, 
    67, 
    69, 
    70, 
    71, 
    72, 
    75, 
    76, 
    78, 
    79, 
    80, 
    81, 
    84, 
    85, 
    87, 
    88, 
    89, 
    90, 
    93, 
    94, 
    96, 
    97, 
    98, 
    99, 
    103, 
    104, 
    106, 
    107, 
    108, 
    109, 
    113, 
    114, 
    116, 
    117, 
    118, 
    119, 
    122, 
    123, 
    125, 
    126, 
    127, 
    128, 
    131, 
    132, 
    134, 
    135, 
    136, 
    137, 
    140, 
    141, 
    143, 
    144, 
    145, 
    146, 
    149, 
    150, 
    152, 
    153, 
    154, 
    155, 
    158, 
    159, 
    161, 
    162, 
    163, 
    164, 
    168, 
    169, 
    171, 
    172, 
    173, 
    174, 
    179, 
    180, 
    182, 
    183, 
    184, 
    185, 
    188, 
    189, 
    191, 
    192, 
    193, 
    194, 
    197, 
    198, 
    200, 
    201, 
    202, 
    203, 
    206, 
    207, 
    209, 
    210, 
    211, 
    212, 
    215, 
    216, 
    218, 
    219, 
    220, 
    221, 
    224, 
    225, 
    227, 
    228, 
    229, 
    230, 
    234, 
    235, 
    237, 
    238, 
    239, 
    240, 
    245, 
    246, 
    248, 
    249, 
    250, 
    251, 
    254, 
    255, 
    257, 
    258, 
    259, 
    260, 
    263, 
    264, 
    266, 
    267, 
    268, 
    269, 
    272, 
    273, 
    275, 
    276, 
    277, 
    278, 
    281, 
    282, 
    284, 
    285, 
    286, 
    287, 
    290, 
    291, 
    293, 
    294, 
    295, 
    296, 
    300, 
    301, 
    303, 
    304, 
    305, 
    306, 
    311, 
    312, 
    314, 
    315, 
    316, 
    317, 
    320, 
    321, 
    323, 
    324, 
    325, 
    326, 
    329, 
    330, 
    332, 
    333, 
    334, 
    335, 
    338, 
    339, 
    341, 
    342, 
    343, 
    344, 
    347, 
    348, 
    350, 
    351, 
    352, 
    353, 
    356, 
    357, 
    359, 
    360, 
    361, 
    362, 
    366, 
    367, 
    369, 
    370, 
    371, 
    372, 
    377, 
    378, 
    380, 
    381, 
    382, 
    383, 
    386, 
    387, 
    389, 
    390, 
    391, 
    392, 
    395, 
    396, 
    398, 
    399, 
    400, 
    401, 
    404, 
    405, 
    407, 
    408, 
    409, 
    410, 
    413, 
    414, 
    416, 
    417, 
    418, 
    419, 
    422, 
    423, 
    425, 
    426, 
    427, 
    428, 
    432, 
    433, 
    435, 
    436, 
    437, 
    438, 
    443, 
    444, 
    446, 
    447, 
    448, 
    449, 
    452, 
    453, 
    455, 
    456, 
    457, 
    458, 
    461, 
    462, 
    464, 
    465, 
    466, 
    467, 
    470, 
    471, 
    473, 
    474, 
    475, 
    476, 
    479, 
    480, 
    482, 
    483, 
    484, 
    485, 
    488, 
    489, 
    491, 
    492, 
    493, 
    494, 
    498, 
    499, 
    501, 
    502, 
    503, 
    504, 
    509, 
    510, 
    512, 
    513, 
    514, 
    515, 
    518, 
    519, 
    521, 
    522, 
    523, 
    524, 
    527, 
    528, 
    530, 
    531, 
    532, 
    533, 
    536, 
    537, 
    539, 
    540, 
    541, 
    542, 
    545, 
    546, 
    548, 
    549, 
    550, 
    551, 
    554, 
    555, 
    557, 
    558, 
    559, 
    560, 
    564, 
    565, 
    567, 
    568, 
    569, 
    570, 
    575, 
    576, 
    578, 
    579, 
    580, 
    581, 
    584, 
    585, 
    587, 
    588, 
    589, 
    590, 
    593, 
    594, 
    596, 
    597, 
    598, 
    599, 
    602, 
    603, 
    605, 
    606, 
    607, 
    608, 
    611, 
    612, 
    614, 
    615, 
    616, 
    617, 
    620, 
    621, 
    623, 
    624, 
    625, 
    626, 
    630, 
    631, 
    633, 
    634, 
    635, 
    636, 
    641, 
    642, 
    644, 
    645, 
    646, 
    647, 
    650, 
    651, 
    653, 
    654, 
    655, 
    656, 
    659, 
    660, 
    662, 
    663, 
    664, 
    665, 
    668, 
    669, 
    671, 
    672, 
    673, 
    674, 
    677, 
    678, 
    680, 
    681, 
    682, 
    683, 
    686, 
    687, 
    689, 
    690, 
    691, 
    692, 
    696, 
    697, 
    699, 
    700, 
    701, 
    702, 
    707, 
    708, 
    710, 
    711, 
    712, 
    713, 
    716, 
    717, 
    719, 
    720, 
    721, 
    722, 
    725, 
    726, 
    728, 
    729, 
    730, 
    731, 
    734, 
    735, 
    737, 
    738, 
    739, 
    740, 
    743, 
    744, 
    746, 
    747, 
    748, 
    749, 
    752, 
    753, 
    755, 
    756, 
    757, 
    758, 
    762, 
    763, 
    765, 
    766, 
    767, 
    768, 
    773, 
    774, 
    776, 
    777, 
    778, 
    779, 
    782, 
    783, 
    785, 
    786, 
    787, 
    788, 
    791, 
    792, 
    794, 
    795, 
    796, 
    797, 
    800, 
    801, 
    803, 
    804, 
    805, 
    806, 
    811, 
    812, 
    814, 
    815, 
    816, 
    817, 
    820, 
    821, 
    823, 
    824, 
    825, 
    826, 
    829, 
    830, 
    832, 
    833, 
    834, 
    835, 
    838, 
    839, 
    841, 
    842, 
    843, 
    844, 
    848, 
    849, 
    851, 
    852, 
    853, 
    854, 
    859, 
    860, 
    862, 
    863, 
    864, 
    865, 
    868, 
    869, 
    871, 
    872, 
    873, 
    874, 
    877, 
    878, 
    880, 
    881, 
    882, 
    883, 
    886, 
    887, 
    889, 
    890, 
    891, 
    892, 
    896, 
    897, 
    899, 
    900, 
    901, 
    902, 
    907, 
    908, 
    910, 
    911, 
    912, 
    913, 
    916, 
    917, 
    919, 
    920, 
    921, 
    922, 
    925, 
    926, 
    928, 
    929, 
    930, 
    931, 
    934, 
    935, 
    937, 
    938, 
    939, 
    940, 
    944, 
    945, 
    947, 
    948, 
    949, 
    950, 
    955, 
    956, 
    958, 
    959, 
    960, 
    961, 
    964, 
    965, 
    967, 
    968, 
    969, 
    970, 
    973, 
    974, 
    976, 
    977, 
    978, 
    979, 
    982, 
    983, 
    985, 
    986, 
    987, 
    988, 
    992, 
    993, 
    995, 
    996, 
    997, 
    998, 
    1003, 
    1004, 
    1006, 
    1007, 
    1008, 
    1009, 
    1012, 
    1013, 
    1015, 
    1016, 
    1017, 
    1018, 
    1021, 
    1022, 
    1024, 
    1025, 
    1026, 
    1027, 
    1030, 
    1031, 
    1033, 
    1034, 
    1035, 
    1036, 
    1040, 
    1041, 
    1043, 
    1044, 
    1045, 
    1046, 
    1051, 
    1052, 
    1054, 
    1055, 
    1056, 
    1057, 
    1060, 
    1061, 
    1063, 
    1064, 
    1065, 
    1066, 
    1069, 
    1070, 
    1072, 
    1073, 
    1074, 
    1075, 
    1078, 
    1079, 
    1081, 
    1082, 
    1083, 
    1084, 
    1088, 
    1089, 
    1091, 
    1092, 
    1093, 
    1094, 
    1099, 
    1100, 
    1102, 
    1103, 
    1104, 
    1105, 
    1108, 
    1109, 
    1111, 
    1112, 
    1113, 
    1114, 
    1117, 
    1118, 
    1120, 
    1121, 
    1122, 
    1123, 
    1126, 
    1127, 
    1129, 
    1130, 
    1131, 
    1132, 
    1136, 
    1137, 
    1139, 
    1140, 
    1141, 
    1142, 
    1147, 
    1148, 
    1150, 
    1151, 
    1152, 
    1153, 
    1156, 
    1157, 
    1159, 
    1160, 
    1161, 
    1162, 
    1165, 
    1166, 
    1168, 
    1169, 
    1170, 
    1171, 
    1174, 
    1175, 
    1177, 
    1178, 
    1179, 
    1180, 
    1184, 
    1185, 
    1187, 
    1188, 
    1189, 
    1190, 
    1195, 
    1196, 
    1198, 
    1199, 
    1200, 
    1201, 
    1204, 
    1205, 
    1207, 
    1208, 
    1209, 
    1210, 
    1213, 
    1214, 
    1216, 
    1217, 
    1218, 
    1219, 
    1222, 
    1223, 
    1225, 
    1226, 
    1227, 
    1228, 
    1232, 
    1233, 
    1235, 
    1236, 
    1237, 
    1238, 
    1243, 
    1244, 
    1246, 
    1247, 
    1248, 
    1249, 
    1252, 
    1253, 
    1255, 
    1256, 
    1257, 
    1258, 
    1261, 
    1262, 
    1264, 
    1265, 
    1266, 
    1267, 
    1270, 
    1271, 
    1273, 
    1274, 
    1275, 
    1276, 
    1280, 
    1281, 
    1283, 
    1284, 
    1285, 
    1286, 
    1291, 
    1292, 
    1294, 
    1295, 
    1296, 
    1297, 
    1300, 
    1301, 
    1303, 
    1304, 
    1305, 
    1306, 
    1309, 
    1310, 
    1312, 
    1313, 
    1314, 
    1315, 
    1318, 
    1319, 
    1321, 
    1322, 
    1323, 
    1324, 
    1328, 
    1329, 
    1331, 
    1332, 
    1333, 
    1334, 
    1339, 
    1340, 
    1342, 
    1343, 
    1344, 
    1345, 
    1348, 
    1349, 
    1351, 
    1352, 
    1353, 
    1354, 
    1357, 
    1358, 
    1360, 
    1361, 
    1362, 
    1363, 
    1366, 
    1367, 
    1369, 
    1370, 
    1371, 
    1372, 
    1376, 
    1377, 
    1379, 
    1380, 
    1381, 
    1382, 
    1387, 
    1388, 
    1390, 
    1391, 
    1392, 
    1393, 
    1396, 
    1397, 
    1399, 
    1400, 
    1401, 
    1402, 
    1405, 
    1406, 
    1408, 
    1409, 
    1410, 
    1411, 
    1414, 
    1415, 
    1417, 
    1418, 
    1419, 
    1420, 
    1424, 
    1425, 
    1427, 
    1428, 
    1429, 
    1430, 
    1435, 
    1436, 
    1438, 
    1439, 
    1440, 
    1441, 
    1444, 
    1445, 
    1447, 
    1448, 
    1449, 
    1450, 
    1453, 
    1454, 
    1456, 
    1457, 
    1458, 
    1459, 
    1462, 
    1463, 
    1465, 
    1466, 
    1467, 
    1468, 
    1472, 
    1473, 
    1475, 
    1476, 
    1477, 
    1478, 
    1483, 
    1484, 
    1486, 
    1487, 
    1488, 
    1489, 
    1492, 
    1493, 
    1495, 
    1496, 
    1497, 
    1498, 
    1501, 
    1502, 
    1504, 
    1505, 
    1506, 
    1507, 
    1510, 
    1511, 
    1513, 
    1514, 
    1515, 
    1516, 
    1520, 
    1521, 
    1523, 
    1524, 
    1525, 
    1526, 
    1531, 
    1532, 
    1534, 
    1535, 
    1536, 
    1537, 
    1540, 
    1541, 
    1543, 
    1544, 
    1545, 
    1546, 
    1549, 
    1550, 
    1552, 
    1553, 
    1554, 
    1555, 
    1558, 
    1559, 
    1561, 
    1562, 
    1563, 
    1564, 
    1568, 
    1569, 
    1571, 
    1572, 
    1573, 
    1574, 
    1579, 
    1580, 
    1582, 
    1583, 
    1584, 
    1585, 
    1588, 
    1589, 
    1591, 
    1592, 
    1593, 
    1594, 
    1597, 
    1598, 
    1600, 
    1601, 
    1602, 
    1603, 
    1606, 
    1607, 
    1609, 
    1610, 
    1611, 
    1612, 
    1616, 
    1617, 
    1619, 
    1620, 
    1621, 
    1622, 
    1627, 
    1628, 
    1630, 
    1631, 
    1632, 
    1633, 
    1636, 
    1637, 
    1639, 
    1640, 
    1641, 
    1642, 
    1645, 
    1646, 
    1648, 
    1649, 
    1650, 
    1651, 
    1654, 
    1655, 
    1657, 
    1658, 
    1659, 
    1660, 
    1664, 
    1665, 
    1667, 
    1668, 
    1669, 
    1670, 
    1675, 
    1676, 
    1678, 
    1679, 
    1680, 
    1681, 
    1684, 
    1685, 
    1687, 
    1688, 
    1689, 
    1690, 
    1693, 
    1694, 
    1696, 
    1697, 
    1698, 
    1699, 
    1702, 
    1703, 
    1705, 
    1706, 
    1707, 
    1708, 
    1712, 
    1713, 
    1715, 
    1716, 
    1717, 
    1718, 
    1723, 
    1724, 
    1726, 
    1727, 
    1728, 
    1729, 
    1732, 
    1733, 
    1735, 
    1736, 
    1737, 
    1738, 
    1741, 
    1742, 
    1744, 
    1745, 
    1746, 
    1747, 
    1750, 
    1751, 
    1753, 
    1754, 
    1755, 
    1756, 
    1760, 
    1761, 
    1763, 
    1764, 
    1765, 
    1766, 
    1771, 
    1772, 
    1774, 
    1775, 
    1776, 
    1777, 
    1780, 
    1781, 
    1783, 
    1784, 
    1785, 
    1786, 
    1789, 
    1790, 
    1792, 
    1793, 
    1794, 
    1795, 
    1798, 
    1799, 
    1801, 
    1802, 
    1803, 
    1804, 
    1807, 
    1808, 
    1810, 
    1811, 
    1812, 
    1813, 
    1816, 
    1817, 
    1819, 
    1820, 
    1821, 
    1822, 
    1825, 
    1826, 
    1828, 
    1829, 
    1830, 
    1831, 
    1836, 
    1837, 
    1839, 
    1840, 
    1841, 
    1842, 
    1845, 
    1846, 
    1848, 
    1849, 
    1850, 
    1851, 
    1854, 
    1855, 
    1857, 
    1858, 
    1859, 
    1860, 
    1863, 
    1864, 
    1866, 
    1867, 
    1868, 
    1869, 
    1873, 
    1874, 
    1876, 
    1877, 
    1878, 
    1879, 
    1884, 
    1885, 
    1887, 
    1888, 
    1889, 
    1890, 
    1893, 
    1894, 
    1896, 
    1897, 
    1898, 
    1899, 
    1902, 
    1903, 
    1905, 
    1906, 
    1907, 
    1908, 
    1911, 
    1912, 
    1914, 
    1915, 
    1916, 
    1917, 
    1921, 
    1922, 
    1924, 
    1925, 
    1926, 
    1927, 
    1932, 
    1933, 
    1935, 
    1936, 
    1937, 
    1938, 
    1941, 
    1942, 
    1944, 
    1945, 
    1946, 
    1947, 
    1950, 
    1951, 
    1953, 
    1954, 
    1955, 
    1956, 
    1959, 
    1960, 
    1962, 
    1963, 
    1964, 
    1965, 
    1969, 
    1970, 
    1972, 
    1973, 
    1974, 
    1975, 
    1980, 
    1981, 
    1983, 
    1984, 
    1985, 
    1986, 
    1989, 
    1990, 
    1992, 
    1993, 
    1994, 
    1995, 
    1998, 
    1999, 
    2001, 
    2002, 
    2003, 
    2004, 
    2007, 
    2008, 
    2010, 
    2011, 
    2012, 
    2013, 
    2017, 
    2018, 
    2020, 
    2021, 
    2022, 
    2023, 
    2028, 
    2029, 
    2031, 
    2032, 
    2033, 
    2034, 
    2037, 
    2038, 
    2040, 
    2041, 
    2042, 
    2043, 
    2046, 
    2047, 
    2049, 
    2050, 
    2051, 
    2052, 
    2055, 
    2056, 
    2058, 
    2059, 
    2060, 
    2061, 
    2065, 
    2066, 
    2068, 
    2069, 
    2070, 
    2071, 
    2076, 
    2077, 
    2079, 
    2080, 
    2081, 
    2082, 
    2085, 
    2086, 
    2088, 
    2089, 
    2090, 
    2091, 
    2094, 
    2095, 
    2097, 
    2098, 
    2099, 
    2100, 
    2103, 
    2104, 
    2106, 
    2107, 
    2108, 
    2109, 
    2113, 
    2114, 
    2116, 
    2117, 
    2118, 
    2119, 
    2124, 
    2125, 
    2127, 
    2128, 
    2129, 
    2130, 
    2133, 
    2134, 
    2136, 
    2137, 
    2138, 
    2139, 
    2142, 
    2143, 
    2145, 
    2146, 
    2147, 
    2148, 
    2151, 
    2152, 
    2154, 
    2155, 
    2156, 
    2157, 
    2161, 
    2162, 
    2164, 
    2165, 
    2166, 
    2167, 
    2172, 
    2173, 
    2175, 
    2176, 
    2177, 
    2178, 
    2181, 
    2182, 
    2184, 
    2185, 
    2186, 
    2187, 
    2190, 
    2191, 
    2193, 
    2194, 
    2195, 
    2196, 
    2199, 
    2200, 
    2202, 
    2203, 
    2204, 
    2205, 
    2209, 
    2210, 
    2212, 
    2213, 
    2214, 
    2215, 
    2220, 
    2221, 
    2223, 
    2224, 
    2225, 
    2226, 
    2229, 
    2230, 
    2232, 
    2233, 
    2234, 
    2235, 
    2238, 
    2239, 
    2241, 
    2242, 
    2243, 
    2244, 
    2247, 
    2248, 
    2250, 
    2251, 
    2252, 
    2253, 
    2257, 
    2258, 
    2260, 
    2261, 
    2262, 
    2263, 
    2268, 
    2269, 
    2271, 
    2272, 
    2273, 
    2274, 
    2277, 
    2278, 
    2280, 
    2281, 
    2282, 
    2283, 
    2286, 
    2287, 
    2289, 
    2290, 
    2291, 
    2292, 
    2295, 
    2296, 
    2298, 
    2299, 
    2300, 
    2301, 
    2305, 
    2306, 
    2308, 
    2309, 
    2310, 
    2311, 
    2315, 
    2316, 
    2318, 
    2319, 
    2320, 
    2321, 
    2327, 
    2328, 
    2330
  ], 
  "node_row_ptr": [
    0, 
    1, 
    2, 
    3, 
    4, 
    5, 
    6, 
    7, 
    8, 
    11, 
    12, 
    13, 
    14, 
    15, 
    16, 
    17, 
    18, 
    19, 
    22, 
    23, 
    24, 
    25, 
    26, 
    27, 
    28, 
    29, 
    30, 
    33, 
    34, 
    35, 
    36, 
    37, 
    38, 
    39, 
    40, 
    41, 
    42, 
    45, 
    46, 
    47, 
    48, 
    49, 
    50, 
    51, 
    52, 
    53, 
    56, 
    57, 
    58, 
    59, 
    60, 
    61, 
    62, 
    63, 
    64, 
    65, 
    68, 
    69, 
    70, 
    71, 
    72, 
    73, 
    74, 
    75, 
    76, 
    79, 
    80, 
    81, 
    82, 
    83, 
    84, 
    85, 
    86, 
    87, 
    90, 
    91, 
    92, 
    93, 
    94, 
    95, 
    96, 
    97, 
    98, 
    101, 
    102, 
    103, 
    104, 
    105, 
    106, 
    107, 
    108, 
    109, 
    112, 
    113, 
    114, 
    115, 
    116, 
    117, 
    118, 
    119, 
    120, 
    123, 
    124, 
    125, 
    126, 
    127, 
    128, 
    129, 
    130, 
    131, 
    132, 
    135, 
    136, 
    137, 
    138, 
    139, 
    140, 
    141, 
    142, 
    143, 
    144, 
    147, 
    148, 
    149, 
    150, 
    151, 
    152, 
    153, 
    154, 
    155, 
    158, 
    159, 
    160, 
    161, 
    162, 
    163, 
    164, 
    165, 
    166, 
    169, 
    170, 
    171, 
    172, 
    173, 
    174, 
    175, 
    176, 
    177, 
    180, 
    181, 
    182, 
    183, 
    184, 
    185, 
    186, 
    187, 
    188, 
    191, 
    192, 
    193, 
    194, 
    195, 
    196, 
    197, 
    198, 
    199, 
    202, 
    203, 
    204, 
    205, 
    206, 
    207, 
    208, 
    209, 
    210, 
    211, 
    214, 
    215, 
    216, 
    217, 
    218, 
    219, 
    220, 
    221, 
    222, 
    223, 
    224, 
    227, 
    228, 
    229, 
    230, 
    231, 
    232, 
    233, 
    234, 
    235, 
    238, 
    239, 
    240, 
    241, 
    242, 
    243, 
    244, 
    245, 
    246, 
    249, 
    250, 
    251, 
    252, 
    253, 
    254, 
    255, 
    256, 
    257, 
    260, 
    261, 
    262, 
    263, 
    264, 
    265, 
    266, 
    267, 
    268, 
    271, 
    272, 
    273, 
    274, 
    275, 
    276, 
    277, 
    278, 
    279, 
    282, 
    283, 
    284, 
    285, 
    286, 
    287, 
    288, 
    289, 
    290, 
    291, 
    294, 
    295, 
    296, 
    297, 
    298, 
    299, 
    300, 
    301, 
    302, 
    303, 
    304, 
    307, 
    308, 
    309, 
    310, 
    311, 
    312, 
    313, 
    314, 
    315, 
    318, 
    319, 
    320, 
    321, 
    322, 
    323, 
    324, 
    325, 
    326, 
    329, 
    330, 
    331, 
    332, 
    333, 
    334, 
    335, 
    336, 
    337, 
    340, 
    341, 
    342, 
    343, 
    344, 
    345, 
    346, 
    347, 
    348, 
    351, 
    352, 
    353, 
    354, 
    355, 
    356, 
    357, 
    358, 
    359, 
    362, 
    363, 
    364, 
    365, 
    366, 
    367, 
    368, 
    369, 
    370, 
    371, 
    374, 
    375, 
    376, 
    377, 
    378, 
    379, 
    380, 
    381, 
    382, 
    383, 
    384, 
    387, 
    388, 
    389, 
    390, 
    391, 
    392, 
    393, 
    394, 
    395, 
    398, 
    399, 
    400, 
    401, 
    402, 
    403, 
    404, 
    405, 
    406, 
    409, 
    410, 
    411, 
    412, 
    413, 
    414, 
    415, 
    416, 
    417, 
    420, 
    421, 
    422, 
    423, 
    424, 
    425, 
    426, 
    427, 
    428, 
    431, 
    432, 
    433, 
    434, 
    435, 
    436, 
    437, 
    438, 
    439, 
    442, 
    443, 
    444, 
    445, 
    446, 
    447, 
    448, 
    449, 
    450, 
    451, 
    454, 
    455, 
    456, 
    457, 
    458, 
    459, 
    460, 
    461, 
    462, 
    463, 
    464, 
    467, 
    468, 
    469, 
    470, 
    471, 
    472, 
    473, 
    474, 
    475, 
    478, 
    479, 
    480, 
    481, 
    482, 
    483, 
    484, 
    485, 
    486, 
    489, 
    490, 
    491, 
    492, 
    493, 
    494, 
    495, 
    496, 
    497, 
    500, 
    501, 
    502, 
    503, 
    504, 
    505, 
    506, 
    507, 
    508, 
    511, 
    512, 
    513, 
    514, 
    515, 
    516, 
    517, 
    518, 
    519, 
    522, 
    523, 
    524, 
    525, 
    526, 
    527, 
    528, 
    529, 
    530, 
    531, 
    534, 
    535, 
    536, 
    537, 
    538, 
    539, 
    540, 
    541, 
    542, 
    543, 
    544, 
    547, 
    548, 
    549, 
    550, 
    551, 
    552, 
    553, 
    554, 
    555, 
    558, 
    559, 
    560, 
    561, 
    562, 
    563, 
    564, 
    565, 
    566, 
    569, 
    570, 
    571, 
    572, 
    573, 
    574, 
    575, 
    576, 
    577, 
    580, 
    581, 
    582, 
    583, 
    584, 
    585, 
    586, 
    587, 
    588, 
    591, 
    592, 
    593, 
    594, 
    595, 
    596, 
    597, 
    598, 
    599, 
    602, 
    603, 
    604, 
    605, 
    606, 
    607, 
    608, 
    609, 
    610, 
    611, 
    614, 
    615, 
    616, 
    617, 
    618, 
    619, 
    620, 
    621, 
    622, 
    623, 
    624, 
    627, 
    628, 
    629, 
    630, 
    631, 
    632, 
    633, 
    634, 
    635, 
    638, 
    639, 
    640, 
    641, 
    642, 
    643, 
    644, 
    645, 
    646, 
    649, 
    650, 
    651, 
    652, 
    653, 
    654, 
    655, 
    656, 
    657, 
    660, 
    661, 
    662, 
    663, 
    664, 
    665, 
    666, 
    667, 
    668, 
    671, 
    672, 
    673, 
    674, 
    675, 
    676, 
    677, 
    678, 
    679, 
    682, 
    683, 
    684, 
    685, 
    686, 
    687, 
    688, 
    689, 
    690, 
    691, 
    694, 
    695, 
    696, 
    697, 
    698, 
    699, 
    700, 
    701, 
    702, 
    703, 
    704, 
    707, 
    708, 
    709, 
    710, 
    711, 
    712, 
    713, 
    714, 
    715, 
    718, 
    719, 
    720, 
    721, 
    722, 
    723, 
    724, 
    725, 
    726, 
    729, 
    730, 
    731, 
    732, 
    733, 
    734, 
    735, 
    736, 
    737, 
    740, 
    741, 
    742, 
    743, 
    744, 
    745, 
    746, 
    747, 
    748, 
    751, 
    752, 
    753, 
    754, 
    755, 
    756, 
    757, 
    758, 
    759, 
    762, 
    763, 
    764, 
    765, 
    766, 
    767, 
    768, 
    769, 
    770, 
    771, 
    774, 
    775, 
    776, 
    777, 
    778, 
    779, 
    780, 
    781, 
    782, 
    783, 
    784, 
    787, 
    788, 
    789, 
    790, 
    791, 
    792, 
    793, 
    794, 
    795, 
    798, 
    799, 
    800, 
    801, 
    802, 
    803, 
    804, 
    805, 
    806, 
    809, 
    810, 
    811, 
    812, 
    813, 
    814, 
    815, 
    816, 
    817, 
    820, 
    821, 
    822, 
    823, 
    824, 
    825, 
    826, 
    827, 
    828, 
    831, 
    832, 
    833, 
    834, 
    835, 
    836, 
    837, 
    838, 
    839, 
    842, 
    843, 
    844, 
    845, 
    846, 
    847, 
    848, 
    849, 
    850, 
    851, 
    854, 
    855, 
    856, 
    857, 
    858, 
    859, 
    860, 
    861, 
    862, 
    863, 
    864, 
    867, 
    868, 
    869, 
    870, 
    871, 
    872, 
    873, 
    874, 
    875, 
    878, 
    879, 
    880, 
    881, 
    882, 
    883, 
    884, 
    885, 
    886, 
    889, 
    890, 
    891, 
    892, 
    893, 
    894, 
    895, 
    896, 
    897, 
    900, 
    901, 
    902, 
    903, 
    904, 
    905, 
    906, 
    907, 
    908, 
    911, 
    912, 
    913, 
    914, 
    915, 
    916, 
    917, 
    918, 
    919, 
    922, 
    923, 
    924, 
    925, 
    926, 
    927, 
    928, 
    929, 
    930, 
    931, 
    934, 
    935, 
    936, 
    937, 
    938, 
    939, 
    940, 
    941, 
    942, 
    943, 
    944, 
    947, 
    948, 
    949, 
    950, 
    951, 
    952, 
    953, 
    954, 
    955, 
    958, 
    959, 
    960, 
    961, 
    962, 
    963, 
    964, 
    965, 
    966, 
    969, 
    970, 
    971, 
    972, 
    973, 
    974, 
    975, 
    976, 
    977, 
    980, 
    981, 
    982, 
    983, 
    984, 
    985, 
    986, 
    987, 
    988, 
    989, 
    990, 
    993, 
    994, 
    995, 
    996, 
    997, 
    998, 
    999, 
    1000, 
    1001, 
    1004, 
    1005, 
    1006, 
    1007, 
    1008, 
    1009, 
    1010, 
    1011, 
    1012, 
    1015, 
    1016, 
    1017, 
    1018, 
    1019, 
    1020, 
    1021, 
    1022, 
    1023, 
    1026, 
    1027, 
    1028, 
    1029, 
    1030, 
    1031, 
    1032, 
    1033, 
    1034, 
    1035, 
    1038, 
    1039, 
    1040, 
    1041, 
    1042, 
    1043, 
    1044, 
    1045, 
    1046, 
    1047, 
    1048, 
    1051, 
    1052, 
    1053, 
    1054, 
    1055, 
    1056, 
    1057, 
    1058, 
    1059, 
    1062, 
    1063, 
    1064, 
    1065, 
    1066, 
    1067, 
    1068, 
    1069, 
    1070, 
    1073, 
    1074, 
    1075, 
    1076, 
    1077, 
    1078, 
    1079, 
    1080, 
    1081, 
    1084, 
    1085, 
    1086, 
    1087, 
    1088, 
    1089, 
    1090, 
    1091, 
    1092, 
    1093, 
    1096, 
    1097, 
    1098, 
    1099, 
    1100, 
    1101, 
    1102, 
    1103, 
    1104, 
    1105, 
    1106, 
    1109, 
    1110, 
    1111, 
    1112, 
    1113, 
    1114, 
    1115, 
    1116, 
    1117, 
    1120, 
    1121, 
    1122, 
    1123, 
    1124, 
    1125, 
    1126, 
    1127, 
    1128, 
    1131, 
    1132, 
    1133, 
    1134, 
    1135, 
    1136, 
    1137, 
    1138, 
    1139, 
    1142, 
    1143, 
    1144, 
    1145, 
    1146, 
    1147, 
    1148, 
    1149, 
    1150, 
    1151, 
    1154, 
    1155, 
    1156, 
    1157, 
    1158, 
    1159, 
    1160, 
    1161, 
    1162, 
    1163, 
    1164, 
    1167, 
    1168, 
    1169, 
    1170, 
    1171, 
    1172, 
    1173, 
    1174, 
    1175, 
    1178, 
    1179, 
    1180, 
    1181, 
    1182, 
    1183, 
    1184, 
    1185, 
    1186, 
    1189, 
    1190, 
    1191, 
    1192, 
    1193, 
    1194, 
    1195, 
    1196, 
    1197, 
    1200, 
    1201, 
    1202, 
    1203, 
    1204, 
    1205, 
    1206, 
    1207, 
    1208, 
    1209, 
    1212, 
    1213, 
    1214, 
    1215, 
    1216, 
    1217, 
    1218, 
    1219, 
    1220, 
    1221, 
    1222, 
    1225, 
    1226, 
    1227, 
    1228, 
    1229, 
    1230, 
    1231, 
    1232, 
    1233, 
    1236, 
    1237, 
    1238, 
    1239, 
    1240, 
    1241, 
    1242, 
    1243, 
    1244, 
    1247, 
    1248, 
    1249, 
    1250, 
    1251, 
    1252, 
    1253, 
    1254, 
    1255, 
    1258, 
    1259, 
    1260, 
    1261, 
    1262, 
    1263, 
    1264, 
    1265, 
    1266, 
    1267, 
    1270, 
    1271, 
    1272, 
    1273, 
    1274, 
    1275, 
    1276, 
    1277, 
    1278, 
    1279, 
    1280, 
    1283, 
    1284, 
    1285, 
    1286, 
    1287, 
    1288, 
    1289, 
    1290, 
    1291, 
    1294, 
    1295, 
    1296, 
    1297, 
    1298, 
    1299, 
    1300, 
    1301, 
    1302, 
    1305, 
    1306, 
    1307, 
    1308, 
    1309, 
    1310, 
    1311, 
    1312, 
    1313, 
    1316, 
    1317, 
    1318, 
    1319, 
    1320, 
    1321, 
    1322, 
    1323, 
    1324, 
    1325, 
    1328, 
    1329, 
    1330, 
    1331, 
    1332, 
    1333, 
    1334, 
    1335, 
    1336, 
    1337, 
    1338, 
    1341, 
    1342, 
    1343, 
    1344, 
    1345, 
    1346, 
    1347, 
    1348, 
    1349, 
    1352, 
    1353, 
    1354, 
    1355, 
    1356, 
    1357, 
    1358, 
    1359, 
    1360, 
    1363, 
    1364, 
    1365, 
    1366, 
    1367, 
    1368, 
    1369, 
    1370, 
    1371, 
    1374, 
    1375, 
    1376, 
    1377, 
    1378, 
    1379, 
    1380, 
    1381, 
    1382, 
    1383, 
    1386, 
    1387, 
    1388, 
    1389, 
    1390, 
    1391, 
    1392, 
    1393, 
    1394, 
    1395, 
    1396, 
    1399, 
    1400, 
    1401, 
    1402, 
    1403, 
    1404, 
    1405, 
    1406, 
    1407, 
    1410, 
    1411, 
    1412, 
    1413, 
    1414, 
    1415, 
    1416, 
    1417, 
    1418, 
    1421, 
    1422, 
    1423, 
    1424, 
    1425, 
    1426, 
    1427, 
    1428, 
    1429, 
    1432, 
    1433, 
    1434, 
    1435, 
    1436, 
    1437, 
    1438, 
    1439, 
    1440, 
    1441, 
    1444, 
    1445, 
    1446, 
    1447, 
    1448, 
    1449, 
    1450, 
    1451, 
    1452, 
    1453, 
    1454, 
    1457, 
    1458, 
    1459, 
    1460, 
    1461, 
    1462, 
    1463, 
    1464, 
    1465, 
    1468, 
    1469, 
    1470, 
    1471, 
    1472, 
    1473, 
    1474, 
    1475, 
    1476, 
    1479, 
    1480, 
    1481, 
    1482, 
    1483, 
    1484, 
    1485, 
    1486, 
    1487, 
    1490, 
    1491, 
    1492, 
    1493, 
    1494, 
    1495, 
    1496, 
    1497, 
    1498, 
    1499, 
    1502, 
    1503, 
    1504, 
    1505, 
    1506, 
    1507, 
    1508, 
    1509, 
    1510, 
    1511, 
    1512, 
    1515, 
    1516, 
    1517, 
    1518, 
    1519, 
    1520, 
    1521, 
    1522, 
    1523, 
    1526, 
    1527, 
    1528, 
    1529, 
    1530, 
    1531, 
    1532, 
    1533, 
    1534, 
    1537, 
    1538, 
    1539, 
    1540, 
    1541, 
    1542, 
    1543, 
    1544, 
    1545, 
    1548, 
    1549, 
    1550, 
    1551, 
    1552, 
    1553, 
    1554, 
    1555, 
    1556, 
    1557, 
    1560, 
    1561, 
    1562, 
    1563, 
    1564, 
    1565, 
    1566, 
    1567, 
    1568, 
    1569, 
    1570, 
    1573, 
    1574, 
    1575, 
    1576, 
    1577, 
    1578, 
    1579, 
    1580, 
    1581, 
    1584, 
    1585, 
    1586, 
    1587, 
    1588, 
    1589, 
    1590, 
    1591, 
    1592, 
    1595, 
    1596, 
    1597, 
    1598, 
    1599, 
    1600, 
    1601, 
    1602, 
    1603, 
    1606, 
    1607, 
    1608, 
    1609, 
    1610, 
    1611, 
    1612, 
    1613, 
    1614, 
    1615, 
    1618, 
    1619, 
    1620, 
    1621, 
    1622, 
    1623, 
    1624, 
    1625, 
    1626, 
    1627, 
    1628, 
    1631, 
    1632, 
    1633, 
    1634, 
    1635, 
    1636, 
    1637, 
    1638, 
    1639, 
    1642, 
    1643, 
    1644, 
    1645, 
    1646, 
    1647, 
    1648, 
    1649, 
    1650, 
    1653, 
    1654, 
    1655, 
    1656, 
    1657, 
    1658, 
    1659, 
    1660, 
    1661, 
    1664, 
    1665, 
    1666, 
    1667, 
    1668, 
    1669, 
    1670, 
    1671, 
    1672, 
    1673, 
    1676, 
    1677, 
    1678, 
    1679, 
    1680, 
    1681, 
    1682, 
    1683, 
    1684, 
    1685, 
    1686, 
    1689, 
    1690, 
    1691, 
    1692, 
    1693, 
    1694, 
    1695, 
    1696, 
    1697, 
    1700, 
    1701, 
    1702, 
    1703, 
    1704, 
    1705, 
    1706, 
    1707, 
    1708, 
    1711, 
    1712, 
    1713, 
    1714, 
    1715, 
    1716, 
    1717, 
    1718, 
    1719, 
    1722, 
    1723, 
    1724, 
    1725, 
    1726, 
    1727, 
    1728, 
    1729, 
    1730, 
    1731, 
    1734, 
    1735, 
    1736, 
    1737, 
    1738, 
    1739, 
    1740, 
    1741, 
    1742, 
    1743, 
    1744, 
    1747, 
    1748, 
    1749, 
    1750, 
    1751, 
    1752, 
    1753, 
    1754, 
    1755, 
    1758, 
    1759, 
    1760, 
    1761, 
    1762, 
    1763, 
    1764, 
    1765, 
    1766, 
    1769, 
    1770, 
    1771, 
    1772, 
    1773, 
    1774, 
    1775, 
    1776, 
    1777, 
    1780, 
    1781, 
    1782, 
    1783, 
    1784, 
    1785, 
    1786, 
    1787, 
    1788, 
    1789, 
    1792, 
    1793, 
    1794, 
    1795, 
    1796, 
    1797, 
    1798, 
    1799, 
    1800, 
    1801, 
    1802, 
    1805, 
    1806, 
    1807, 
    1808, 
    1809, 
    1810, 
    1811, 
    1812, 
    1813, 
    1816, 
    1817, 
    1818, 
    1819, 
    1820, 
    1821, 
    1822, 
    1823, 
    1824, 
    1827, 
    1828, 
    1829, 
    1830, 
    1831, 
    1832, 
    1833, 
    1834, 
    1835, 
    1838, 
    1839, 
    1840, 
    1841, 
    1842, 
    1843, 
    1844, 
    1845, 
    1846, 
    1847, 
    1850, 
    1851, 
    1852, 
    1853, 
    1854, 
    1855, 
    1856, 
    1857, 
    1858, 
    1859, 
    1860, 
    1863, 
    1864, 
    1865, 
    1866, 
    1867, 
    1868, 
    1869, 
    1870, 
    1871, 
    1874, 
    1875, 
    1876, 
    1877, 
    1878, 
    1879, 
    1880, 
    1881, 
    1882, 
    1885, 
    1886, 
    1887, 
    1888, 
    1889, 
    1890, 
    1891, 
    1892, 
    1893, 
    1896, 
    1897, 
    1898, 
    1899, 
    1900, 
    1901, 
    1902, 
    1903, 
    1904, 
    1905, 
    1908, 
    1909, 
    1910, 
    1911, 
    1912, 
    1913, 
    1914, 
    1915, 
    1916, 
    1917, 
    1918, 
    1921, 
    1922, 
    1923, 
    1924, 
    1925, 
    1926, 
    1927, 
    1928, 
    1929, 
    1932, 
    1933, 
    1934, 
    1935, 
    1936, 
    1937, 
    1938, 
    1939, 
    1940, 
    1943, 
    1944, 
    1945, 
    1946, 
    1947, 
    1948, 
    1949, 
    1950, 
    1951, 
    1954, 
    1955, 
    1956, 
    1957, 
    1958, 
    1959, 
    1960, 
    1961, 
    1962, 
    1963, 
    1966, 
    1967, 
    1968, 
    1969, 
    1970, 
    1971, 
    1972, 
    1973, 
    1974, 
    1975, 
    1976, 
    1979, 
    1980, 
    1981, 
    1982, 
    1983, 
    1984, 
    1985, 
    1986, 
    1987, 
    1990, 
    1991, 
    1992, 
    1993, 
    1994, 
    1995, 
    1996, 
    1997, 
    1998, 
    2001, 
    2002, 
    2003, 
    2004, 
    2005, 
    2006, 
    2007, 
    2008, 
    2009, 
    2012, 
    2013, 
    2014, 
    2015, 
    2016, 
    2017, 
    2018, 
    2019, 
    2020, 
    2021, 
    2024, 
    2025, 
    2026, 
    2027, 
    2028, 
    2029, 
    2030, 
    2031, 
    2032, 
    2033, 
    2034, 
    2037, 
    2038, 
    2039, 
    2040, 
    2041, 
    2042, 
    2043, 
    2044, 
    2045, 
    2048, 
    2049, 
    2050, 
    2051, 
    2052, 
    2053, 
    2054, 
    2055, 
    2056, 
    2059, 
    2060, 
    2061, 
    2062, 
    2063, 
    2064, 
    2065, 
    2066, 
    2067, 
    2070, 
    2071, 
    2072, 
    2073, 
    2074, 
    2075, 
    2076, 
    2077, 
    2078, 
    2079, 
    2082, 
    2083, 
    2084, 
    2085, 
    2086, 
    2087, 
    2088, 
    2089, 
    2090, 
    2091, 
    2092, 
    2095, 
    2096, 
    2097, 
    2098, 
    2099, 
    2100, 
    2101, 
    2102, 
    2103, 
    2106, 
    2107, 
    2108, 
    2109, 
    2110, 
    2111, 
    2112, 
    2113, 
    2114, 
    2117, 
    2118, 
    2119, 
    2120, 
    2121, 
    2122, 
    2123, 
    2124, 
    2125, 
    2128, 
    2129, 
    2130, 
    2131, 
    2132, 
    2133, 
    2134, 
    2135, 
    2136, 
    2137, 
    2140, 
    2141, 
    2142, 
    2143, 
    2144, 
    2145, 
    2146, 
    2147, 
    2148, 
    2149, 
    2150, 
    2153, 
    2154, 
    2155, 
    2156, 
    2157, 
    2158, 
    2159, 
    2160, 
    2161, 
    2164, 
    2165, 
    2166, 
    2167, 
    2168, 
    2169, 
    2170, 
    2171, 
    2172, 
    2175, 
    2176, 
    2177, 
    2178, 
    2179, 
    2180, 
    2181, 
    2182, 
    2183, 
    2186, 
    2187, 
    2188, 
    2189, 
    2190, 
    2191, 
    2192, 
    2193, 
    2194, 
    2197, 
    2198, 
    2199, 
    2200, 
    2201, 
    2202, 
    2203, 
    2204, 
    2205, 
    2208, 
    2209, 
    2210, 
    2211, 
    2212, 
    2213, 
    2214, 
    2215, 
    2216, 
    2219, 
    2220, 
    2221, 
    2222, 
    2223, 
    2224, 
    2225, 
    2226, 
    2227, 
    2228, 
    2229, 
    2232, 
    2233, 
    2234, 
    2235, 
    2236, 
    2237, 
    2238, 
    2239, 
    2240, 
    2243, 
    2244, 
    2245, 
    2246, 
    2247, 
    2248, 
    2249, 
    2250, 
    2251, 
    2254, 
    2255, 
    2256, 
    2257, 
    2258, 
    2259, 
    2260, 
    2261, 
    2262, 
    2265, 
    2266, 
    2267, 
    2268, 
    2269, 
    2270, 
    2271, 
    2272, 
    2273, 
    2274, 
    2277, 
    2278, 
    2279, 
    2280, 
    2281, 
    2282, 
    2283, 
    2284, 
    2285, 
    2286, 
    2287, 
    2290, 
    2291, 
    2292, 
    2293, 
    2294, 
    2295, 
    2296, 
    2297, 
    2298, 
    2301, 
    2302, 
    2303, 
    2304, 
    2305, 
    2306, 
    2307, 
    2308, 
    2309, 
    2312, 
    2313, 
    2314, 
    2315, 
    2316, 
    2317, 
    2318, 
    2319, 
    2320, 
    2323, 
    2324, 
    2325, 
    2326, 
    2327, 
    2328, 
    2329, 
    2330, 
    2331, 
    2332, 
    2335, 
    2336, 
    2337, 
    2338, 
    2339, 
    2340, 
    2341, 
    2342, 
    2343, 
    2344, 
    2345, 
    2348, 
    2349, 
    2350, 
    2351, 
    2352, 
    2353, 
    2354, 
    2355, 
    2356, 
    2359, 
    2360, 
    2361, 
    2362, 
    2363, 
    2364, 
    2365, 
    2366, 
    2367, 
    2370, 
    2371, 
    2372, 
    2373, 
    2374, 
    2375, 
    2376, 
    2377, 
    2378, 
    2381, 
    2382, 
    2383, 
    2384, 
    2385, 
    2386, 
    2387, 
    2388, 
    2389, 
    2390, 
    2393, 
    2394, 
    2395, 
    2396, 
    2397, 
    2398, 
    2399, 
    2400, 
    2401, 
    2402, 
    2403, 
    2406, 
    2407, 
    2408, 
    2409, 
    2410, 
    2411, 
    2412, 
    2413, 
    2414, 
    2417, 
    2418, 
    2419, 
    2420, 
    2421, 
    2422, 
    2423, 
    2424, 
    2425, 
    2428, 
    2429, 
    2430, 
    2431, 
    2432, 
    2433, 
    2434, 
    2435, 
    2436, 
    2439, 
    2440, 
    2441, 
    2442, 
    2443, 
    2444, 
    2445, 
    2446, 
    2447, 
    2448, 
    2451, 
    2452, 
    2453, 
    2454, 
    2455, 
    2456, 
    2457, 
    2458, 
    2459, 
    2460, 
    2461, 
    2464, 
    2465, 
    2466, 
    2467, 
    2468, 
    2469, 
    2470, 
    2471, 
    2472, 
    2475, 
    2476, 
    2477, 
    2478, 
    2479, 
    2480, 
    2481, 
    2482, 
    2483, 
    2486, 
    2487, 
    2488, 
    2489, 
    2490, 
    2491, 
    2492, 
    2493, 
    2494, 
    2497, 
    2498, 
    2499, 
    2500, 
    2501, 
    2502, 
    2503, 
    2504, 
    2505, 
    2506, 
    2509, 
    2510, 
    2511, 
    2512, 
    2513, 
    2514, 
    2515, 
    2516, 
    2517, 
    2518, 
    2519, 
    2522, 
    2523, 
    2524, 
    2525, 
    2526, 
    2527, 
    2528, 
    2529, 
    2530, 
    2533, 
    2534, 
    2535, 
    2536, 
    2537, 
    2538, 
    2539, 
    2540, 
    2541, 
    2544, 
    2545, 
    2546, 
    2547, 
    2548, 
    2549, 
    2550, 
    2551, 
    2552, 
    2555, 
    2556, 
    2557, 
    2558, 
    2559, 
    2560, 
    2561, 
    2562, 
    2563, 
    2564, 
    2567, 
    2568, 
    2569, 
    2570, 
    2571, 
    2572, 
    2573, 
    2574, 
    2575, 
    2576, 
    2577, 
    2580, 
    2581, 
    2582, 
    2583, 
    2584, 
    2585, 
    2586, 
    2587, 
    2588, 
    2591, 
    2592, 
    2593, 
    2594, 
    2595, 
    2596, 
    2597, 
    2598, 
    2599, 
    2602, 
    2603, 
    2604, 
    2605, 
    2606, 
    2607, 
    2608, 
    2609, 
    2610, 
    2613, 
    2614, 
    2615, 
    2616, 
    2617, 
    2618, 
    2619, 
    2620, 
    2621, 
    2622, 
    2625, 
    2626, 
    2627, 
    2628, 
    2629, 
    2630, 
    2631, 
    2632, 
    2633, 
    2634, 
    2635, 
    2638, 
    2639, 
    2640, 
    2641, 
    2642, 
    2643, 
    2644, 
    2645, 
    2646, 
    2649, 
    2650, 
    2651, 
    2652, 
    2653, 
    2654, 
    2655, 
    2656, 
    2657, 
    2660, 
    2661, 
    2662, 
    2663, 
    2664, 
    2665, 
    2666, 
    2667, 
    2668, 
    2671, 
    2672, 
    2673, 
    2674, 
    2675, 
    2676, 
    2677, 
    2678, 
    2679, 
    2680, 
    2683, 
    2684, 
    2685, 
    2686, 
    2687, 
    2688, 
    2689, 
    2690, 
    2691, 
    2692, 
    2693, 
    2696, 
    2697, 
    2698, 
    2699, 
    2700, 
    2701, 
    2702, 
    2703, 
    2704, 
    2707, 
    2708, 
    2709, 
    2710, 
    2711, 
    2712, 
    2713, 
    2714, 
    2715, 
    2718, 
    2719, 
    2720, 
    2721, 
    2722, 
    2723, 
    2724, 
    2725, 
    2726, 
    2729, 
    2730, 
    2731, 
    2732, 
    2733, 
    2734, 
    2735, 
    2736, 
    2737, 
    2738, 
    2741, 
    2742, 
    2743, 
    2744, 
    2745, 
    2746, 
    2747, 
    2748, 
    2749, 
    2750, 
    2751, 
    2754, 
    2755, 
    2756, 
    2757, 
    2758, 
    2759, 
    2760, 
    2761, 
    2762, 
    2765, 
    2766, 
    2767, 
    2768, 
    2769, 
    2770, 
    2771, 
    2772, 
    2773, 
    2776, 
    2777, 
    2778, 
    2779, 
    2780, 
    2781, 
    2782, 
    2783, 
    2784, 
    2787, 
    2788, 
    2789, 
    2790, 
    2791, 
    2792, 
    2793, 
    2794, 
    2795, 
    2796, 
    2799, 
    2800, 
    2801, 
    2802, 
    2803, 
    2804, 
    2805, 
    2806, 
    2807, 
    2808, 
    2811, 
    2812, 
    2813, 
    2814, 
    2816, 
    2817, 
    2818, 
    2819, 
    2820, 
    2821
  ], 
  "heads": [[2331, 0, 0]], 
  "attrs": {"mxnet_version": ["int", 903]}
}